ch08/car_racing_dqn_600.pth (torch, 40850 bytes, 8 tensors)

layer1.weight f4 [64, 11]
-0.28252596 -0.05420597 -0.120640755 0.13079038 0.23658405 0.13698249 0.026540544 0.2724269
0.3115087 0.21696903 0.18225195 -0.59432524 -0.32194394 0.19616337 0.341625 0.3824254
0.23376215 -0.097601384 0.10676933 0.27980477 0.35092553 0.16099928 0.31657308 -0.11399154
-0.2578971 0.039209835 0.07624995 -0.2394668 -0.13565421 0.28606236 -0.09647069 -0.19751479
0.14753702 -0.081700824 0.031402443 -0.061415475 0.08563609 -0.05285123 0.08555927 -0.12331993
0.018529894 -0.031068623 0.16887382 -0.14649518 -0.10799255 0.018053252 0.1196794 0.35224724
0.34501594 0.27847812 0.21209827 0.1490945 0.10470747 0.10697544 0.024959806 0.34506184
0.071899325 0.2047864 -0.112031996 -0.06959153 0.29636946 0.3392247 0.36875406 -0.22386107
-0.47815245 -0.4623228 -0.34520665 0.15504465 0.3214 0.15951705 -0.021455243 -0.2625505
0.09110421 0.29947802 0.081524484 0.040035732 0.1025149 -0.5099955 0.24754296 0.16278751
0.061068248 0.10845649 0.1288494 0.12998036 0.21039668 0.08655465 0.014334409 -0.51688033
0.33418906 -0.5687191 -0.06695973 -0.00013863969 -0.5086994 -0.4439097 -0.012069972 0.098849155
0.06093233 0.45806238 0.4171203 -0.02000372 0.24940127 0.057710357 -0.38038176 -0.063775435
0.24290055 0.037815697 0.12021711 0.073610626 0.073573284 0.20779383 0.4996608 0.14482145
0.11248616 -0.38894016 -0.6760046 -0.049138654 0.24797806 0.3298222 0.10969339 0.44298133
0.43167117 0.3255328 0.04920205 -0.2979871 -0.04810411 0.034560155 -0.26596504 -0.041746203
0.16204095 -0.14612143 -0.01689663 0.07484243 -0.044928245 0.10012423 0.2262358 -0.22133818
-0.072977886 -0.14226314 -0.24519187 -0.15706456 -0.109689415 0.21657178 0.2203114 -0.034915406
0.25619468 -0.10264735 -0.34764162 -0.32590285 0.2453914 0.17117667 -0.03747499 0.032130763
-0.20185518 -0.20396756 0.096550494 -0.15264574 0.13124011 -0.048409108 -0.035510503 0.053541627
-0.15441316 -0.026824975 -0.151968 0.033214528 0.025959356 -0.0038588361 -0.021773202 0.013198119
-0.16739485 -0.095488384 -0.028557455 0.07558302 -0.15297668 -0.0044054626 -0.13273974 -0.05837207
0.027647369 0.2755106 0.07702432 0.14224689 0.13727516 0.27678627 0.24506228 0.2262982
0.08413359 0.21189208 0.03543398 -0.17664786 0.014097866 0.36253628 0.14083655 0.30245185
-0.036139905 -0.4322571 -0.48311347 -0.5251881 -0.15366146 0.03338945 -0.64867795 -1.0218091
-0.48088115 -1.0521526 -1.186635 -1.7690275 -0.75781834 -0.43652642 -0.25946426 -0.08297178
-0.3867054 0.5743735 -0.22287387 -0.30918223 0.091514975 0.028886838 -0.3384262 -0.0011400589
0.042091355 -0.0783151 0.14402574 0.12486428 -0.34677535 -0.27121451 -0.49814245 0.09605619
0.2591569 0.26723456 0.27238625 0.3528798 0.11665398 0.253142 0.05809262 0.030229263
-0.34097058 -0.15630236 -0.43734822 0.12935294 0.39740735 0.07070296 -0.08072756 0.0598311
0.10403554 0.08858222 0.25601873 0.12812051 -0.25794873 0.09354366 -0.03318897 -0.21569915
-0.111116506 0.16035546 -0.015903668 0.14686216 -0.015266081 0.017010048 -0.14359668 -0.02696103
00000000: 3ea7 90be 1407 5ebd 8012 f7bd eaed 053e
00000010: 1743 723e 2345 0c3e 8e6b d93c 8a7b 8b3e
00000020: 117e 9f3e 212d 5e3e 41a0 3a3e b325 18bf
00000030: d6d5 a4be 0ddf 483e 79e9 ae3e 43cd c33e
00000040: 585f 6f3e 3ce3 c7bd e1a9 da3d 9242 8f3e
00000050: 83ac b33e ffdc 243e de15 a23e 6674 e9bd
00000060: 170b 84be 7e9a 203d ef28 9c3d c936 75be
00000070: f0e8 0abe c476 923e 6d92 c5bd 5141 4abe
00000080: f213 173e c352 a7bd d99f 003d cb8e 7bbd
00000090: f961 af3d 887a 58bd b339 af3d 298f fcbd
000000a0: 01cc 973c a083 febc 42ed 2c3e d502 16be
000000b0: 332b ddbd 6ae4 933c 791a f53d c059 b43e
000000c0: eea5 b03e af94 8e3e 4a30 593e 3bac 183e
000000d0: df70 d63d f115 db3d 8278 cc3c f2ab b03e
000000e0: f43f 933d 87b3 513e 0871 e5bd 0186 8ebd
000000f0: bdbd 973e dcae ad3e 55cd bc3e d63b 65be
00000100: 66d0 f4be 93b5 ecbe edbe b0be 06c4 1e3e
00000110: 8a8e a43e 7058 233e e8c2 afbc 056d 86be
00000120: d894 ba3d 2f55 993e 4ff6 a63d 82fc 233d
00000130: 55f3 d13d 118f 02bf e77b 7d3e c5b1 263e
00000140: b322 7a3d 701e de3d 19f1 033e 9219 053e
00000150: 3a72 573e 9043 b13d deda 6a3c 4552 04bf
00000160: d41a ab3e 9397 11bf 2f22 89bd cf5f 11b9
00000170: 203a 02bf 2248 e3be 22c1 45bc 6d71 ca3d
00000180: 2e94 793d 2787 ea3e cb90 d53e d7de a3bc
00000190: 0c63 7f3e b261 6c3d 66c1 c2be b29c 82bd
000001a0: ecba 783e a2e4 1a3d 6334 f63d 2bc1 963d
000001b0: 97ad 963d e8c7 543e 8ad3 ff3e 134c 143e
000001c0: 255f e63d 2a23 c7be a30e 2dbf 9d45 49bd
000001d0: f6ed 7d3e 75de a83e eea6 e03d 73ce e23e
000001e0: 0104 dd3e 3cac a63e 1788 493d c491 98be
000001f0: d108 45bd f38e 0d3d 922c 88be 11fe 2abd
00000200: 10ee 253e dba0 15be cd6a 8abc fd46 993d
00000210: ae06 38bd ef0d cd3d 5caa 673e 7aa6 62be
00000220: 6e75 95bd 6ead 11be 9413 7bbe 88d5 20be
00000230: d8a4 e0bd fec4 5d3e 5099 613e 7503 0fbd
00000240: f32b 833e c638 d2bd 15fe b1be bddc a6be
00000250: e247 7b3e f048 2f3e 607f 19bd 8c9b 033d
00000260: 20b3 4ebe dfdc 50be 44bc c53d 2a4f 1cbe
00000270: cf63 063e a148 46bd 7673 11bd 774e 5b3d
00000280: 7c1e 1ebe 0dc0 dbbc 809d 1bbe f50b 083d
00000290: b7a8 d43c 87e4 7cbb b75d b2bc ec3c 583c
000002a0: 8e69 2bbe 6a8f c3bd 53f1 e9bc 45cb 9a3d
000002b0: eba5 1cbe b35b 90bb edec 07be 8d17 6fbd
000002c0: bc7c e23c ba0f 8d3e edbe 9d3d 2ba9 113e
000002d0: dc91 0c3e eeb6 8d3e 9bf1 7a3e b7ba 673e
000002e0: 3b4e ac3d 3dfa 583e 3923 113d 2de3 34be
000002f0: bcfa 663c 5b9e b93e 7537 103e f8da 9a3e
00000300: 7007 14bd cd50 ddbe a65a f7be ba72 06bf
00000310: 6e59 1dbe 60c3 083d c20f 26bf a4ca 82bf
00000320: 0e36 f6be f0ac 86bf a8e3 97bf 7e6f e2bf
00000330: 6200 42bf 6480 dfbe 80d8 84be 1ced a9bd
00000340: 40fe c5be 240a 133f 0c39 64be 224d 9ebe
00000350: 346c bb3d 17a4 ec3c 3346 adbe 076e 95ba
00000360: fc67 2c3d ab63 a0bd 7c7b 133e d8b8 ff3d
00000370: 8a8c b1be a1dc 8abe 870c ffbe 1cb9 c43d
00000380: 37b0 843e f8d2 883e 3676 8b3e a9ac b43e
00000390: 48e8 ee3d d49b 813e 87f2 6d3d 5ca3 f73c
000003a0: b293 aebe ba0d 20be 1bec dfbe 1975 043e
000003b0: fa78 cb3e b7cc 903d 7e54 a5bd 7511 753d
000003c0: 9610 d53d 986a b53d e314 833e 0632 033e
000003d0: db11 84be d293 bf3d 28f1 07bd 3de0 5cbe
000003e0: 0d91 e3bd 3934 243e 6948 82bc 0963 163e
000003f0: 961e 7abc a858 8b3c 020b 13be 61dd dcbc

layer1.bias f4 [64]
0.0015600179 -0.416019 0.19091561 -0.09531954 -0.12617853 0.1801014 0.13899183 -0.2936293
0.20918672 0.15811878 -0.3696382 0.28731924 0.14873444 0.16582185 -0.15847218 -0.12909001
-0.17164841 0.28960863 0.5152054 0.21372078 0.092867136 0.13946357 0.13365355 -0.069533184
0.20363297 0.22501591 0.3270839 0.20698689 0.18268637 -0.016290644 0.02698625 0.17784949
-0.11845448 0.19084181 0.30443487 -0.027926048 -0.29216632 -0.07258546 -0.020132603 0.0041138288
0.20503454 0.00061017484 0.093356974 0.25165796 -0.21981706 0.094606124 0.2950831 0.017290447
0.27364656 0.4883605 -0.07079406 0.16469239 0.18562162 -0.044150718 -0.14013617 -0.029201612
-0.15008548 -0.14400414 0.033724874 0.22842222 -0.05882089 -0.16866666 -0.23508057 -0.0796079
00000000: 8479 cc3a 7100 d5be 627f 433e e436 c3bd
00000010: f234 01be 806c 383e e053 0e3e 9456 96be
00000020: 0b35 563e e4e9 213e 3841 bdbe 821b 933e
00000030: d74d 183e 34cd 293e 8846 22be 2c30 04be
00000040: 9ac4 2fbe 9547 943e 80e4 033f 9fd9 5a3e
00000050: 2031 be3d 8acf 0e3e 7adc 083e 6a67 8ebd
00000060: 2985 503e 926a 663e 8a77 a73e 5ff4 533e
00000070: 2312 3b3e f573 85bc 4512 dd3c 2d1e 363e
00000080: 4398 f2bd 096c 433e e3de 9b3e 2bc5 e4bc
00000090: d396 95be b0a7 94bd 21ed a4bc 4ccd 863b
000000a0: 93f4 513e 24f4 1f3a f131 bf3d 50d9 803e
000000b0: b917 61be dbc0 c13d 2215 973e b2a4 8d3c
000000c0: 671b 8c3e 630a fa3e 7afc 90bd 1fa5 283e
000000d0: 9813 3e3e 62d7 34bd db7f 0fbe 3838 efbc
000000e0: 02b0 19be d275 13be 1823 0a3d 84e7 693e
000000f0: 2cee 70bd f4b6 2cbe f6b8 70be 7709 a3bd

layer2.weight_ih_l0 f4 [64, 64]
0.042179614 0.12974218 -0.41364935 -0.0012798504 -0.30119312 0.506412 0.03893473 -0.47618982
-0.3090917 0.2109573 0.420486 -0.35222235 0.25676823 0.3173695 0.06688333 0.069084115
-0.15637995 0.57970256 -0.8471336 -0.32325026 0.4183203 0.3275524 -0.3546039 -0.053198833
0.43129048 1.2772069 -0.4432108 -0.22863844 -0.1871184 0.57375586 -0.6877468 0.8748155
-0.029884042 0.03442932 -0.75123197 0.061999835 -0.2642206 0.09485922 -0.01455781 -0.02533759
-0.06255191 -0.12401461 0.31240144 0.5265491 -0.08718086 -0.13605167 0.44878617 -0.22873692
1.415318 -1.008807 0.7923431 -0.103934795 0.56027544 -0.18287797 1.1358715 -0.0035339666
-0.014464005 -0.10455468 -0.11364967 -0.4473035 -0.09917972 0.01474137 0.47290242 -0.13845885
0.025839394 0.1195019 0.08998538 -0.0071102437 0.02631151 -0.15851949 -0.03680659 0.13787626
0.1679608 0.032518066 -0.9556931 0.12288312 -0.03879274 0.056285627 0.034517396 0.012199343
0.032444634 -0.18499856 0.29772815 0.018578956 0.051595997 -0.06593677 0.098126374 0.010339927
-0.0041014403 -0.014719144 0.18853152 0.15272921 0.09024537 -0.17951633 -0.038018573 -0.04979395
-0.032761496 0.013761569 0.002290646 0.001986301 0.03244273 -0.009057492 -0.12006009 0.030337663
-0.096488036 -0.07604604 -0.24269462 -0.040685467 0.10964585 0.07641021 0.08412121 0.3603209
0.016481536 0.08429744 -0.18686914 0.10284737 0.010293874 0.13565493 -0.20983934 0.023321979
0.043008085 0.11870513 -0.01066614 0.06633349 -0.031135745 -0.033052467 -0.5091684 -0.045161434
0.029603373 0.2167722 -0.045726083 -0.064133674 -0.09028027 -0.008067872 -0.11398798 0.14417055
-0.22344823 -0.009472821 -0.2720945 -0.037935946 0.03497639 -0.098998345 0.026652928 -0.06739899
0.0062323944 -0.004575489 -0.30491748 -0.26215276 0.19716896 0.020089565 -0.30153042 -0.0024217605
0.16169237 0.13398616 -0.056689315 -0.1197619 -0.29173565 0.26483247 -0.122895196 0.0012679027
-0.027263936 0.020585455 -0.19324146 -0.060400877 0.11926359 -0.070113696 0.028316893 0.17925045
-0.13758796 -0.11325411 -0.18394949 0.2377306 0.046665043 -0.04253615 -0.0350949 -0.40321332
0.018873839 -0.3011343 0.42079347 -0.0295617 0.054922096 0.042358022 0.09107102 0.041994207
0.0063996874 -0.0887098 -0.10299421 -0.2902026 -0.0007326369 -0.04314807 -0.0327442 -0.11371838
0.038050536 0.05189265 0.13403769 0.02590895 0.026187405 -0.23612817 0.08333391 0.1907474
0.32649273 0.018944426 -0.73377424 0.23101474 0.005370561 -0.0713921 -0.031297743 -0.05370221
0.16351572 -0.43565366 0.5995349 0.23396531 -0.13619334 -0.17894365 0.2743738 0.03559299
-0.038409647 -0.27462754 0.222496 0.23216365 0.1885946 -0.1880854 0.11470165 -0.24287398
0.012761111 -0.00270929 0.061527826 0.03454807 0.025360685 -0.020347001 0.010509557 0.018350415
-0.023591911 0.08439639 -0.24247049 -0.32386628 0.057719108 0.14205119 0.015890837 0.19776554
-0.22581235 0.2714926 -0.23007262 0.22589552 -0.266595 0.06862701 -0.35373613 0.018210659
0.029103374 0.3083984 0.085910216 0.17280824 0.008039385 -0.036206603 -0.8274447 0.22135241
00000000: 88c4 2c3d 22db 043e d9c9 d3be a7c0 a7ba
00000010: fc35 9abe 38a4 013f 067a 1f3d 27cf f3be
00000020: 4441 9ebe 3105 583e f149 d73e 7d56 b4be
00000030: 2077 833e 417e a23e 21fa 883d f97b 8d3d
00000040: 1122 20be 6367 143f bfdd 58bf 0f81 a5be
00000050: 142e d63e f3b4 a73e a48e b5be 05e7 59bd
00000060: 1bd2 dc3e 847b a33f 87ec e2be 3220 6abe
00000070: f79b 3fbe aae1 123f 2d10 30bf e9f3 5f3f
00000080: 61cf f4bc c205 0d3d bd50 40bf 8af3 7d3d
00000090: ec47 87be 8d45 c23d e183 6ebc c790 cfbc
000000a0: 371b 80bd 5ffb fdbd 15f3 9f3e eccb 063f
000000b0: e18b b2bd 2151 0bbe 4dc7 e53e 033a 6abe
000000c0: 2429 b53f 9620 81bf ffd6 4a3f c4db d4bd
000000d0: 366e 0f3f 5d44 3bbe 3d64 913f 1f9a 67bb
000000e0: 6ffa 6cbc c420 d6bd 28c1 e8bd f704 e5be
000000f0: bd1e cbbd ca85 713c 4420 f23e 28c8 0dbe
00000100: 23ad d33c 6abd f43d 414a b83d 0cfd e8bb
00000110: 3c8b d73c ef52 22be 82c2 16bd 6f2f 0d3e
00000120: eafd 2b3e aa31 053d 4ea8 74bf 25aa fb3d
00000130: 23e5 1ebd c28b 663d 1d62 0d3d c1df 473c
00000140: aae4 043d 4370 3dbe d36f 983e e532 983c
00000150: 5356 533d db09 87bd 7bf6 c83d cc68 293c
00000160: 6065 86bb 9128 71bc 680e 413e 0c65 1c3e
00000170: 91d2 b83d 21d3 37be 5db9 1bbd bef4 4bbd
00000180: eb30 06bd 3478 613c aa1e 163b 9a2c 023b
00000190: abe2 043d e065 14bc 11e2 f5bd b186 f83c
000001a0: 859b c5bd 07be 9bbd f084 78be cea5 26bd
000001b0: 018e e03d f57c 9c3d be47 ac3d fb7b b83e
000001c0: 4904 873c 23a4 ac3d a05a 3fbe a4a1 d23d
000001d0: a3a7 283c 20e9 0a3e 20e0 56be bc0d bf3c
000001e0: 3f29 303d ad1b f33d 09c1 2ebc dad9 873d
000001f0: 6410 ffbc 0662 07bd dc58 02bf 32fb 38bd
00000200: c682 f23c 88f9 5d3e 464b 3bbd 8458 83bd
00000210: dde4 b8bd 1c2f 04bc 8872 e9bd 72a1 133e
00000220: 9dcf 64be e433 1bbc f84f 8bbe b962 1bbd
00000230: 6743 0f3d a5bf cabd 3e57 da3c 7b08 8abd
00000240: 1d39 cc3b fced 95bb 251e 9cbe e338 86be
00000250: a9e6 493e df92 a43c 3262 9abe 66b6 1ebb
00000260: af92 253e ab33 093e 0e33 68bd ba45 f5bd
00000270: 605e 95be 1f98 873e 7ab0 fbbd c12f a63a
00000280: 9e58 dfbc d4a2 a83c 17e1 45be e966 77bd
00000290: 7840 f43d c597 8fbd d4f8 e73c 6e8d 373e
000002a0: dce3 0cbe c5f1 e7bd 415d 3cbe a76f 733e
000002b0: d823 3f3d 633a 2ebd abbf 0fbd fa71 cebe
000002c0: 4f9d 9a3c 462e 9abe 3e72 d73e 612b f2bc
000002d0: fef5 603d 9b7f 2d3d 7183 ba3d 1e02 2c3d
000002e0: 78b4 d13b 7cad b5bd a1ee d2bd 6f95 94be
000002f0: 6e0e 40ba 08bc 30bd c81e 06bd 2fe5 e8bd
00000300: e1da 1b3d 638d 543d 2d41 093e 023f d43c
00000310: f886 d63c 95cb 71be f8aa aa3d 4953 433e
00000320: 0e2a a73e 5731 9b3c a1d8 3bbf 218f 6c3e
00000330: 88fb af3b 0536 92bd 1032 00bd d9f6 5bbd
00000340: aa70 273e ff0d dfbe 1f7b 193f 9a94 6f3e
00000350: 4476 0bbe 013d 37be b97a 8c3e f5c9 113d
00000360: 6f53 1dbd fb9b 8cbe fed5 633e 4fbc 6d3e
00000370: f11e 413e 7699 40be b3e8 ea3d f5b3 78be
00000380: fb13 513c 588e 31bb 9a04 7c3d 4782 0d3d
00000390: 36c1 cf3c c1ae a6bc 4730 2c3c 9c53 963c
000003a0: d343 c1bc 04d8 ac3d 2f4a 78be cdd1 a5be
000003b0: df6a 6c3d de75 113e 802d 823c 0d83 4a3e
000003c0: 5a3b 67be 1401 8b3e 2898 6bbe 2851 673e
000003d0: 247f 88be 518c 8c3d e71c b5be 852e 953c
000003e0: 336a ee3c 65e6 9d3e b2f1 af3d a5f4 303e
000003f0: a0b7 033c 604d 14bd 6ad3 53bf 35aa 623e

layer2.weight_hh_l0 f4 [64, 64]
-0.018114366 -0.015120446 0.0041245427 -0.048967317 -0.01011377 -0.0028884588 0.018662212 -0.07209986
0.014007553 0.07637322 0.06768646 0.038500424 0.03471292 -0.042789474 -0.01550894 -0.028188355
0.074446574 -0.052638248 0.04379877 -0.08861448 0.038137004 -0.016400829 -0.07104722 -0.042151287
0.039336167 0.004517393 -0.04231003 -0.07784134 0.0043521305 0.0641173 -0.027060177 0.040977307
0.053621404 0.053096678 -0.05173978 -0.005450877 -0.0610688 0.021036664 -0.07971958 0.0036151395
0.068605825 -0.004844321 0.017616913 0.025969392 -0.093941316 -0.0007168781 0.03014673 0.042895988
-0.04574754 -0.057773333 0.049884155 0.01486209 0.0058062263 0.11034975 -0.0133619085 0.032520924
0.02731021 0.035223052 -0.07871213 -0.040564794 0.006143477 0.028856955 -0.026024329 0.0044065323
-0.04183498 0.059901595 0.047722265 -0.017113503 0.031428397 -0.08083024 0.019857656 0.021823527
-0.01695474 -0.053673524 0.07448561 -0.039935224 0.0447497 0.02895535 -0.038269896 0.016543131
0.018348396 0.019824822 -0.01564488 0.06893595 0.019375855 0.15006068 -0.030433457 0.021009719
0.09844927 -0.07030152 0.048864737 0.17876723 -0.019974852 0.018260319 -0.06828118 -0.06463821
-0.07593825 -0.047865953 0.14585134 0.019744044 0.020733556 0.023975486 -0.032892615 0.025744516
-0.048914608 0.104162686 0.0025601734 -0.016888492 -0.038915344 0.030673705 0.10712107 -0.0044372417
-0.038225774 0.09892481 0.041873828 0.10733971 0.01518534 -0.028698793 0.031007767 0.01599788
0.049879678 0.112968214 0.10913029 0.0066952 0.10636748 -0.0604383 0.052876383 0.0041322974
-0.007892531 -0.04458679 -0.011814781 0.093862444 0.014079503 -0.007658166 -0.052512523 0.050968785
0.044496845 0.056875728 0.057207637 0.026759002 -0.06807471 -0.08750479 -0.028484374 0.010192122
0.09327245 0.12810361 0.029859407 0.11265746 -0.10437657 0.02199216 -0.024751341 -0.028188827
0.04585974 -0.026171286 0.05584083 -0.00835261 -0.11268619 0.05258329 0.033479903 -0.058162056
-0.023470478 0.044499066 -0.0011394052 -0.033324573 0.0680343 -0.093205236 -0.07020327 0.0007361005
0.10930596 -0.005316687 -0.074551724 0.02548715 -0.18812503 0.07701271 0.053240784 0.15641169
-0.016843267 -0.04900418 -0.07672166 -0.043354373 0.09429334 -0.06410639 -0.018518357 0.011099015
-0.039490454 0.03451322 0.018263537 -0.027432559 -0.105242796 0.05109391 0.12309871 -0.088867925
0.0076008774 0.09932333 -0.014085707 0.036976013 0.068141796 -0.014000706 0.106632896 -0.01908373
-0.116002716 -0.001941314 0.09178847 -0.10156658 0.07628624 -0.026453294 -0.072822794 -0.06876644
-0.059885506 0.03973816 -0.10099724 0.06709293 0.03035131 0.07197067 -0.034374062 0.02110077
0.047723893 -0.011634411 0.10900075 0.033981908 -0.045443658 0.014093749 -0.05641407 -0.072021075
-0.064715505 -0.03962555 0.11745366 0.037920572 -0.046819378 0.017261567 0.00646761 -0.031373452
-0.06913194 0.026202947 0.06832423 -0.004795116 -0.09649391 0.023074351 -0.0046941456 0.101650715
-0.0074154716 0.10161335 0.0126962345 0.018805435 0.00020993093 -0.016088814 0.041771613 0.005051804
-0.09001824 0.09347342 0.049248587 0.03682299 0.04055481 -0.09626251 0.038833182 -0.017020434
00000000: 9464 94bc bfbb 77bc 2c27 873b f491 48bd
00000010: 3ab4 25bc 4c4c 3dbb 7fe1 983c 17a9 93bd
00000020: f07f 653c 9069 9c3d 339f 8a3d 9fb2 1d3d
00000030: 232f 0e3d 0444 2fbd 3619 7ebc 44eb e6bc
00000040: 7277 983d 349b 57bd 5766 333d 827b b5bd
00000050: 8c35 1c3d 085b 86bc 3481 91bd d4a6 2cbd
00000060: f61e 213d a406 943b 484d 2dbd 486b 9fbd
00000070: 519c 8e3b ee4f 833d 4ead ddbc d2d7 273d
00000080: 1ea2 5b3d e77b 593d 17ed 53bd 459d b2bb
00000090: 4723 7abd 1555 ac3c 0544 a3bd faeb 6c3b
000000a0: 3681 8c3d 1cbd 9ebb 5851 903c c3bd d43c
000000b0: 4e64 c0bd e0ec 3bba 46f6 f63c b4b3 2f3d
000000c0: c661 3bbd bba3 6cbd 5453 4c3d 2080 733c
000000d0: 2842 be3b 0dff e13d e8eb 5abc a934 053d
000000e0: a9b9 df3c 0c46 103d d333 a1bd 4527 26bd
000000f0: 384f c93b 6c65 ec3c f930 d5bc ac64 903b
00000100: 285b 2bbd 605b 753d 6c78 433d 9e31 8cbc
00000110: 10bb 003d 538a a5bd 86ac a23c 41c7 b23c
00000120: abe4 8abc c5d8 5bbd e98b 983d 1e93 23bd
00000130: 764b 373d c533 ed3c e5c0 1cbd 7685 873c
00000140: 604f 963c aa67 a23c b129 80bc 4b2e 8d3d
00000150: 1dba 9e3c 82a9 193e 964f f9bc 931c ac3c
00000160: c59f c93d 3efa 8fbd 6426 483d c20e 373e
00000170: 4da2 a3bc aa96 953c 01d7 8bbd 0a61 84bd
00000180: 8385 9bbd 170f 44bd 0e5a 153e 43be a13c
00000190: 6bd9 a93c 3d68 c43c 68ba 06bd 2ae6 d23c
000001a0: af5a 48bd 3f53 d53d 95c8 273b bc59 8abc
000001b0: b265 1fbd 6c47 fb3c 4b62 db3d 4866 91bb
000001c0: a192 1cbd 1799 ca3d e483 2b3d ecd4 db3d
000001d0: efcb 783c bb19 ebbc 0004 fe3c fc0d 833c
000001e0: a24e 4c3d e15b e73d b47f df3d 6963 db3b
000001f0: 31d7 d93d 278e 77bd e894 583d 3968 873b
00000200: ad4f 01bc a3a0 36bd c992 41bc f43a c03d
00000210: b7ad 663c 5af1 fabb 5f17 57bd a5c4 503d
00000220: 5342 363d 86f6 683d 8e52 6a3d b235 db3c
00000230: c16a 8bbd b635 b3bd 1058 e9bc dcfc 263c
00000240: a005 bf3d 982d 033e b79b f43c f4b8 e63d
00000250: 62c3 d5bd e728 b43c 53c3 cabc 41ec e6bc
00000260: 6cd7 3b3d 2a65 d6bc 5bb9 643d 63d9 08bc
00000270: 04c8 e6bd 9361 573d 3922 093d 563b 6ebd
00000280: 2945 c0bc a744 363d 1858 95ba 597f 08bd
00000290: 9155 8b3d 63e2 bebd bbc6 8fbd def6 403a
000002a0: cedb df3d 9a37 aebb 93ae 98bd 6dca d03c
000002b0: d9a3 40be d7b8 9d3d 0213 5a3d 632a 203e
000002c0: e4fa 89bc 9bb8 48bd 3f20 9dbd 5b94 31bd
000002d0: de1c c13d 364a 83bd cfb3 97bc a5d8 353c
000002e0: bec0 21bd bc5d 0d3d 6a9d 953c 3fba e0bc
000002f0: 8989 d7bd d947 513d 2d1b fc3d 6300 b6bd
00000300: c810 f93b 086a cb3d bdc7 66bc 2974 173d
00000310: ed8d 8b3d 3863 65bc 5962 da3d 7c55 9cbc
00000320: d592 edbd b073 feba 98fb bb3d 2402 d0bd
00000330: f63b 9c3d 94b4 d8bc 1e24 95bd 6bd5 8cbd
00000340: 814a 75bd 7bc4 223d a4d7 cebd 0568 893d
00000350: 4fa3 f83c 5c65 933d d1cb 0cbd 86db ac3c
00000360: 217a 433d 429e 3ebc c93b df3d 9d30 0b3d
00000370: 2123 3abd 78e9 663c 7112 67bd c97f 93bd
00000380: 9089 84bd 674e 22bd 8b8b f03d 9a52 1b3d
00000390: adc5 3fbd 2168 8d3c 3fee d33b 7381 00bd
000003a0: 0c95 8dbd 90a7 d63c 93ed 8b3d 5920 9dbb
000003b0: 999e c5bd 6c06 bd3c 59d1 99bb 402e d03d
000003c0: 7cfd f2bb a91a d03d de03 503c db0d 9a3c
000003d0: e820 5c39 b0cc 83bc b618 2b3d 9a89 a53b
000003e0: 7c5b b8bd fe6e bf3d e3b8 493d b4d3 163d
000003f0: cd1c 263d 4725 c5bd 8b0f 1f3d 706e 8bbc

layer2.bias_ih_l0 f4 [64]
-0.043244585 -0.05150706 -0.025317444 -0.002412346 0.0059525836 -0.046854407 -0.04040563 -0.07634147
0.09021419 -0.05018195 -0.036212955 0.02446837 -0.13809651 0.025410954 -0.010517469 0.05200861
-0.06046284 -0.0036949082 -0.044300497 0.0017148667 0.076056354 -0.1261889 -0.083813705 -0.05753548
-0.041312065 -0.058020547 0.01793898 -0.012640419 0.053279705 0.018693449 0.029951964 0.0014444282
0.016113432 -0.012821316 -0.13603188 0.094514966 0.07187348 -0.06351607 -0.013684634 -0.046544485
-0.027026242 0.008187028 -0.11149538 0.037690915 0.06452742 -0.100801684 -0.1510642 -0.06805924
0.21444103 -0.16293722 -0.061453734 -0.049441148 0.031351294 -0.09278568 0.1042015 0.07984979
0.12561244 -0.06552009 -0.045197964 -0.011041606 -0.08106116 0.043862298 -0.031854272 -0.021554977
00000000: 3c21 31bd 11f9 52bd 8766 cfbc 7318 1ebb
00000010: e40d c33b 68ea 3fbd 6080 25bd eb58 9cbd
00000020: 38c2 b83d 978b 4dbd 0954 14bd e471 c83c
00000030: 2c69 0dbe a22a d03c 7651 2cbc fb06 553d
00000040: e2a7 77bd 4626 72bb 7074 35bd 61c5 e03a
00000050: 6fc3 9b3d aa37 01be 85a6 abbd 53aa 6bbd
00000060: d736 29bd f4a6 6dbd c5f4 923c c319 4fbc
00000070: d23b 5a3d 0123 993c d25d f53c f852 bd3a
00000080: 5100 843c 7f10 52bc f14b 0bbe 1091 c13d
00000090: 6732 933d b714 82bd 8435 60bc 6ea5 3ebd
000000a0: 2366 ddbc e222 063c b157 e4bd ca61 1a3d
000000b0: f426 843d 1d71 cebd 93b0 1abe a562 8bbd
000000c0: 6e96 5b3e 04d9 26be e9b6 7bbd cd82 4abd
000000d0: 376a 003d 6b06 bebd 9967 d53d 4988 a33d
000000e0: 8ca0 003e 662f 86bd 8021 39bd dae7 34bc
000000f0: 6503 a6bd f4a8 333d a079 02bd 1094 b0bc

layer2.bias_hh_l0 f4 [64]
0.025482392 -0.13827401 -0.03806245 -0.043992277 -0.08073077 -0.030730337 -0.064159974 0.012199501
0.068431795 -0.12260718 -0.0063228677 0.01581442 -0.123292536 0.006760163 -0.001135252 0.06097558
-0.06948007 -0.04926417 -0.0446355 0.041057833 0.055077467 -0.005680746 -0.069524385 -0.07096321
-0.009958852 -0.014590234 -0.09452198 -0.118665084 -0.025087787 -0.08646663 0.017602175 0.0118629765
0.03408432 0.069983795 -0.1028814 -0.004965158 0.027402284 -0.032605987 0.016376978 0.03192535
-0.0084065255 -0.059082408 -0.09711352 -0.020426204 0.073312156 -0.10662032 -0.052899107 0.02684747
0.1567419 -0.13044037 0.00015511761 -0.081744164 -0.099936925 -0.018535921 0.032377586 0.0091159055
0.07168802 -0.14412011 -0.028143104 0.053812414 -0.017048264 -0.02120509 -0.03842239 -0.008228881
00000000: 73c0 d03c b497 0dbe 5fe7 1bbd 3f31 34bd
00000010: 2d56 a5bd 30be fbbc 4e66 83bd 6ae0 473c
00000020: f825 8c3d 7919 fbbd 0f30 cfbb 3e8d 813c
00000030: cc80 fcbd 5c84 dd3b bccc 94ba 88c1 793d
00000040: 914b 8ebd 3ac9 49bd b7d3 36bd 422c 283d
00000050: e998 613d 8d25 babb cd62 8ebd 2955 91bd
00000060: 742a 23bc e00b 6fbc bd94 c1bd ae06 f3bd
00000070: e784 cdbc 6b15 b1bd 7032 903c ee5c 423c
00000080: 009c 0b3d aa53 8f3d 7cb3 d2bd c4b2 a2bb
00000090: c17a e03c db8d 05bd 0329 863c 28c4 023d
000000a0: 86bb 09bc 6500 72bd 74e3 c6bd db54 a7bc
000000b0: af24 963d c15b dabd bcac 58bd 3aef db3c
000000c0: f380 203e 2992 05be 11a7 2239 7c69 a7bd
000000d0: bbab ccbd a5d8 97bc 5c9e 043d e15a 153c
000000e0: 2bd1 923d 3994 13be 5e8c e6bc 686a 5c3d
000000f0: cda8 8bbc 4cb6 adbc cc60 1dbd 6ed2 06bc

layer3.weight f4 [5, 64]
1.4162223 -0.33765414 0.9535481 -0.17059506 -0.6016165 1.2035282 -0.6154864 -0.652115
1.5220002 -0.29827353 0.06558801 1.7154243 0.9509557 0.8482687 -0.5632239 1.8362719
-0.80685854 -0.17067303 -0.24178304 -0.45949098 -0.64725506 -0.06176301 -0.6527764 -0.062264465
-0.06017739 -0.6861402 -0.36651334 -0.0021435795 1.872341 -0.32304326 1.9304082 -0.5062573
1.2120724 1.495128 0.04278561 -0.54771054 1.1734481 1.1625758 -0.46430442 0.20765565
0.8034543 -0.63983077 -0.29192254 -0.6170606 -0.024368932 -0.60770035 0.06658959 -0.3499234
-0.31035727 -0.24567497 0.07668451 -0.30276182 -0.38344446 -0.34439448 1.5128866 1.5068733
-0.5973251 0.02023245 -0.018451221 1.0523194 0.5221144 -0.6453986 -0.29217863 1.4983581
1.6970843 -0.3177546 0.94032145 -0.26801944 -0.06135339 1.1448611 -0.56595176 -0.70280325
1.6532158 -0.2943996 0.03666303 1.7056894 0.83619624 0.552743 -0.70802814 1.7809362
-0.714506 -0.33979475 -0.48877537 -0.49563807 -0.7194241 0.022967787 -0.89391357 -0.046525735
-0.03131562 -0.67875767 -0.3655032 -0.021137254 1.9508016 -0.39006913 1.8911105 -0.5612062
1.2856251 1.3031616 0.03759707 -0.70228463 0.99717 0.819711 -0.49160898 0.01921533
0.88190883 -0.654898 -0.30229467 -0.7147154 0.5063594 -0.58109283 -0.01764673 -0.27688625
-0.34529012 -0.41695476 0.15613869 -0.15654097 -0.41681504 -0.20975862 1.2923849 1.7319894
-0.4471001 0.050360404 0.0026500067 1.068629 0.5420589 -0.6317568 -0.42631733 1.376133
1.5758333 -0.21468648 0.8734671 -0.48188335 -0.95120966 1.3999561 -0.89880913 -0.0065099825
1.5860828 -0.4502697 -0.0036019974 1.8121927 0.743829 0.75308806 -1.1710362 1.8246902
-1.0847842 -0.3102074 1.101707 -0.47098747 -0.7321018 -0.065788075 -0.5280429 -0.03842613
-0.020097135 -1.0986966 -0.36986652 -0.037363525 1.9011537 -0.33088726 1.8798264 -0.7733828
1.3718737 1.422044 0.01482215 -0.5536535 1.2049704 0.7220597 -0.26159126 0.008365627
0.8458777 -0.62460023 -0.16445433 -0.64847094 -0.16749427 -0.5068659 0.0069427895 0.07373419
-0.33895382 -0.28126022 0.17603111 -0.16193803 -0.27062297 -0.37789857 1.2249683 1.5163612
-0.6341622 -0.05036421 -0.08766093 0.92789966 0.6937939 -0.62908745 -0.3356244 1.4113818
1.4848297 -0.16511251 1.0157568 -0.2998097 -0.6897854 1.34417 -0.7844494 -0.57385784
1.7544756 -0.35232976 0.0033041171 1.642359 0.72892857 0.59208447 -0.65339524 1.72164
-0.98788565 -0.13349257 -0.15530457 -0.46988797 -0.7894851 0.036867153 -0.6475918 -0.017447902
-0.07093085 -0.6386778 -0.32103798 0.010079604 1.8352182 -0.35671735 1.7283115 -0.47109914
1.3220056 1.4970438 0.06307464 -0.37288642 1.2250423 0.61471236 -0.521481 0.12843232
1.0573454 -0.7195788 -0.31308338 -0.82608026 0.102689035 -0.7379331 -0.04134882 -0.29548427
-0.5855109 -0.19522509 0.12392067 -0.28208646 -0.4386331 -0.3752853 1.2646756 1.557138
-0.48342028 0.06079712 -0.011381522 1.3923448 0.55223817 -0.66296244 -0.39932123 1.2840083
00000000: c646 b53f 01e1 acbe ba1b 743f 79b0 2ebe
00000010: 8a03 1abf 360d 9a3f 8490 1dbf 02f1 26bf
00000020: e7d0 c23f 4fb7 98be 0253 863d 0693 db3f
00000030: d571 733f 2328 593f 712f 10bf f50a eb3f
00000040: 488e 4ebf e9c4 2ebe f995 77be 6742 ebbe
00000050: 82b2 25bf 36fb 7cbd 5b1c 27bf 0609 7fbd
00000060: 917c 76bd e2a6 2fbf a3a7 bbbe 4c7b 0cbb
00000070: dfa8 ef3f ed65 a5be 9e17 f73f 149a 01bf
00000080: 3025 9b3f 5b60 bf3f f73f 2f3d c236 0cbf
00000090: 8c33 963f 49cf 943f 4fb9 edbe afa3 543e
000000a0: 2eaf 4d3f f3cb 23bf df76 95be aff7 1dbf
000000b0: 5ba1 c7bc 4092 1bbf 1f60 883d 2929 b3be
000000c0: 26e7 9ebe 3892 7bbe c50c 9d3d 9903 9bbe
000000d0: d552 c4be 7954 b0be 45a6 c13f 39e1 c03f
000000e0: 4cea 18bf 86be a53c 0427 97bc 67b2 863f
000000f0: 4aa9 053f d838 25bf 7098 95be 33ca bf3f
00000100: 0f3a d93f bbb0 a2be e8b8 703f d839 89be
00000110: b14d 7bbd cf8a 923f 37e2 10bf eaea 33bf
00000120: 939c d33f 8bbb 96be f92b 163d 0854 da3f
00000130: f510 563f 9180 0d3f 5541 35bf b8f5 e33f
00000140: dde9 36bf 94f9 adbe c440 fabe 46c4 fdbe
00000150: 2e2c 38bf f126 bc3c 85d7 64bf c591 3ebd
00000160: cf44 00bd 10c3 2dbf 3c23 bbbe 0928 adbc
00000170: deb3 f93f 24b7 c7be e90f f23f 36ab 0fbf
00000180: 5d8f a43f 00ce a63f 63ff 193d edc8 33bf
00000190: 8846 7f3f 95d8 513f 2cb4 fbbe 7869 9d3c
000001a0: c7c4 613f 65a7 27bf 5ec6 9abe 97f7 36bf
000001b0: c5a0 013f 80c2 14bf e08f 90bc 09c4 8dbe
000001c0: dec9 b0be 187b d5be d2e2 1f3e 474c 20be
000001d0: c868 d5be f7ca 56be de6c a53f d4b1 dd3f
000001e0: 4eea e4be b646 4e3d bcab 2d3b d6c8 883f
000001f0: 5fc4 0a3f d0ba 21bf 4446 dabe 2025 b03f
00000200: e8b4 c93f c6d6 5bbe 8a9b 5f3f 6ab9 f6be
00000210: 7a82 73bf c331 b33f 5b18 66bf b151 d5bb
00000220: c304 cb3f c089 e6be 7d0f 6cbb eef5 e73f
00000230: 946b 3e3f 61ca 403f 84e4 95bf 738f e93f
00000240: 35da 8abf 81d3 9ebe bc04 8d3f 4525 f1be
00000250: 066b 3bbf e6bb 86bd d22d 07bf b864 1dbd
00000260: bfa2 a4bc 17a2 8cbf 255f bdbe 7f0a 19bd
00000270: 0159 f33f 0e6a a9be 279e f03f 6afc 45bf
00000280: 8f99 af3f 8a05 b63f 9ad8 723c 3cbc 0dbf
00000290: 783c 9a3f e8d8 383f 4aef 85be fc0f 093c
000002a0: 718b 583f cde5 1fbf b766 28be 3102 26bf
000002b0: 9e83 2bbe f7c1 01bf 5780 e33b f301 973d
000002c0: 5b8b adbe 5701 90be 8041 343e 15d3 25be
000002d0: 188f 8abe ec7b c1be c3cb 9c3f 2018 c23f
000002e0: 7458 22bf b44a 4ebd 9387 b3bd d58a 6d3f
000002f0: 7a9c 313f e00b 21bf f6d6 abbe 29a8 b43f
00000300: e60e be3f 4113 29be 5204 823f a880 99be
00000310: c795 30bf c30d ac3f add1 48bf 59e8 12bf
00000320: a892 e03f 9164 b4be e389 583b d238 d23f
00000330: 109b 3a3f d992 173f e944 27bf b35e dc3f
00000340: 13e6 7cbf 47b2 08be 2908 1fbe 2895 f0be
00000350: b21b 4abf 0302 173d 94c8 25bf e7ee 8ebc
00000360: 3244 91bd 6380 23bf 175f a4be ec24 253c
00000370: 6ee8 ea3f a8a3 b6be 5039 dd3f e833 f1be
00000380: 7b37 a93f 229f bf3f 472d 813d f8ea bebe
00000390: 30ce 9c3f ca5d 1d3f c77f 05bf c383 033e
000003a0: 1857 873f 5136 38bf 774c a0be ff79 53bf
000003b0: a14e d23d 2fe9 3cbf 615d 29bd b749 97be
000003c0: 0be4 15bf 16e9 47be 1fca fd3d a36d 90be
000003d0: 8594 e0be 6525 c0be e4e0 a13f 4c50 c73f
000003e0: dd82 f7be 6706 793d 9079 3abc 5b38 b23f
000003f0: 7b5f 0d3f e8b7 29bf d573 ccbe 625a a43f

layer3.bias f4 [5]
0.8756943 0.9739683 1.2283292 1.4189117 0.778706
00000000: 802d 603f fd55 793f e439 9d3f e69e b53f
00000010: 4759 473f
