ch08/car_racing_dqn_250.pth (torch, 40850 bytes, 8 tensors)

layer1.weight f4 [64, 11]
-0.2697819 0.11525768 0.07679349 0.21604377 0.20305191 0.19424625 -0.00037569655 0.28586808
0.31265438 0.2709805 0.25429654 -0.61470205 -0.19495974 0.28692177 0.14383775 0.35031256
0.29379147 -0.21613683 -0.024817163 0.24204016 0.57551664 0.5185961 0.4073263 0.13421835
-0.14009126 -0.106050044 -0.073745415 -0.39206845 -0.3368399 0.14680153 -0.26374418 -0.3830515
0.113603115 -0.11327759 0.04360253 -0.08526745 0.11882483 -0.073442936 0.11872242 -0.17122523
0.025697984 -0.04314321 0.23442231 -0.20314229 0.1762191 0.11225131 0.124074295 0.47715646
0.557059 0.37077674 0.26348105 0.22541846 0.073590286 0.068193614 0.10054422 0.20240933
-0.106411204 0.19538517 -0.19848049 -0.33573395 0.29741704 0.39280972 0.39382148 -0.15404204
-0.45756534 -0.73483723 -0.43368956 0.07803809 0.34237418 0.17676754 -0.056074392 -0.18471105
0.16009092 0.18689513 -0.01761538 0.040541485 0.13354903 -0.4440569 0.23279525 0.15888722
0.17531718 0.31494504 0.2719 0.24549636 0.4541815 0.23220104 0.20741661 -0.33277422
0.3577592 -0.71845865 -0.16201086 -0.62757534 -0.8036207 -0.51231545 0.08055297 0.21117616
0.05710908 0.37197086 0.52515364 -0.13853057 0.2306314 0.082552575 -0.43326467 -0.048727002
0.34467036 0.061834056 0.3178654 0.1827039 0.09304533 0.21614262 0.60755885 0.10811966
0.17328237 -0.30628788 -0.7486885 0.009144956 0.34607518 0.3893166 0.23384003 0.79060304
0.6803723 0.45127353 0.3337794 -0.19173497 -0.16426997 -0.04165056 -0.44597408 -0.22952525
-0.06439383 -0.25115386 -0.20544112 -0.042293135 -0.17577605 -0.07142728 0.24184999 -0.142409
0.04904953 -0.0155596 -0.052752826 -0.023678172 -0.09201031 0.4162101 0.45743936 -0.12208023
0.15397379 -0.052935198 -0.0047181705 -0.1791559 0.41921842 0.27788234 0.1861388 0.29237458
-0.009915314 0.013124061 0.1341326 -0.21175309 0.18191725 -0.067251645 -0.049255922 0.07440703
-0.21429816 -0.03727573 -0.21080427 0.046023875 0.03605538 -0.005357972 -0.030191781 0.018339748
-0.23227108 -0.132662 -0.03967804 0.104840755 -0.2122164 -0.0061136354 -0.18392453 -0.08108468
0.2693156 0.43613207 0.099895075 0.19007258 0.25498092 0.33379936 0.29372302 0.34938547
0.059427407 0.22427924 0.12010373 -0.33642164 -0.16960043 0.32063797 0.03304155 0.23121955
0.1919315 -0.35809776 -0.5954339 -0.7086438 -0.26962662 -0.054007795 -0.5233045 -0.7998565
-0.19728819 -0.98892474 -1.0635625 -1.3849683 -0.59781873 -0.44738626 -0.16996682 0.0083702225
-0.33082834 0.69881666 -0.043034367 -0.2397909 -0.0679924 -0.1129176 -0.64638376 -0.25337395
-0.2719575 -0.3204408 -0.028935915 0.0482718 -0.42341137 -0.063959874 -0.34941277 0.21830331
0.2288801 0.34638426 0.3425124 0.45974424 0.1450387 0.4205263 0.028129404 0.20539166
-0.30801192 -0.041439906 -0.4277808 0.1351013 0.4899973 0.122214384 0.07037271 0.20281035
0.28421304 0.1160468 0.347052 0.2986506 -0.24430484 -0.023836328 -0.05042824 -0.3118523
-0.22010712 0.010092539 -0.17836489 0.0125752045 -0.10308249 0.023593739 -0.19908442 -0.037457142
00000000: da20 8abe 380c ec3d e845 9d3d 943a 5d3e
00000010: d7ec 4f3e 7de8 463e 23f9 c4b9 4d5d 923e
00000020: 3c14 a03e f5bd 8a3e 2833 823e 1d5d 1dbf
00000030: 87a3 47be 69e7 923e 344a 133e 2b5c b33e
00000040: d66b 963e f952 5dbe 5d4d cbbc 60d9 773e
00000050: 0f55 133f b7c2 043f 138d d03e 8970 093e
00000060: 1574 0fbe c430 d9bd d607 97bd 32bd c8be
00000070: 4876 acbe 2453 163e 7a09 87be 541f c4be
00000080: c0a8 e83d 15fe e7bd 9198 323d b3a0 aebd
00000090: 6f5a f33d 4069 96bd bd24 f33d ab55 2fbe
000000a0: 9484 d23c efb6 30bd 670c 703e 8804 50be
000000b0: c872 343e 04e4 e53d aa1a fe3d da4d f43e
000000c0: 6b9b 0e3f 73d6 bd3e fde6 863e 19d4 663e
000000d0: 81b6 963d 18a9 8b3d 21ea cd3d 6444 4f3e
000000e0: 1eee d9bd 0d13 483e 783e 4bbe 52e5 abbe
000000f0: 0c47 983e 5b1e c93e f8a2 c93e 32bd 1dbe
00000100: 0146 eabe 4b1e 3cbf 8f0c debe 6fd2 9f3d
00000110: ab4b af3e 8d02 353e 43ae 65bd e524 3dbe
00000120: e0ee 233e 7061 3f3e 214e 90bc d40e 263d
00000130: 14c1 083e 6d5b e3be e161 6e3e 55b3 223e
00000140: 5986 333e 7a40 a13e 7a36 8b3e 6663 7b3e
00000150: 7a8a e83e 1cc6 6d3e 0565 543e 6261 aabe
00000160: 372c b73e e8ec 37bf 2de6 25be c7a8 20bf
00000170: 16ba 4dbf 1b27 03bf f5f8 a43d 903e 583e
00000180: 36eb 693d f772 be3e 7870 063f f5da 0dbe
00000190: a32a 6c3e 5311 a93d ded4 ddbe f795 47bd
000001a0: a278 b03e b545 7d3d 41bf a23e bb16 3b3e
000001b0: 8d8e be3d 7e54 5d3e fa88 1b3f d76d dd3d
000001c0: ef70 313e c4d1 9cbe 0daa 3fbf bad4 153c
000001d0: c430 b13e 8154 c73e c373 6f3e f664 4a3f
000001e0: e12c 2e3f 530d e73e 22e5 aa3e 2c56 44be
000001f0: 6336 28be c799 2abd b756 e4be ab08 6bbe
00000200: eae0 83bd 3d97 80be 285f 52be 913b 2dbd
00000210: a3fe 33be 7748 92bd 86a7 773e aad3 11be
00000220: 29e8 483d b1ed 7ebc 5913 58bd baf8 c1bc
00000230: e76f bcbd 7d19 d53e 7e35 ea3e 3305 fabd
00000240: 4eab 1d3e 94d2 58bd e29a 9abb a574 37be
00000250: cca3 d63e 9846 8e3e 2b9b 3e3e 1fb2 953e
00000260: d773 22bc 4d06 573c 0e5a 093e cdd5 58be
00000270: 8448 3a3e 3bbb 89bd 94c0 49bd b762 983d
00000280: fa70 5bbe 70ae 18bd 13dd 57be 8883 3c3d
00000290: ceae 133d ed91 afbb c154 f7bc 3d3d 963c
000002a0: 78d8 6dbe 8cd8 07be 7185 22bd c0b6 d63d
000002b0: 424f 59be e454 c8bb b656 3cbe ba0f a6bd
000002c0: bce3 893e b44c df3e ca95 cc3d 63a2 423e
000002d0: dc8c 823e c0e7 aa3e dd62 963e a7e2 b23e
000002e0: 276a 733d 75a9 653e f2f8 f53d 753f acbe
000002f0: bcab 2dbe a92a a43e 9456 073d d1c4 6c3e
00000300: b189 443e 9758 b7be 5b6e 18bf ae69 35bf
00000310: 800c 8abe 4737 5dbd 49f7 05bf 65c3 4cbf
00000320: ea05 4abe 2c2a 7dbf d122 88bf a446 b1bf
00000330: a60a 19bf d00f e5be c80b 2ebe 4223 093c
00000340: 5562 a9be a6e5 323f ce44 30bd bf8b 75be
00000350: 993f 8bbd 5841 e7bd 6879 25bf 3bba 81be
00000360: 033e 8bbe d110 a4be 030b edbc a7b8 453d
00000370: 60c9 d8be 65fd 82bd 3be6 b2be e78a 5f3e
00000380: 8c5f 6a3e 4759 b13e c95d af3e 9963 eb3e
00000390: 0685 143e 394f d73e a36f e63c 3152 523e
000003a0: bdb3 9dbe e4bc 29bd 1606 dbbe ff57 0a3e
000003b0: ede0 fa3e 894b fa3d 911f 903d 84ad 4f3e
000003c0: 5f84 913e f2a9 ed3d cdb0 b13e bbe8 983e
000003d0: 0c2b 7abe 6744 c3bc d88d 4ebd 1bab 9fbe
000003e0: c363 61be 2d5b 253c 49a5 36be 3b08 4e3c
000003f0: ea1c d3bd a847 c13c c9dc 4bbe a96c 19bd

layer1.bias f4 [64]
-0.025121631 -0.4776519 0.22388436 -0.1324282 -0.15344764 0.21248777 0.15654595 -0.22039947
0.46965495 0.25403625 -0.30540776 0.33167696 0.061810493 0.1695664 -0.21983318 -0.17905045
-0.17191425 0.35341808 0.4411118 0.26933557 0.14600961 0.2198442 0.16270934 -0.0965315
0.18490413 0.24454966 0.33077925 0.18054596 0.24807234 -0.10782012 0.049872562 0.29108533
-0.16452107 0.2481878 0.32101682 -0.0171671 -0.17971914 -0.064782314 0.020589186 0.004957956
0.33875436 0.047028203 0.21050385 0.3809133 -0.30490997 0.17904088 0.2868863 0.045220952
0.16737787 0.3691753 0.016094442 0.25947747 0.1526312 0.059000965 -0.06700756 -0.04056376
-0.20816872 -0.11844304 0.12658417 0.37881574 0.04712467 -0.234121 -0.3215281 -0.11574716
00000000: e1cb cdbc ca8e f4be f141 653e 429b 07be
00000010: 6121 1dbe 6596 593e 954d 203e 66b0 61be
00000020: 9d76 f03e 0a11 823e 685e 9cbe 90d1 a93e
00000030: 002d 7d3d d0a2 2d3e f31b 61be 0059 37be
00000040: 4a0a 30be 37f3 b43e 68d9 e13e 5ae6 893e
00000050: 8b83 153e d71e 613e 479d 263e 4fb2 c5bd
00000060: 8257 3d3e 3a6b 7a3e e65b a93e 0ae1 383e
00000070: ad06 7e3e ccd0 dcbd 2c47 4c3d 2309 953e
00000080: 3678 28be f124 7e3e 515c a43e 05a2 8cbc
00000090: 4b08 38be 97ac 84bd a7aa a83c 5976 a23b
000000a0: 3671 ad3e a5a0 403d 528e 573e 1107 c33e
000000b0: 291d 9cbe 7e56 373e c3e2 923e 9b39 393d
000000c0: 1b65 2b3e 8b04 bd3e 7ed8 833c 3bda 843e
000000d0: 5a4b 1c3e ffaa 713d 423b 89bd 2f26 26bd
000000e0: 2e2a 55be 4492 f2bd 489f 013e 23f4 c13e
000000f0: cc05 413d 6abd 6fbe 559f a4be d90c edbd

layer2.weight_ih_l0 f4 [64, 64]
0.13729084 0.47322527 -0.30490574 -0.0017744284 -0.23861384 0.311628 0.18428244 -0.06576984
-0.2873092 0.13646302 0.30528283 -0.4031111 0.3667865 0.08560602 0.09270393 0.09588285
-0.12323415 0.6555313 -0.41362822 -0.11034027 0.68731385 0.40732196 -0.4438071 -0.0739395
0.06756435 1.3140057 -0.25992152 -0.07959684 -0.32212064 0.31847528 -0.30988702 0.7889679
-0.0415021 0.1553774 -0.3442523 0.1352039 -0.21365578 0.19310641 0.02664057 0.15949023
-0.04376496 -0.1270483 -0.02660895 0.29701725 -0.12088453 -0.21531716 0.04443343 -0.20403549
1.7123364 -0.3316418 0.3979558 -0.3543288 0.41459772 -0.21549599 0.05895751 -0.004908116
-0.020093778 -0.015571084 -0.15279156 -0.3027414 -0.049355075 0.020475155 0.62314117 -0.15591964
0.071937084 0.22019477 0.14110424 -0.009878286 0.070825115 -0.17952357 -0.018754799 0.22327647
0.24732223 0.057303607 -1.347263 0.18631363 -0.03845008 0.10035954 0.047905795 0.016947312
0.07296774 -0.2232567 0.43115956 0.031460725 0.1111914 -0.06319099 0.13942221 0.014339124
0.022650769 0.028281864 0.28588316 0.18779823 0.14339761 -0.24222474 -0.05672404 -0.024925962
-0.045414604 0.047003545 0.04422648 0.030829476 0.07358362 0.0049440744 -0.13943562 0.07534035
-0.10055541 -0.07395662 -0.3447636 -0.008596402 0.15223086 0.13317351 0.14051583 0.5443199
0.013939486 0.14781828 -0.21541637 0.15193854 0.052147947 0.22252676 -0.31620353 0.032403797
0.059665803 0.1942352 0.01320869 0.11927312 -0.010683559 -0.045802563 -0.78584206 -0.034866013
0.071947664 0.108149864 0.008404552 -0.08897678 0.030462755 0.0034528198 0.007536786 0.19847286
0.06458544 0.0866952 0.17542535 -0.066890776 0.043723002 0.07285784 0.037046198 -0.093448766
0.18563965 -0.10262953 -0.09119353 -0.08670181 0.13032724 0.047373764 -0.0076624244 -0.0033607564
0.09149169 0.059916474 -0.02069446 0.07954266 -0.15155038 0.013383778 0.1378619 0.02815398
-0.037861012 0.13429052 -0.06996472 0.03230849 0.17052746 0.085989244 0.14943387 0.21321759
-0.07489095 0.04812807 -0.041075688 0.094145834 0.064836785 0.17842682 -0.02920215 0.01647046
0.081627354 -0.15291032 0.21894422 0.09006847 -0.013271089 0.22397229 -0.043865457 0.0582794
0.008885057 0.07747839 0.043906007 -0.11299965 0.07933039 -0.05985245 0.13984096 0.051707283
0.06334542 0.09442652 0.26178217 0.035983376 0.021828825 -0.37327102 0.10281552 0.26633126
0.52216655 0.018494539 -1.0206366 0.3754703 0.004909299 -0.0842161 -0.043462932 -0.07462114
0.20378226 -0.57044804 0.84722793 0.4195776 -0.16475742 -0.21921189 0.4130122 0.04936316
-0.01959136 -0.37289116 0.3839239 0.42244795 0.2095762 -0.2624411 0.2119891 -0.37338364
0.01771545 -0.006289432 0.18990128 0.034904685 0.019688595 -0.02557003 0.005811266 0.034803852
-0.022335947 0.11298931 -0.30939263 -0.39767882 0.08018686 0.17223766 0.05047198 0.35594994
-0.3135228 0.44662085 -0.35876447 0.28080037 -0.39745638 0.065138504 -0.5006227 0.025251053
0.04042868 0.41366166 0.109184496 0.31803635 -0.0013596833 -0.050201505 -1.1661105 0.28276253
00000000: f895 0c3e 954a f23e 9b1c 9cbe f093 e8ba
00000010: 3057 74be b58d 9f3e 89b4 3c3e 56b2 86bd
00000020: 311a 93be f6bc 0b3e 084e 9c3e 9464 cebe
00000030: 71cb bb3e 3652 af3d 8fdb bd3d 3a5e c43d
00000040: 3062 fcbd e6d0 273f 14c7 d3be 14fa e1bd
00000050: cdf3 2f3f 818c d03e af3a e3be 986d 97bd
00000060: 2e5f 8a3d 5731 a83f 6f14 85be ab03 a3bd
00000070: ffec a4be 310f a33e 83a9 9ebe cdf9 493f
00000080: 1bfe 29bd 411b 1f3e d641 b0be e472 0a3e
00000090: 95c8 5abe b0bd 453e 533d da3c 6851 233e
000000a0: e342 33bd f318 02be 03fb d9bc a512 983e
000000b0: 4f92 f7bd 1a7c 5cbe d4ff 353d aeee 50be
000000c0: d72d db3f f4cc a9be ddc0 cb3e 966a b5be
000000d0: 2746 d43e fbaa 5cbe 6e7d 713d 43d4 a0bb
000000e0: b59b a4bc dc1d 7fbc 6475 1cbe ec00 9bbe
000000f0: 8c28 4abd 83bb a73c 2e86 1f3f 66a9 1fbe
00000100: c053 933d bd7a 613e a17d 103e 89d8 21bc
00000110: c20c 913d 07d5 37be aaa3 99bc 96a2 643e
00000120: 0a42 7d3e 30b7 6a3d 1d73 acbf 00c9 3e3e
00000130: d57d 1dbd 4d89 cd3d de38 443d 17d5 8a3c
00000140: 1c70 953d 689d 64be f2c0 dc3e f6dc 003d
00000150: 51b8 e33d 476a 81bd b2c4 0e3e a5ee 6a3c
00000160: 1b8e b93c 5eaf e73c 475f 923e 2e4e 403e
00000170: d3d6 123e c309 78be 7857 68bd 8831 ccbc
00000180: aa04 3abd ca86 403d d326 353d 198e fc3c
00000190: 02b3 963d e701 a23b 36c8 0ebe 0b4c 9a3d
000001a0: ffef cdbd 9276 97bd db84 b0be ecd7 0cbc
000001b0: 68e2 1b3e a35e 083e 62e3 0f3e 8d58 0b3f
000001c0: 7162 643c ad5d 173e 1c96 5cbe c795 1b3e
000001d0: 1699 553d 0ede 633e 6ee5 a1be d8b9 043d
000001e0: 2164 743d 98e5 463e 4369 583c 7745 f43d
000001f0: 180a 2fbc 789b 3bbd f22c 49bf aacf 0ebd
00000200: 4c59 933d ad7d dd3d 3fb3 093c 7539 b6bd
00000210: 078d f93c b448 623b 25f7 f63b 783c 4b3e
00000220: 5f45 843d 418d b13d b4a2 333e 08fe 88bd
00000230: e416 333d 7e36 953d c1bd 173d 1162 bfbd
00000240: 5218 3e3e 6e2f d2bd acc3 babd b890 b1bd
00000250: 8174 053e fe0a 423d 1315 fbbb 2340 5cbb
00000260: ff5f bb3d fa6a 753d 6e87 a9bc 43e7 a23d
00000270: 0630 1bbe a247 5b3c ab2b 0d3e 2da3 e63c
00000280: 2614 1bbd 7483 093e aa49 8fbd e855 043d
00000290: c09e 2e3e 211b b03d 3105 193e b655 5a3e
000002a0: 6d60 99bd f021 453d fb3e 28bd 88cf c03d
000002b0: 26c9 843d 85b5 363e 5939 efbc 0fed 863c
000002c0: 3e2c a73d 8694 1cbe ea32 603e d175 b83d
000002d0: fb6e 59bc fe58 653e 44ac 33bd 61b6 6e3d
000002e0: a192 113c fdac 9e3d c9d6 333d 5c6c e7bd
000002f0: f977 a23d d827 75bd 7832 0f3e 04cb 533d
00000300: 3ebb 813d b162 c13d 5008 863e 4e63 133d
00000310: 5dd2 b23c 611d bfbe f190 d23d 925c 883e
00000320: b5ac 053f dc81 973c 38a4 82bf a53d c03e
00000330: 2fde a03b 7e79 acbd 3006 32bd f8d2 98bd
00000340: 4cac 503e e208 12bf eee3 583f e0d2 d63e
00000350: 2bb6 28be 1579 60be 5676 d33e 0631 4a3d
00000360: 0f7e a0bc 97eb bebe ac91 c43e 194b d83e
00000370: 259b 563e ae5e 86be ac13 593e 242c bfbe
00000380: fe1f 913c 9417 cebb 7b75 423e 37f8 0e3d
00000390: fa49 a13c 3d78 d1bc 6f6c be3b 7c8e 0e3d
000003a0: e0f9 b6bc f066 e73d b668 9ebe 8f9c cbbe
000003b0: 0239 a43d 125f 303e b5bb 4e3d 123f b63e
000003c0: 0f86 a0be 7dab e43e faaf b7be 11c5 8f3e
000003d0: 677f cbbe 5667 853d cf28 00bf 4cdb ce3c
000003e0: 8b98 253d 76cb d33e 1f9c df3d a9d5 a23e
000003f0: 6737 b2ba 18a0 4dbd 1c43 95bf 40c6 903e

layer2.weight_hh_l0 f4 [64, 64]
-0.08326057 -0.050703432 -0.010519736 -0.088379964 0.03866327 0.028011208 0.017044837 -0.113920875
0.0743332 0.04153728 0.078329615 -0.043121412 0.08450531 -0.035101604 -0.041366942 -0.07447573
0.07483981 0.010183827 0.06576067 -0.09793057 0.13349096 -0.031825483 -0.12436551 -0.057666566
0.046271715 0.056802094 -0.07241868 -0.10749627 -0.062253658 0.027500415 0.03899023 0.031077677
0.0797421 0.07374347 -0.07167375 -0.007878809 -0.11311172 0.057637673 -0.11765688 -0.031144617
0.12395546 -0.03716176 -0.014599405 0.03074977 0.064462095 0.009046377 0.041748732 0.08854373
0.046687156 -0.080833815 0.06435009 -0.01033378 -0.008767004 0.19417933 -0.06359949 -0.015022019
0.15881601 0.050521944 -0.15364128 -0.060222525 -0.018213462 0.025080087 -0.03311894 0.009673654
-0.038138676 0.035261877 0.09232752 -0.09782208 0.047598623 -0.08955798 0.0075474116 0.026491573
0.02839569 -0.08954116 0.065440305 -0.052449517 0.065614276 0.051052272 -0.05854129 0.01715885
0.030253131 -0.020044269 -0.011038003 0.026608136 0.051837545 0.18110888 -0.04829204 0.005973886
0.08655684 -0.120795205 0.0012918995 0.2117786 -0.034712795 0.0034270906 -0.0671353 -0.10722257
-0.03270485 -0.05878765 0.17870131 -0.0013613082 0.051655885 0.042505298 -0.04293199 0.017944118
-0.030468881 0.1220394 -0.035636526 -0.057729896 -0.047784664 -0.016586082 0.12317284 -0.043610454
-0.012220613 0.0974019 0.043045647 0.1011707 -0.047098644 -0.06725131 0.045392953 0.022408865
0.084134504 0.1304895 0.10045586 0.019219574 0.14935675 -0.12397066 -0.012905653 0.007653805
0.023334688 -0.12790085 0.110955514 0.058414374 0.072821505 0.07972749 -0.014428974 0.060413778
0.12148052 -0.048792366 0.01600875 -0.0071267895 -0.11468981 -0.05655139 -0.04743382 0.041963417
0.14746232 0.17881504 0.011628402 0.10360697 -0.008740276 -0.040526655 0.020901775 -0.11235828
-0.0081836935 0.017975291 0.03095604 -0.069379814 -0.12159505 -0.021853542 0.1641912 -0.0828106
0.01942188 0.09400489 -0.07692381 -0.016868893 0.18821701 -0.045601614 -0.010536145 -0.06074973
0.18637167 -0.017677376 -0.16256818 0.0187058 -0.034669492 0.14234136 0.0054604383 0.16460459
0.074859224 -0.13313375 -0.16828617 -0.11382322 0.094040416 -0.067173876 -0.0041354666 0.059946705
0.026728932 -0.022968382 -0.058293283 0.038552262 -0.15479535 0.12752117 0.11255956 0.058997355
0.044494666 0.0989122 -0.014727306 0.04971895 0.05658845 0.008484698 0.1454466 -0.0059558395
-0.09841131 -0.049041428 0.08511452 -0.06978817 0.114587896 -0.006697993 -0.07362124 -0.013628157
-0.05179245 -0.019030005 -0.09471943 0.033047143 0.0004945832 0.05441715 -0.025937038 -0.0161065
0.02456441 0.016249096 0.12189482 0.0019833492 0.018687908 -0.024100754 -0.07599723 -0.06523193
-0.04511197 -0.042107433 0.11984566 0.05832489 -0.037741166 0.05178888 0.019098086 -0.07644646
-0.07771884 0.056115907 0.06492737 -0.00016364154 -0.07002325 0.059555203 -0.05000369 0.060863215
-0.006221248 0.09472135 -0.013184836 0.0056893253 -0.028698292 -0.043419927 0.05525951 0.047047347
-0.13295427 0.08562804 0.05776988 0.058481768 0.09053622 -0.10610379 0.021212308 -0.004939815
00000000: 8584 aabd 67ae 4fbd f95a 2cbc 8e00 b5bd
00000010: 615d 1e3d c377 e53c 9da1 8b3c 594f e9bd
00000020: 013c 983d ff22 2a3d 476b a03d 14a0 30bd
00000030: 1f11 ad3d b3c6 0fbd 6270 29bd bb86 98bd
00000040: 9d45 993d 11da 263c 88ad 863d d38f c8bd
00000050: dbb1 083e 705b 02bd 58b3 febd c733 6cbd
00000060: 6987 3d3d 50a9 683d 3f50 94bd 0127 dcbd
00000070: b1fd 7ebd 8d48 e13c 38b4 1f3d 9d96 fe3c
00000080: d34f a33d d106 973d b0c9 92bd 1f16 01bc
00000090: 1ea7 e7bd 7b15 6c3d 17f6 f0bd ff22 ffbc
000000a0: 5cdc fd3d ee36 18bd 5832 6fbc f1e6 fb3c
000000b0: b404 843d 4137 143c b800 2b3d 6a56 b53d
000000c0: 083b 3f3d 338c a5bd fbc9 833d 044f 29bc
000000d0: 7ba3 0fbc f2d6 463e 7340 82bd ea1e 76bc
000000e0: aaa0 223e 19f0 4e3d 2454 1dbe e5ab 76bd
000000f0: 6634 95bc c174 cd3c baa7 07bd 3f7e 1e3c
00000100: 4d37 1cbd c26e 103d 3616 bd3d f156 c8bd
00000110: c6f6 423d 2d6a b7bd 4750 f73b db04 d93c
00000120: 149e e83c 5b61 b7bd 9105 863d 4ed5 56bd
00000130: c760 863d 301c 513d fec8 6fbd b790 8c3c
00000140: 6ad5 f73c e133 a4bc bdd8 34bc 4ef9 d93c
00000150: 9b53 543d 9b74 393e e0cd 45bd 97c0 c33b
00000160: b644 b13d 7a63 f7bd f454 a93a 7ddc 583e
00000170: 012f 0ebd 0a99 603b 3b7e 89bd 8297 dbbd
00000180: 85f5 05bd 52cb 70bd 7afd 363e ec6d b2ba
00000190: 1f95 533d 091a 2e3d 74d9 2fbd 8bff 923c
000001a0: e099 f9bc cbef f93d 9bf7 11bd 2f76 6cbd
000001b0: dab9 43bd 89df 87bc 0b42 fc3d e0a0 32bd
000001c0: f738 48bc a67a c73d a250 303d 9532 cf3d
000001d0: 82ea 40bd 0ebb 89bd f6ed 393d cc92 b73c
000001e0: b64e ac3d 0a9f 053e cdbb cd3d 5e72 9d3c
000001f0: faf0 183e 54e4 fdbd 3b72 53bc c5cc fa3b
00000200: 6328 bf3c 71f8 02be a53c e33d e943 6f3d
00000210: 7123 953d 2b48 a33d 8167 6cbc 7074 773d
00000220: c7ca f83d 81da 47bd c824 833c d887 e9bb
00000230: 7ee2 eabd 6ea2 67bd f749 42bd d5e1 2b3d
00000240: 5d00 173e 4a1b 373e 0e85 3e3c e42f d43d
00000250: 6033 0fbc 47ff 25bd 333a ab3c 191c e6bd
00000260: e614 06bc eb40 933c 8597 fd3c 0117 8ebd
00000270: d306 f9bd 3306 b3bc bd21 283e 9b98 a9bd
00000280: a21a 9f3c a385 c03d 3b8a 9dbd a230 8abc
00000290: f6bb 403e c2c8 3abd cc9f 2cbc b5d4 78bd
000002a0: 37d8 3e3e 25d0 90bc 4678 26be e83c 993c
000002b0: 9901 0ebd efc1 113e 7aed b23b 1b8e 283e
000002c0: cb4f 993d 3754 08be 3653 2cbe 261c e9bd
000002d0: 4398 c03d 7592 89bd cf82 87bb ad8a 753d
000002e0: a2f6 da3c 3028 bcbc f0c4 6ebd fae8 1d3d
000002f0: ac82 1ebe e994 023e a085 e63d 36a7 713d
00000300: 0a40 363d 7b92 ca3d cc4a 71bc 19a6 4b3d
00000310: 4ac9 673d 6703 0b3c f4ef 143e 3429 c3bb
00000320: de8b c9bd aadf 48bd 8550 ae3d 1aed 8ebd
00000330: 0fad ea3d d67a dbbb bcc6 96bd a248 5fbc
00000340: 5224 54bd d0e4 9bbc 43fc c1bd 715c 073d
00000350: eba6 013a 84e4 5e3d e979 d4bc c7f1 83bc
00000360: 4d3b c93c d31c 853c fea3 f93d 14fb 013b
00000370: 6217 993c f26e c5bc 70a4 9bbd 5198 85bd
00000380: 54c7 38bd d878 2cbd a471 f53d 14e6 6e3d
00000390: 7b96 1abd 9420 543d 9773 9c3c f68f 9cbd
000003a0: 0e2b 9fbd cbd9 653d a4f8 843d 3197 2bb9
000003b0: 5a68 8fbd 28f0 733d abd0 4cbd b54b 793d
000003c0: 9cdb cbbb 44fd c13d 3605 58bc 856d ba3b
000003d0: ae18 ebbc 18d9 31bd cc57 623d b8b4 403d
000003e0: 2a25 08be c15d af3d 1ca0 6c3d 948a 6f3d
000003f0: 0e6b b93d f24c d9bd 6fc5 ad3c 2cde a1bb

layer2.bias_ih_l0 f4 [64]
-0.09278822 -0.04350452 0.10802909 0.0067914007 0.0003017328 0.0001248257 -0.05662699 -0.07304121
0.042057063 0.012266568 -0.05121575 -0.017388802 -0.15820682 0.0018420408 -0.019682102 0.030169917
-0.07547088 0.057480447 -0.045210656 0.028721485 0.011858531 -0.16919518 -0.08015497 -0.08517319
-0.05292897 -0.07287271 0.042468905 -0.024448631 0.049341563 0.062489267 0.007836127 -0.0070254253
0.0057353354 -0.019158041 -0.163192 0.0850525 0.1173289 -0.1008919 0.040414054 -0.16440839
0.014174002 0.013090185 -0.11898016 0.045171157 0.034509744 -0.047929164 -0.1763276 -0.04996257
0.2483157 -0.21327907 -0.17277506 -0.05461884 0.07691175 -0.08748357 0.11709908 0.06812149
0.07429223 -0.045177083 -0.045797568 -0.08426969 -0.1615221 0.044690024 -0.006315388 -0.12809663
00000000: c007 bebd cc31 32bd 5b3e dd3d 668a de3b
00000010: e431 9e39 a5e3 0239 b4f1 67bd a196 95bd
00000020: 0744 2c3d b7f9 483c 9bc7 51bd f672 8ebc
00000030: f800 22be a270 f13a 5c3c a1bc e726 f73c
00000040: 7a90 9abd 9e70 6b3d cf2e 39bd 5249 eb3c
00000050: 494a 423c 8041 2dbe 4a28 a4bd 486f aebd
00000060: 0ccc 58bd 4a3e 95bd e0f3 2d3d 7f48 c8bc
00000070: 611a 4a3d bff4 7f3d 1963 003c 8a35 e6bb
00000080: 7bef bb3b 53f1 9cbc ce1b 27be 0130 ae3d
00000090: 224a f03d 6aa0 cebd 3589 253d ac5a 28be
000000a0: 133a 683c 3778 563c dfab f3bd 6405 393d
000000b0: 175a 0d3d 5f51 44bd 398f 34be 8da5 4cbd
000000c0: 7946 7e3e d465 5abe f2eb 30be 01b8 5fbd
000000d0: e883 9d3d 962a b3bd a4d1 ef3d 4883 8b3d
000000e0: 8626 983d 9b0b 39bd 3b96 3bbd 9695 acbd
000000f0: 0d66 25be e30c 373d 50f1 cebb c32b 03be

layer2.bias_hh_l0 f4 [64]
0.0026066995 -0.16423407 0.090351336 -0.050981607 -0.120065644 0.022501323 -0.089408115 0.049789123
0.011731747 -0.08834713 -0.009824519 -0.029436938 -0.13764752 -0.024048012 -0.0065990854 0.04226089
-0.0878554 -0.005712492 -0.04569849 0.083247624 -0.01717963 -0.0022034575 -0.060269266 -0.10391152
-0.009273249 -0.012636474 -0.11386936 -0.17142591 -0.059377998 -0.083875164 -0.009254963 0.007405793
0.030728469 0.09578993 -0.117443 -0.052983243 0.05552671 -0.058023356 0.0821646 -0.055458263
0.040057275 -0.08024146 -0.098913096 -0.03550967 0.046680026 -0.055800356 -0.040362954 0.08178429
0.16786052 -0.1686133 -0.087108985 -0.0992774 -0.10540579 0.015618096 0.017558934 -0.030034535
-0.00062448485 -0.15451016 -0.022153525 0.00580957 -0.07265528 -0.04567838 -0.015403097 -0.109606594
00000000: 29d5 2a3b fa2c 28be 1f0a b93d 17d2 50bd
00000010: fae4 f5bd b254 b83c 9a1b b7bd aeef 4b3d
00000020: 8336 403c 57ef b4bd 05f7 20bc bc25 f1bc
00000030: 79f3 0cbe 5600 c5bc 243d d8bb c119 2d3d
00000040: 88ed b3bd db2f bbbb 572e 3bbd bb7d aa3d
00000050: 4cbc 8cbc e267 10bb e8dc 76bd 90cf d4bd
00000060: d3ee 17bc 3709 4fbc 5734 e9bd 468a 2fbe
00000070: 5836 73bd bec6 abbd 21a2 17bc 4bac f23b
00000080: 45ba fb3c 832d c43d f585 f0bd f504 59bd
00000090: fa6f 633d e6a9 6dbd ea45 a83d 3428 63bd
000000a0: 1913 243d a255 a4bd f392 cabd 9672 11bd
000000b0: 8e33 3f3d ea8e 64bd a053 25bd 867e a73d
000000c0: a1e3 2b3e f7a8 2cbe 3266 b2bd f351 cbbd
000000d0: fede d7bd 0be3 7f3c c1d7 8f3c fc0a f6bc
000000e0: 78b4 23ba e937 1ebe 4f7b b5bc 355e be3b
000000f0: 4bcc 94bd 4119 3bbd 455d 7cbc 6c79 e0bd

layer3.weight f4 [5, 64]
1.1059879 -0.47184238 0.6979076 -0.24444209 -0.40286756 1.0150661 -0.44767424 -0.46382996
1.3774056 -0.42324767 0.090915896 1.3337644 -0.08049269 -0.08328124 -0.27285695 1.4206465
-0.5793038 -0.24774769 -0.11088559 -0.62853014 -0.5900622 -0.08575809 -0.33666986 -0.08819822
-0.08356699 -0.44654632 -0.46716142 -0.0031067512 1.5104246 -0.5076353 1.5545933 -0.3626689
1.1058084 1.5570025 0.045042295 -0.4981664 0.90655303 0.06596929 -0.57125974 -0.019198503
0.58554935 -0.4922516 -0.40391392 -0.4734241 -0.11175258 -0.45218274 0.092279635 -0.49192587
-0.33287415 -0.34108478 0.0386458 -0.4233003 -0.52665144 -0.26783466 1.6343784 1.352466
-0.037802044 0.028056549 -0.071007185 0.6235627 -0.05395486 -0.50261474 -0.40492573 1.1767045
1.0488989 -0.43691912 0.64284647 -0.35833538 0.13792193 0.9538967 -0.33436182 -0.5607683
1.5746698 -0.42001474 0.05084051 1.2978655 0.062009104 -0.075726554 -0.34865353 1.3077464
-0.21185197 -0.4995583 -0.29294327 -0.690474 -0.64393073 0.031912208 -0.4864278 -0.05723635
-0.04348677 -0.23489656 -0.4256083 -0.030044196 1.4097017 -0.5708462 1.5962379 -0.28145304
1.1214712 1.3109925 -0.009113553 -0.72149664 0.73413664 0.076558694 -0.577065 0.007971406
0.8015239 -0.41297454 -0.41499788 -0.6479943 0.66651994 -0.4412383 -0.024486883 -0.3952517
-0.42354688 -0.57918715 0.011201204 -0.21932834 -0.58268034 0.036669318 1.3010536 1.5657705
-0.17384599 0.069884606 -0.05939714 0.59663296 0.072601676 -0.48108354 -0.6028308 1.0634351
1.1384313 -0.290868 0.46538788 -0.675661 -0.65087134 1.057694 -0.6724831 -0.19371252
1.3808986 -0.66508687 -0.005004189 1.4909621 0.09810182 -0.07553465 -0.6693967 1.3413966
-0.5918451 -0.4455425 0.16122058 -0.645708 -0.6576062 -0.09118265 -0.24537681 -0.059696127
-0.027872028 -0.5781851 -0.4851094 -0.051541857 1.6388533 -0.60465074 1.4140273 -0.6904634
1.1916287 1.5997578 -0.021490192 -0.47762987 0.8645297 -0.08448931 -0.41777685 -0.028157953
0.43828383 -0.4335719 -0.22743782 -0.4757445 -0.36806148 -0.35520247 0.009634327 0.10362941
-0.35804912 -0.3903754 -0.001628356 -0.21328232 -0.36549962 -0.2882273 1.3458264 1.4997777
-0.23796055 -0.069890045 -0.08863892 0.66838264 0.09111436 -0.46087027 -0.45011598 1.1066868
1.0329401 -0.23191191 0.7270887 -0.41171706 -0.40096492 1.0778662 -0.6749607 -0.4012801
1.5079141 -0.52321476 0.00459149 1.4121099 0.06555835 0.058594678 -0.2207552 1.4698939
-0.41907465 -0.24471332 -0.48944575 -0.6585188 -0.64839464 0.05112628 -0.3610444 -0.041190065
-0.098394655 -0.25714853 -0.39841464 0.013711227 1.5134432 -0.56933516 1.4442189 -0.23355849
1.0345211 1.508659 0.07468727 -0.28335166 0.95324576 0.015188837 -0.8013294 0.11648569
0.75386035 -0.50922394 -0.44523484 -0.65590674 0.005299851 -0.62655526 -0.05734065 -0.43880436
-0.69032186 -0.27114123 -0.097404934 -0.39874667 -0.6208844 -0.19621186 1.2629453 1.5001609
0.13355869 0.08440818 -0.043949574 0.9507088 0.024053475 -0.45352894 -0.5482792 0.8060163
00000000: 0391 8d3f 5395 f1be 13aa 323f 074f 7abe
00000010: a844 cebe b0ed 813f 8f35 e5be 1f7b edbe
00000020: d44e b03f ebb3 d8be 1d32 ba3d cbb8 aa3f
00000030: 5ad9 a4bd 5b8f aabd e8b3 8bbe bfd7 b53f
00000040: 414d 14bf 92b1 7dbe fc17 e3bd 5ae7 20bf
00000050: 510e 17bf f0a1 afbd fe5f acbe 45a1 b4bd
00000060: 2c25 abbd b8a1 e4be c82f efbe a39a 4bbb
00000070: 9855 c13f 63f4 01bf eafc c63f bdaf b9be
00000080: 218b 8d3f dc4b c73f 457e 383d ab0f ffbe
00000090: dc13 683f e81a 873d 143e 12bf 2e46 9dbc
000000a0: 90e6 153f 6708 fcbe cecd cebe a564 f2be
000000b0: 89de e4bd 7f84 e7be 1bfd bc3d b5dd fbbe
000000c0: 7b6e aabe aaa2 aebe 0f4b 1e3d d1ba d8be
000000d0: a1d2 06bf a021 89be 5033 d13f 9b1d ad3f
000000e0: 51d6 1abd d9d6 e53c 376c 91bd cea1 1f3f
000000f0: c5ff 5cbd 5cab 00bf 6d52 cfbe 419e 963f
00000100: 5242 863f ddb3 dfbe 9691 243f bc77 b7be
00000110: 683b 0d3e 9332 743f 7931 abbe 838e 0fbf
00000120: c88e c93f 2c0c d7be 233e 503d 7520 a63f
00000130: 42fd 7d3d 8616 9bbd b782 b2be 3c64 a73f
00000140: b9ef 58be 1bc6 ffbe a9fc 95be e7c2 30bf
00000150: a5d8 24bf 60b6 023d 110d f9be aa70 6abd
00000160: 2f1f 32bd b988 70be 55e9 d9be 3f1f f6bc
00000170: 1b71 b43f fa22 12bf 8651 cc3f 9d1a 90be
00000180: 5e8c 8f3f 9ace a73f 0351 15bc 01b4 38bf
00000190: 61f0 3b3f ceca 9c3d 88ba 13bf 809a 023c
000001a0: ac30 4d3f 6671 d3be 9a7a d4be f4e2 25bf
000001b0: 0da1 2a3f fde9 e1be b798 c8bc 6e5e cabe
000001c0: 23db d8be 9c45 14bf 4185 373c 9c97 60be
000001d0: 8a2a 15bf 9132 163d ed88 a63f 2b6b c83f
000001e0: af04 32be a91f 8f3d 6a4a 73bd f0bc 183f
000001f0: 30b0 943d 9550 f6be 1f53 1abf a41e 883f
00000200: 1eb8 913f a7ec 94be 5247 ee3e 1ff8 2cbf
00000210: 819f 26bf 8462 873f da27 2cbf 935c 46be
00000220: 49c1 b03f 2243 2abf 2efa a3bb d9d7 be3f
00000230: 9be9 c83d e9b1 9abd 955d 2bbf e2b2 ab3f
00000240: 2983 17bf 261e e4be 0217 253e 1f4d 25bf
00000250: e158 28bf f8bd babd 0f44 7bbe ed83 74bd
00000260: e153 e4bc f003 14bf 4260 f8be 8e1d 53bd
00000270: f2c5 d13f 64ca 1abf d9fe b43f 36c2 30bf
00000280: 4a87 983f ddc4 cc3f 330c b0bc e78b f4be
00000290: d251 5d3f bb08 adbd d9e6 d5be 82ab e6bc
000002a0: bd66 e03e 23fd ddbe 76e5 68be c894 f3be
000002b0: 8e72 bcbe 19dd b5be 4cd9 1d3c a83b d43d
000002c0: 3752 b7be 49df c7be 906e d5ba ae66 5abe
000002d0: c422 bbbe 8792 93be 0a44 ac3f b7f8 bf3f
000002e0: eeab 73be 8322 8fbd 5288 b5bd 201b 2b3f
000002f0: 2a9a ba3d 30f7 ebbe 9a75 e6be eaa7 8d3f
00000300: 6237 843f 517a 6dbe 7c22 3a3f 94cc d2be
00000310: 464b cdbe 85f7 893f 39ca 2cbf 9674 cdbe
00000320: 5403 c13f 67f1 05bf 3674 963b 04c0 b43f
00000330: 7543 863d f900 703d a70d 62be 7c25 bc3f
00000340: f490 d6be 2196 7abe a298 fabe b094 28bf
00000350: 31fd 25bf ca69 513d d0da b8be eab6 28bd
00000360: 2383 c9bd f9a8 83be 01fd cbbe 0ea5 603c
00000370: 82b8 c13f f3bf 11bf 2adc b83f f529 6fbe
00000380: 306b 843f bd1b c13f a4f5 983d 7813 91be
00000390: ea07 743f 9ada 783c ec23 4dbf 0d90 ee3d
000003a0: fefc 403f 805c 02bf d2f5 e3be 81e9 27bf
000003b0: 5faa ad3b ed65 20bf 08de 6abd f7aa e0be
000003c0: efb8 30bf 06d3 8abe 3d7c c7bd 8628 ccbe
000003d0: 48f2 1ebf c3eb 48be 31a8 a13f 4605 c03f
000003e0: 9cc3 083e 32de ac3d 7804 34bd a761 733f
000003f0: cb0b c53c f234 e8be 075c 0cbf 1657 4e3f

layer3.bias f4 [5]
0.7211491 0.9609862 0.98175615 1.14947 0.5846547
00000000: 3a9d 383f 3103 763f 5f54 7b3f d521 933f
00000010: eeab 153f
