ch08/car_racing_dqn_350.pth (torch, 40850 bytes, 8 tensors)

layer1.weight f4 [64, 11]
000000 88 db b1 be 4e bd 30 3d 96 1e 9d 3c 85 98 3e 3e
       -0.34737802 0.043149285 0.019179624 0.18612869
000010 64 b6 62 3e 95 65 5d 3e 4a dd 38 bd 4c 2b a2 3e
       0.22139889 0.21620782 -0.045132913 0.31673658
000020 ae 5b bd 3e 5c a3 4d 3e 10 64 04 3e 35 a7 44 bf
       0.3698401 0.20081848 0.12928796 -0.7681764
000030 f5 1d a9 be 99 c7 64 3e ce 46 3d 3e ae 67 b4 3e
       -0.33030668 0.22341765 0.18484041 0.3523535
000040 5c 6c 7d 3e 0e 51 8d be 5c 52 51 bd a5 8b 8c 3e
       0.24748367 -0.27600902 -0.051103935 0.2745029
000050 82 74 f1 3e 1e ca a3 3e fd 3e cb 3e aa c6 90 3d
       0.471592 0.3199014 0.39696494 0.07069142
000060 0c 58 54 be 59 57 a9 bd 6f 28 9a bd 88 96 c2 be
       -0.20736712 -0.08268613 -0.07527243 -0.3800547
000070 8a 07 99 be 0e ec 34 3e e0 53 52 be d0 2a 8d be
       -0.29888564 0.17668173 -0.20539808 -0.27571726
000080 08 47 5e 3e 0c a8 d6 bd d3 3c 25 3d 9d 99 a1 bd
       0.21706784 -0.10481271 0.04034121 -0.078906275
000090 be 21 e1 3d a7 1d 8b bd 67 ef e0 3d 80 3f 22 be
       0.10992764 -0.06792765 0.109831624 -0.15844536
0000a0 9c bf c2 3c 54 83 23 bd 97 08 5e 3e 48 6d 40 be
       0.023773007 -0.039920166 0.21682964 -0.18791687
0000b0 46 12 10 3e 8d 50 de 3d 79 46 0a 3e fe 67 d3 3e
       0.14069471 0.108552076 0.13503446 0.41290277
0000c0 49 a7 ef 3e d0 81 a4 3e 61 48 88 3e a5 b4 25 3e
       0.46807316 0.3213029 0.2661772 0.16182192
0000d0 d1 17 4d 3d 87 b1 01 3e 6c e8 05 3e 92 49 8d 3e
       0.05007154 0.12665378 0.13076943 0.27595192
0000e0 47 47 f5 b9 fd a0 83 3e a0 3a d8 bd 67 ca 05 be
       -0.00046783147 0.25708762 -0.10558057 -0.13065492
0000f0 62 e6 c4 3e 1b b1 d6 3e 0c b0 f6 3e 3b a2 77 be
       0.38457018 0.41931996 0.48181188 -0.2418298
000100 c2 de 29 bf 53 15 4a bf 5e 11 eb be f8 2d 0a 3d
       -0.66355526 -0.7893879 -0.45911688 0.033735245
000110 e6 74 a6 3e c5 a4 3d 3e 17 91 23 3b a5 1c 51 be
       0.3251106 0.18519886 0.0024958306 -0.20421083
000120 09 03 8c 3d 3e 6b 93 3e f7 9d 80 3d 5b 84 4c 3c
       0.068365164 0.28792757 0.062801294 0.012482728
000130 27 85 01 3e 8c 34 03 bf b0 50 4a 3e bd 6e 17 3e
       0.1264845 -0.51252055 0.19757342 0.14788337
000140 06 94 8d 3d 1a 68 49 3e c2 c6 3d 3e e3 44 5a 3e
       0.06912999 0.19668618 0.18532851 0.2131534
000150 73 43 ae 3e 99 86 50 3e dd 34 68 3e b5 7a 9e be
       0.34035835 0.20363845 0.22676416 -0.30952993
000160 eb 86 19 3f b7 3b e2 be 8b 99 cb 3d 76 b8 14 3d
       0.59971493 -0.44186184 0.09941395 0.03630873
000170 7e b0 0c bf 0d 03 fb be 8d 72 92 3d 9d 5c 4d 3e
       -0.54956806 -0.49025765 0.07150755 0.2005486
000180 0a 68 5b 3d 91 ed 19 3f 1b a2 31 3f 17 bf c1 bd
       0.053566016 0.6012812 0.6938798 -0.094602756
000190 70 db 7b 3e d5 da a8 3d fc 57 ea be e1 ea 0a be
       0.24595428 0.08244864 -0.45770252 -0.13566162
0001a0 a7 c0 82 3e ad 1e 4c 3c 87 cd 42 3e 27 59 f3 3d
       0.25537607 0.012458486 0.19023715 0.11882239
0001b0 7c ab 92 3d c7 99 47 3e 9a c1 f9 3e 44 2b 71 3b
       0.07161614 0.19492255 0.4878052 0.003679947
0001c0 3c b4 ba 3d 20 06 c5 be a3 2d 42 bf 8e 48 23 bd
       0.09116408 -0.38481236 -0.75850886 -0.039864115
0001d0 84 10 83 3e b9 83 b0 3e 81 13 5f 3e 53 6b 1e 3f
       0.25598538 0.34475496 0.21784784 0.61882514
0001e0 46 6f 06 3f 36 45 cd 3e b7 e0 69 3e ef 13 91 be
       0.5251354 0.40091866 0.22839628 -0.2833552
0001f0 2b eb 32 be 48 7a 78 bd ed 49 d8 be fc 22 4e be
       -0.17472522 -0.06066349 -0.422439 -0.20130533
000200 91 77 5c bc c8 7a 91 be 2b f5 0a be fc e0 25 3d
       -0.013456241 -0.28413987 -0.13570087 0.040497765
000210 74 01 29 be c9 4f a0 bc b3 7a 9d 3e 9a 57 cc bd
       -0.1650446 -0.019569295 0.30757675 -0.09977646
000220 ee 2d 0c 3d b9 6d 12 bd 35 d6 34 be 6f 94 b4 bd
       0.03422349 -0.03574917 -0.17659838 -0.08817374
000230 cf 30 9b bd 4b a0 ae 3e 1d 50 ad 3e 79 88 e2 bd
       -0.07577669 0.3410667 0.33850184 -0.11061186
000240 d5 77 0e 3e cf 19 a7 bd b2 41 12 be e5 2a 98 be
       0.139129 -0.081592195 -0.14282873 -0.29720226
000250 4c c5 a1 3e 57 8b 8c 3e 02 68 bf 3d e4 69 74 3e
       0.31595838 0.27450058 0.0934601 0.23868519
000260 2d cb 3f bd de 74 af bc bb b7 fd 3d 51 9d 48 be
       -0.046824623 -0.021418031 0.123885594 -0.19591261
000270 c7 48 2c 3e 49 6f 7e bd e5 a1 3a bd 93 e4 8c 3d
       0.16824637 -0.06211785 -0.04556455 0.068795346
000280 96 f7 4a be b9 28 0d bd 5b b6 47 be 8c 69 2e 3d
       -0.19821009 -0.034462664 -0.19503157 0.042581126
000290 0e a9 08 3d bd 76 a2 bb 6b dc e4 bc 0b f6 8a 3c
       0.033364348 -0.0049580024 -0.027937135 0.016963026
0002a0 e7 f7 5b be 8c df fa bd 35 63 16 bd 0e a5 c6 3d
       -0.21481286 -0.122496694 -0.036715705 0.096994504
0002b0 19 0e 49 be 2f 52 b9 bb 2c 40 2e be 1a 9b 99 bd
       -0.19634284 -0.005655549 -0.17016667 -0.075002864
0002c0 18 53 78 3e 23 4d dc 3e 65 47 fe 3d f7 1d 1a 3e
       0.24250448 0.430276 0.12415961 0.15050493
0002d0 23 69 40 3e ce 88 99 3e 5e 1f 96 3e 19 e2 82 3e
       0.18790106 0.29987186 0.29320806 0.25563124
0002e0 63 5d 0e 3a e8 39 84 3e 55 a8 02 3e 02 00 a6 be
       0.0005430786 0.2582543 0.12759526 -0.3242188
0002f0 fb 06 ab bd e5 c5 d5 3e ee 84 17 3e 00 71 b6 3e
       -0.08350941 0.41752544 0.14796802 0.35633087
000300 b6 ae 8d 3e a4 47 a1 be b3 d5 05 bf 6a 5c 29 bf
       0.27672356 -0.3149997 -0.52279204 -0.6615664
000310 99 fd 98 be b0 ea 07 be 9a a5 10 bf c5 f5 5b bf
       -0.2988098 -0.1327312 -0.5650269 -0.8592189
000320 f1 11 80 be d4 b5 7d bf 49 af 8d bf 47 ec c9 bf
       -0.25013688 -0.9910557 -1.1069118 -1.5775231
000330 5b da 25 bf ab 6c d9 be 63 90 64 be 3b 74 5d bc
       -0.6478631 -0.4246572 -0.22320704 -0.013516481
000340 1b 29 b7 be e8 2d 34 3f f4 35 9e bd 80 5f 97 be
       -0.35773548 0.7038255 -0.077251345 -0.29565048
000350 f4 83 da bb 77 9f 81 bd 67 23 12 bf ac d1 32 be
       -0.006668562 -0.06329244 -0.5708527 -0.17462796
000360 05 47 33 be 69 50 a9 be 51 d8 3a 3c bf 1f fb 3d
       -0.1750756 -0.3306916 0.011404113 0.122619145
000370 b1 bb d6 be 99 ec f8 bd 16 01 d3 be 8e 6d 2f 3e
       -0.41940072 -0.121545024 -0.41211766 0.17131636
000380 02 63 71 3e 34 14 a9 3e 5b 83 a1 3e c3 c1 ff 3e
       0.23572925 0.33023226 0.3154553 0.49952516
000390 5f 26 61 3e df 83 a7 3e c4 83 d1 3b 5b f3 48 3e
       0.21987294 0.32717797 0.0063938815 0.19624083
0003a0 55 60 92 be ca 43 66 bd 77 f4 d9 be 94 79 08 3e
       -0.2858912 -0.056216992 -0.42569324 0.13327628
0003b0 ff ab f3 3e 3a 93 df 3d 6b 6a de 3c a3 8e 56 3e
       0.4759216 0.10916753 0.027150353 0.20952849
0003c0 33 79 3a 3e c7 b0 d1 3c 1f 4b a1 3e 7a ed 53 3e
       0.18210296 0.02559699 0.31502625 0.20696059
0003d0 36 fd a3 be e9 4b ea bc 72 94 80 bd 66 54 9d be
       -0.32029122 -0.02860065 -0.06278314 -0.30728453
0003e0 68 34 4a be cf f8 1b 3d e3 e9 42 be 05 4c 6b 3d
       -0.19746554 0.03807908 -0.19034533 0.057445545
0003f0 07 24 d6 bc d0 cf b2 3c 84 91 3c be ec d3 0d bd
       -0.026140226 0.021827608 -0.18414885 -0.034625933

layer1.bias f4 [64]
000000 6d 7f d3 bc 6f ba ff be c5 7d 86 3e c8 6b fa bd
       -0.025817597 -0.49946925 0.2626783 -0.12227589
000010 74 e9 49 be e3 1b 77 3e 0a 73 2e 3e e2 dd a6 be
       -0.19717962 0.24131732 0.17036071 -0.32591158
000020 41 fa cc 3e a3 5c 5c 3e a8 c6 9d be d6 b6 ab 3e
       0.4003468 0.21519713 -0.30815625 0.3353793
000030 94 68 56 3d 48 5a 0c 3e 64 3b 50 be e3 97 29 be
       0.052345827 0.13706315 -0.20335156 -0.16561846
000040 9e 68 69 be ad cb a2 3e 79 cb 02 3f 9a 6b 9d 3e
       -0.22793815 0.31796017 0.51091725 0.30746156
000050 c8 00 fb 3d 46 88 6a 3e 0d 62 39 3e 7e e3 b6 bd
       0.122560084 0.22903547 0.1810381 -0.089301094
000060 10 70 8f 3e a7 8d 80 3e d6 f5 c1 3e dc f3 46 3e
       0.28015184 0.25108072 0.3788287 0.19428962
000070 a4 7c 6c 3e 7c e7 f6 3b a2 6a d2 3d 40 c9 90 3e
       0.23094422 0.0075349193 0.10274245 0.28278542
000080 8b cb 1b be 05 4e 73 3e 3a 33 c8 3e 15 39 b6 bc
       -0.15214364 0.23760231 0.39101583 -0.022244016
000090 a9 69 6f be a0 38 d4 bd 17 40 f3 3b c6 75 b9 bc
       -0.2338015 -0.10362363 0.0074234116 -0.022639167
0000a0 4c 60 90 3e 23 4d c3 3b 55 d8 2f 3e 2e 98 97 3e
       0.2819847 0.005960123 0.17172368 0.2960829
0000b0 69 61 90 be a7 89 12 3e 99 62 77 3e ec 3f 7f 3d
       -0.28199318 0.14310323 0.24158706 0.06231682
0000c0 b1 43 3e 3e 2b a3 d3 3e be bb 38 3c bc 42 56 3e
       0.1858051 0.41335425 0.01127523 0.20923895
0000d0 fb 8e 6c 3e b9 15 b1 3c e3 ca 82 bc 84 af 19 bd
       0.23101418 0.021616803 -0.015965885 -0.0375209
0000e0 d0 34 45 be 52 a4 2e be 73 8d 90 3d 18 81 a6 3e
       -0.19258428 -0.1705487 0.07058229 0.32520366
0000f0 f2 96 de ba 89 be 5d be 7b 75 93 be 8b a2 1e be
       -0.0016982241 -0.21654715 -0.28800568 -0.15491693

layer2.weight_ih_l0 f4 [64, 64]
000000 d4 60 8c 3d 16 70 b8 3e b1 72 d0 be ea 33 d7 ba
       0.06854406 0.36023015 -0.40712503 -0.001641867
000010 30 a2 af be 28 aa 09 3f 5b 7b 13 3e fc 06 e2 be
       -0.34303427 0.5377526 0.14402525 -0.44145954
000020 d7 ab 98 be 49 86 18 3e 31 0c 8c 3e 52 11 d5 be
       -0.29818603 0.14894976 0.2735305 -0.41614777
000030 f6 f8 8a 3e e8 9b b1 3d 1c a7 af 3d 92 a9 b5 3d
       0.27143067 0.08672315 0.085767955 0.088702336
000040 34 7d 52 be 02 f6 30 3f 0e dd 2f bf d7 63 b2 be
       -0.20555574 0.6912538 -0.6869668 -0.34841797
000050 d2 3b e9 3e e4 c7 9d 3e 5d 31 00 bf f7 07 8c bd
       0.45553452 0.30816567 -0.5007532 -0.06837457
000060 48 24 bf 3e 72 a7 c7 3f ba 0b e8 be 34 0d 13 be
       0.37332368 1.5597975 -0.45321447 -0.14360505
000070 c4 af 95 be 9e b1 32 3f 4a 1e 02 bf 87 b4 71 3f
       -0.2923566 0.6980227 -0.5082747 0.9441609
000080 fe 2d 1d bd 21 db 95 3d 7e 16 1f bf 23 47 e2 3d
       -0.03837394 0.07317186 -0.62143695 0.110487245
000090 45 26 90 be c9 fa 1e 3e da f9 38 bd 52 47 89 3d
       -0.28154197 0.15525354 -0.045160152 0.067030564
0000a0 0e 0c dd bd 2e 17 4c be 30 49 84 3d dd 61 76 3e
       -0.10793315 -0.19930717 0.06459272 0.2406077
0000b0 20 16 e5 bd ad d3 5f be 54 7a 23 3d 46 26 e9 bd
       -0.11185861 -0.21858092 0.039911583 -0.11384253
0000c0 89 e6 c0 3f a0 20 25 bf 22 d3 63 3f 30 b4 5d be
       1.5070354 -0.64502907 0.8899404 -0.21650767
0000d0 db 93 19 3f f7 10 45 be 71 27 16 3f 68 d9 94 bb
       0.59991235 -0.19244753 0.5865393 -0.0045425184
0000e0 e7 48 98 bc f9 2c d6 bd 03 9f 1b be c6 07 ac be
       -0.01858945 -0.104577966 -0.15197377 -0.3359968
0000f0 7f b8 c0 bd ff 1f 9b 3c 56 23 15 3f 38 e3 3d be
       -0.0941019 0.018936155 0.58257043 -0.18543708
000100 cf f8 1b 3d 47 21 2b 3e 8b b4 cc 3d 05 c6 15 bc
       0.03807908 0.16711913 0.09995373 -0.00914145
000110 62 29 16 3d 2c 4d 74 be b6 d7 3e bd 9f d2 38 3e
       0.03666056 -0.23857564 -0.046592437 0.18049096
000120 5a 61 50 3e 96 b2 15 3d ad c5 9e bf 35 72 11 3e
       0.20349637 0.036547266 -1.2404076 0.14203723
000130 24 72 53 bd a8 23 8f 3d 16 87 35 3d b7 45 80 3c
       -0.051622525 0.06989223 0.04431828 0.015658243
000140 50 48 30 3d 5d b0 81 be 30 8a b9 3e cd f2 ce b6
       0.043037713 -0.25329867 0.3623824 -6.167544e-06
000150 90 c8 8c 3d 76 83 b1 bd a4 43 d2 3d bc 4f 59 3c
       0.06874192 -0.08667652 0.10266808 0.013263639
000160 f2 ff 32 bc d5 02 9f bc 44 d3 65 3e 4f 71 39 3e
       -0.01092528 -0.01941053 0.22443873 0.1810963
000170 69 85 bc 3d 81 27 7f be 55 df 84 bd 72 00 8a bd
       0.092051335 -0.24917413 -0.0648791 -0.06738366
000180 94 0a 2c bd d2 21 87 3c 86 e7 a2 bc 6e ed 56 3b
       -0.042002276 0.016495619 -0.01988579 0.0032795328
000190 78 b3 30 3d e2 99 1e bc 11 35 1e be a9 9f 2c 3d
       0.043139905 -0.009680243 -0.1544993 0.04214445
0001a0 aa f6 fd bd d2 c9 c3 bd bc d3 a1 be 40 c4 4e bd
       -0.12400563 -0.095599785 -0.31606853 -0.050480127
0001b0 a8 26 10 3e ab 6f c6 3d 3f 1c d7 3d 33 09 ef 3e
       0.14077246 0.09689268 0.105034344 0.46686706
0001c0 8d 3d a1 bb 75 ef c6 3d ef b2 83 be 07 13 f5 3d
       -0.0049206675 0.097136416 -0.25722453 0.1196652
0001d0 4c 62 e1 3b 95 0f 34 3e 13 4f 92 be 73 2f f5 3c
       0.006878173 0.17584069 -0.28575954 0.029929852
0001e0 d5 1a 62 3d e0 3a 1e 3e 5b 7c 4e bc e0 29 94 3d
       0.05520137 0.15452147 -0.012602891 0.072345495
0001f0 46 66 1b bd f8 86 2d bd 3b 74 34 bf 5b 12 67 bd
       -0.037939332 -0.042365044 -0.70489854 -0.05641399
000200 fa 7f fb 3d 5b e5 22 3e 3b 52 05 be 4f 90 a8 bd
       0.12280269 0.15907805 -0.1301965 -0.0823065
000210 87 4d ac 3d cf 83 f2 3d 25 1f 9d 3c 7e 26 77 3e
       0.08413225 0.11841547 0.01917989 0.24135777
000220 b2 97 07 bd 79 73 c0 3d f2 b4 40 3e 4b 74 30 be
       -0.033103652 0.09397025 0.18819025 -0.17231862
000230 96 8a 14 3d bc 31 b7 3d 1c 50 0c 3d 94 0f b1 bd
       0.03626498 0.08945033 0.034256086 -0.086455494
000240 fd 61 73 3e e7 93 72 bd 46 92 8c be c1 58 84 be
       0.23767848 -0.059223082 -0.27455348 -0.25848964
000250 1a b4 3f 3e b1 1b 8e 3d c3 32 27 be 80 b2 4b bb
       0.18721047 0.069388755 -0.16327958 -0.0031081736
000260 fd af f6 3d fc 44 64 3e 06 54 08 be ab 1f 38 3a
       0.12045286 0.2229194 -0.13313302 0.0007023762
000270 a6 d8 2c be e2 9d e2 3e 16 7b ba 3c 00 dc 45 3d
       -0.1687952 0.4426108 0.02276377 0.04830551
000280 66 58 0f bd 27 44 09 3e 3b ff 4b be 68 3c b3 3d
       -0.034996413 0.13404904 -0.19921581 0.08751756
000290 2a 7d 9e 3e 3e 0b bc 3d 25 4c 3d 3e 83 0e af 3e
       0.30954868 0.09181832 0.18486078 0.3419076
0002a0 91 68 3a bd c8 c9 76 3d c1 04 38 bd f5 22 c3 3d
       -0.04550988 0.060251027 -0.04492641 0.09528152
0002b0 a8 4a 75 3d 76 5e 28 3e 08 72 86 ba a6 be b5 3d
       0.05988565 0.16442284 -0.0010257373 0.08874254
0002c0 47 00 59 3d 7d 26 93 be 5d 97 09 3f 06 a1 d7 3d
       0.05297878 -0.28740302 0.5374659 0.1052876
0002d0 e6 05 37 3e da 9f 95 3e ae c1 45 3e f1 c7 5c 3d
       0.17873344 0.2922352 0.19312164 0.053901616
0002e0 e5 c2 06 3c b7 ef 04 3e b2 85 d4 3d 48 81 6b be
       0.008225177 0.12982069 0.10377063 -0.22998536
0002f0 60 40 3a 3e 51 d2 62 bd a1 4d 76 3e d5 92 e2 3d
       0.1818862 -0.055376355 0.2405305 0.11063162
000300 5f 39 31 3d 99 1a 9c 3d 9c 22 5b 3e 1a 65 08 3d
       0.043267604 0.076222606 0.21399921 0.033299543
000310 80 55 9f 3b 9a c2 b5 be a4 fe ab 3d a8 04 67 3e
       0.0048624873 -0.35500032 0.08398178 0.2256037
000320 01 de de 3e a4 80 ad 3b 63 b1 73 bf c5 e3 a7 3e
       0.4352875 0.005294876 -0.95192546 0.32790962
000330 9b 89 02 bc 50 92 b8 bd a5 b6 24 bd 9a 49 8d bd
       -0.007967378 -0.09012282 -0.040213246 -0.06898804
000340 bf 77 33 3e 3b f2 07 bf bb 07 4a 3f 84 ba af 3e
       0.17526148 -0.5310399 0.78918046 0.34321988
000350 15 b1 28 be 01 27 61 be ec 7a bb 3e b1 09 3b 3d
       -0.16473801 -0.21987535 0.3661722 0.04566354
000360 37 f6 ad bc 68 9d b5 be 8f 1a a3 3e bc e1 ac 3e
       -0.021235568 -0.35471654 0.318562 0.33765972
000370 22 01 24 3e 9f 6a 7f be e5 e0 2a 3e 94 93 b5 be
       0.16016057 -0.24943016 0.16687353 -0.35464156
000380 b9 5b 86 3c 5c f0 7e bc 9a 9f 05 3e 20 15 b3 3c
       0.016401159 -0.015560236 0.13049164 0.02186066
000390 d4 9d e3 3b fb 4b 02 bd bb aa 40 bc f4 ad 4f 3c
       0.006946305 -0.031810742 -0.011759455 0.012675751
0003a0 70 b4 34 bd 56 e3 a0 3d 3b 33 9a be d8 2d c6 be
       -0.04411739 0.07855861 -0.3011721 -0.3870685
0003b0 2d ef 97 3d e1 09 0f 3e b1 6f fd 3c ee 4a 96 3e
       0.07418666 0.13968612 0.030937048 0.29354042
0003c0 a6 21 92 be 2a bb cb 3e 42 27 c4 be 2c 91 77 3e
       -0.28541297 0.39791232 -0.383112 0.24176472
0003d0 b0 31 bf be 4d 5c 46 3d d0 34 f0 be 47 59 bf 3c
       -0.37342596 0.04842787 -0.46915293 0.023358
0003e0 c1 2e 19 3d e0 d0 bc 3e f9 54 a8 3d 92 3b 79 3e
       0.037398104 0.3687811 0.08219332 0.2433913
0003f0 47 b1 79 bc 97 34 3e bd c4 89 8a bf 6b f0 7c 3e
       -0.01524002 -0.046436872 -1.0823293 0.24701087

layer2.weight_hh_l0 f4 [64, 64]
000000 6e f4 77 bd 61 3b b7 bc b5 8d b0 bc d6 b5 71 bd
       -0.06053584 -0.022367181 -0.021551946 -0.059011303
000010 b3 1a e2 bc 52 bf 86 3c 18 5a 77 bc 82 11 0b be
       -0.027600622 0.01644865 -0.015097164 -0.13580897
000020 7b 9b 87 3c fa 62 c5 3d 00 d3 ab 3d 08 76 56 3d
       0.016553631 0.09638019 0.083898544 0.052358657
000030 d2 2a 3b 3d f7 ec 55 bd 1c 20 c2 bc 62 68 28 bd
       0.045695134 -0.05222794 -0.023696952 -0.041115172
000040 b8 a5 a9 3d 3d 1f 9e bd 5e e8 2f 3d cb 08 fd bd
       0.082835615 -0.07720802 0.042946212 -0.12355193
000050 20 d6 b4 3c c9 18 c1 bc f8 1b f2 bd 46 de 43 bd
       0.022074759 -0.023571389 -0.11821741 -0.0478194
000060 8a df 68 3d 2f d5 31 3d 79 42 9e bd 69 9a c0 bd
       0.05685381 0.0434162 -0.077275224 -0.094044514
000070 33 c5 03 3c e1 5f c7 3d 7c 20 4f bd 4a 77 07 3c
       0.008042621 0.09735084 -0.05056809 0.008268187
000080 8a 2c 87 3d 6b f0 b1 3d e9 36 77 bd ad 6b 3d bc
       0.06600292 0.08688434 -0.0603551 -0.011561316
000090 b5 30 f4 bd 64 c5 5d 3d 8e 85 00 be d7 16 b8 bc
       -0.11923353 0.054143324 -0.12550947 -0.022471828
0000a0 fc 3c dc 3d 77 1c 86 bb 2f f5 56 3c a3 49 31 3d
       0.10753819 -0.0040927487 0.01311998 0.043283116
0000b0 5f 5d 88 bc cb 75 2a 3b 27 8b 36 3d 0f 63 48 3d
       -0.016646085 0.0026010151 0.0445663 0.048922595
0000c0 e9 a3 64 bc 89 4d 73 bd 4e 57 91 3d 39 a1 9c 3c
       -0.013955095 -0.059400115 0.0709673 0.019119846
0000d0 92 ea bb bc 19 c9 51 3e 07 63 23 bd 09 93 c9 3c
       -0.022939 0.20486869 -0.03988936 0.024606245
0000e0 ec b8 ab 3d 67 92 54 3d 4c 9e c7 bd ce f6 93 bd
       0.083848804 0.051897433 -0.097469896 -0.07224809
0000f0 80 c6 12 bb 2b 51 bd 3c 85 bb 33 bd d4 3f ff bc
       -0.0022396147 0.023109993 -0.043880004 -0.031158365
000100 d3 14 57 bd 0c f6 82 3d 10 35 84 3d 19 3a 3f bd
       -0.052510094 0.06394586 0.06455433 -0.046686266
000110 01 63 2d 3d eb 91 d1 bd 16 e8 04 3d f6 8b fe 3c
       0.042330746 -0.1023291 0.032447897 0.031072598
000120 71 d3 4c bc c6 12 9e bd 91 f8 b7 3d 90 c4 3d bd
       -0.012501583 -0.077184245 0.08982957 -0.046330035
000130 f1 1c 79 3d 81 67 3b 3d 49 f2 25 bd 7e 3a dc 3c
       0.060818616 0.045753006 -0.040514264 0.02688336
000140 8c dd f4 3c c6 6d ab 3b 68 db 22 bc 35 31 83 3d
       0.029890798 0.005231592 -0.009940006 0.0640587
000150 b8 f4 9d 3c 5e 58 41 3e 5a 4f 10 bd 98 fb dc 3c
       0.01928173 0.18881366 -0.035231926 0.026975438
000160 87 c4 ed 3d 14 70 ae bd 9f 5e 3b 3d cd 56 63 3e
       0.1160975 -0.08517471 0.045744535 0.2220108
000170 f0 7e 9f bc 59 8b 1e 3c f1 a5 af bd cc 15 be bd
       -0.019469708 0.009676778 -0.08576573 -0.09281501
000180 d8 aa b6 bd 78 89 48 bd f3 11 3c 3e 72 fb ac 3c
       -0.089193046 -0.048959225 0.18366222 0.021115992
000190 b9 f3 ec 3c 83 0b 08 3d 2f 83 58 bd 54 f9 1c 3d
       0.02892481 0.033214103 -0.05285948 0.038323715
0001a0 93 60 7b bd b5 52 03 3e d5 6e bb b9 be 66 02 bd
       -0.061371397 0.12824519 -0.00035749996 -0.031836264
0001b0 e3 2e 19 bd b4 0d d5 3b e5 0b 0b 3e b7 35 d5 bc
       -0.03739823 0.0065018777 0.13578756 -0.02602659
0001c0 41 5a 3a bd d2 65 f9 3d 11 02 6f 3d d0 b9 00 3e
       -0.04549623 0.12177624 0.05835158 0.12570882
0001d0 17 f2 ad bb d0 82 2c bd b6 88 66 3d 0b 86 ce 3c
       -0.0053084004 -0.04211694 0.05628272 0.025210401
0001e0 8d 35 90 3d 25 79 11 3e 39 dd 00 3e 49 ed 34 3c
       0.07041464 0.14206369 0.1258439 0.011042901
0001f0 36 d7 10 3e ad ee ae bd 73 c9 0f 3d a6 76 8e 3c
       0.14144596 -0.085416175 0.035104226 0.01739056
000200 d1 af 50 bb 6f dc dd bd 33 fc a0 3d bd eb 4d 3d
       -0.0031843076 -0.1083306 0.07860603 0.050273646
000210 44 60 ce 3c 13 8a 61 3d cd e5 6c bd a3 37 8b bc
       0.025192387 0.05506332 -0.057836343 -0.016994303
000220 f4 bc 8c 3d 3e f9 e3 3c b5 48 ec 3c 51 b3 94 3d
       0.068719774 0.027828809 0.028843263 0.072607644
000230 f0 30 0e be 04 26 a7 bd 1d 42 78 bd 1c fa 42 3d
       -0.13885856 -0.08161548 -0.060609926 0.047601804
000240 b6 23 1a 3e b7 c2 d3 3d f1 d1 92 bd fd ec b2 3d
       0.15052685 0.10339873 -0.071689494 0.08736608
000250 79 98 6b bd 95 12 b4 bc 9b 9b e1 bc 7c a7 b2 bd
       -0.057518456 -0.021981517 -0.027540019 -0.08723351
000260 ab a7 22 3c d1 f3 cd bc 88 56 b9 3c 01 25 71 bd
       0.0099276705 -0.025140675 0.02262427 -0.05887318
000270 90 cf d7 bd 98 b9 f9 3c 76 0a 94 3d b3 c8 d6 bd
       -0.10537636 0.030484006 0.07228558 -0.10487499
000280 63 cb 38 3c ae 8f a8 3d 98 76 61 bd 0d cb 1f bd
       0.01127896 0.0823053 -0.05504474 -0.039012004
000290 9b 20 09 3e 49 6f 18 bd 6e c7 12 bd 20 0b 24 bd
       0.13391344 -0.037215505 -0.035834722 -0.040049672
0002a0 81 01 3b 3e 49 5c 1d bc d4 ca 1b be b5 77 3f 3b
       0.18262292 -0.009604522 -0.15214092 0.0029215638
0002b0 c6 9d c6 bc 33 47 9f 3d 02 11 a4 3c df 82 19 3e
       -0.024245154 0.07777252 0.020027641 0.1499133
0002c0 48 37 b2 3d b9 ef e2 bd cb b7 0f be cd 5c d8 bd
       0.0870195 -0.1108088 -0.14034955 -0.10564575
0002d0 24 96 7d 3d 44 33 9e bc 0b 4b 4c bc 25 f9 6d 3d
       0.061910763 -0.019311555 -0.0124690635 0.05809893
0002e0 97 f5 ee 3b 60 74 00 bc 8b 70 92 bc 9f b7 6f 3b
       0.00729246 -0.007840246 -0.01787593 0.0036577953
0002f0 01 88 11 be 64 2f 8e 3d 99 ff c8 3d 70 b9 d5 3b
       -0.14212038 0.06942633 0.098143764 0.00652235
000300 6e 7b b8 3c 67 fa df 3d bf 36 f3 bc ba 03 21 3d
       0.022519793 0.10936432 -0.02968919 0.039310195
000310 54 0a b8 3d bc aa f4 bb 67 b6 12 3e d6 9e 3a bc
       0.08986345 -0.007466642 0.14327393 -0.0113904085
000320 07 2d f7 bd 79 b6 17 bc 72 ec d3 3d 70 47 f2 bd
       -0.12069135 -0.009259813 0.10347833 -0.11830032
000330 80 70 c9 3d 10 99 9c bc 41 70 af bd af 34 94 bd
       0.09835911 -0.019115955 -0.085663326 -0.07236611
000340 a3 85 96 bd d5 7c 19 3d ed b8 04 be 7b 32 91 3d
       -0.07349708 0.037472565 -0.12961169 0.070897065
000350 cd 9b 77 3d 6e 57 9e 3d b4 46 2e bd 9d 29 60 3c
       0.060451318 0.0773152 -0.042547897 0.013681796
000360 b3 51 42 3d 0b e7 6c bb b0 88 03 3e 8f 01 f0 3c
       0.047441196 -0.0036148455 0.12845111 0.029297618
000370 6f c5 5c bd 29 40 17 3b c4 32 68 bd f4 44 9a bd
       -0.053899225 0.0023079014 -0.05668904 -0.07532683
000380 5f f1 82 bd 33 77 c9 bc 49 11 0c 3e fd 4f 06 3d
       -0.06393694 -0.024592971 0.13678469 0.032791127
000390 f7 88 4a bd 9f ad 06 3d 71 9b 15 3c 10 9a 33 bd
       -0.049447026 0.03288042 0.009131298 -0.043848097
0003a0 e3 5b b8 bd e5 09 1f 3d 51 97 91 3d da 66 ce bc
       -0.09001901 0.038827796 0.071089394 -0.025195528
0003b0 2a 1f be bd 97 f6 e2 3c e4 fe a3 bc 90 cb e6 3d
       -0.09283288 0.027705474 -0.020019002 0.11269295
0003c0 45 80 14 3b 43 56 e7 3d 27 95 4f 3c 44 33 e3 3b
       0.0022659462 0.1129575 0.012669838 0.0069336016
0003d0 b2 42 7a bc cd e5 06 bd ae 95 a0 3d 90 fb 16 3d
       -0.01527469 -0.032934 0.07841049 0.036861002
0003e0 37 7c fc bd c7 d9 d8 3d 02 c6 47 3d 85 c8 5c 3d
       -0.123283796 0.10588413 0.04877282 0.053902168
0003f0 95 27 97 3d df 2b f3 bd ac 25 fd 3c d4 41 dd bb
       0.073805965 -0.11873602 0.030901752 -0.006752232

layer2.bias_ih_l0 f4 [64]
000000 01 d7 9f bd c9 ef 98 bd 3b 01 69 3d 79 74 7c bc
       -0.078046806 -0.074676104 0.05688594 -0.015408629
000010 ae 7e 85 bc e2 54 32 bc ee 96 8f bd d1 80 ba bd
       -0.016295757 -0.010884495 -0.070112094 -0.09106601
000020 8e ae b6 3d af 0d 63 bd 13 aa 7b bd 82 b5 a9 3c
       0.089200124 -0.05543297 -0.061441492 0.020716432
000030 42 60 92 bd 2a fe 6b 3d 62 79 23 bd 7e 30 81 3d
       -0.07147266 0.057615437 -0.03991068 0.06308077
000040 a9 83 d5 bd 19 34 55 3c 5f b0 7f bd d4 0b d8 3b
       -0.10425503 0.013012909 -0.06242406 0.006593207
000050 1f b5 30 3d ea f7 3b be cf 27 01 be 81 67 d2 bd
       0.04314148 -0.1835629 -0.12612842 -0.10273648
000060 fe 85 84 bd 52 6f b7 bd 83 ef 5b 3c 2b 09 2b bd
       -0.064708695 -0.089567795 0.013423803 -0.04175679
000070 ee a4 99 3d 11 9d a9 bc f2 54 c9 3c 66 9e 0e bd
       0.07502161 -0.020704778 0.024576638 -0.03481903
000080 e9 ee 31 3d f3 8c ea 3c 83 30 3c be 11 09 bd 3d
       0.043440733 0.028631663 -0.18377881 0.09230245
000090 3a c5 cc 3d 2b c9 55 bd 33 9b 4e 3c 4b f6 38 be
       0.099985555 -0.0521938 0.012610245 -0.18062703
0000a0 02 f5 57 3d b8 76 55 bc 19 56 0d be a0 2e ea 3c
       0.052723892 -0.013028793 -0.13802375 0.028586686
0000b0 8a 38 fe 3c 49 bb a3 bd 8a 2c 4e be d5 fa 84 bd
       0.03103282 -0.07994706 -0.20134178 -0.06493155
0000c0 d5 a4 7a 3e 2e 76 5e be c7 53 4a be 2e 86 a2 bd
       0.24476941 -0.2172477 -0.19758521 -0.07935749
0000d0 bc 2a 23 3d 6c e6 bd bd 34 32 23 3e f2 a7 ef 3d
       0.039835677 -0.09272465 0.1593712 0.11701955
0000e0 0f d4 99 3d b9 1e b1 bd 3c cb 7f bd 8c 5e 48 bd
       0.0751115 -0.08648438 -0.06244968 -0.048918292
0000f0 66 d6 85 bd 38 d6 c9 3c b5 e5 1a bd c9 32 60 bd
       -0.06535034 0.02463828 -0.037816722 -0.054735932

layer2.bias_hh_l0 f4 [64]
000000 25 66 26 3c a3 9c 3e be ba 0c 26 3d e5 fc 8c bd
       0.010156189 -0.1861444 0.04053948 -0.06884173
000010 92 b9 02 be ec c6 20 3c 42 cd cd bd 97 a6 b8 3c
       -0.12766102 0.009813052 -0.100489154 0.022540374
000020 2e 69 7a 3d 16 09 18 be fe f0 bd bc 7b bd 1c 3c
       0.061135463 -0.14847216 -0.023186203 0.00956666
000030 e1 22 57 bd 06 e2 09 3d bf d6 e3 bc 52 1e 98 3d
       -0.052523497 0.03366282 -0.02781236 0.07427658
000040 4f 04 ed bd 9a 22 3a bd 12 c5 80 bd 10 94 69 3d
       -0.115730874 -0.045443155 -0.06287588 0.05702597
000050 4c 9b 85 3c 07 e8 ee bc 36 ab dc bd 04 e5 f5 bd
       0.016309403 -0.029163374 -0.107748434 -0.12006572
000060 44 8b c7 bc 9a a3 0a bd 45 34 06 be 62 08 36 be
       -0.0243584 -0.03384743 -0.13105877 -0.17776635
000070 de 51 d1 bc 8f c3 1f be c7 b1 0f 3c 19 e8 af bc
       -0.025551733 -0.15601943 0.008770413 -0.021472977
000080 7a 63 88 3d 62 2c 0a 3e 7d ab 10 be c2 04 11 bd
       0.06659599 0.13493493 -0.14127918 -0.035404928
000090 91 8d 2f 3d af 6e 4d bc a6 b2 51 3d 61 6a a3 bd
       0.042859618 -0.012538596 0.051195763 -0.079792745
0000a0 35 ea 9c 3d c1 8b cb bd 86 95 f4 bd 5f 86 3c bd
       0.07661859 -0.09938765 -0.11942582 -0.046026584
0000b0 d9 43 2d 3d 77 a2 b2 bd 61 ed 9a bd 51 1f 69 3d
       0.042301033 -0.08722394 -0.07564808 0.05691463
0000c0 91 f0 2e 3e 67 31 34 be d0 99 f2 bd f0 24 f7 bd
       0.17083956 -0.1759697 -0.11845744 -0.12067592
0000d0 88 bd 03 be a2 b0 2f 3b b5 bd 89 3d 4e 13 d7 3c
       -0.12865269 0.0026808162 0.06725637 0.026254322
0000e0 dd 94 be 3b 18 34 40 be 90 87 26 bd 8f bd 0c 3d
       0.0058160857 -0.18769872 -0.040656626 0.034360465
0000f0 0c 9f 89 3c d0 7d 71 bd be 42 3d bd 85 16 1a bd
       0.016799472 -0.058957875 -0.04620623 -0.037619133

layer3.weight f4 [5, 64]
000000 f4 c5 cc 3f 7c 5a de be 36 7d 8c 3f c5 d7 65 be
       1.599791 -0.4342841 1.0975711 -0.22445591
000010 12 2b 03 bf 73 1c b6 3f 6e f6 08 bf 82 c8 15 bf
       -0.51237595 1.4227432 -0.5350102 -0.58509076
000020 69 05 f2 3f bb 45 c4 be 3e 34 ac 3d 6c 6b ed 3f
       1.8907901 -0.3833445 0.08408402 1.8548408
000030 ad 35 97 3f ec 98 82 3f 33 35 d2 be 1e 75 01 40
       1.1813256 1.0202918 -0.41056213 2.0227733
000040 f5 be 34 bf 05 2a 62 be 0c 08 43 be 48 db 17 bf
       -0.7060388 -0.22086342 -0.19046038 -0.5931897
000050 73 d4 1b bf 6a 85 a2 bd 51 06 f9 be 23 1a a7 bd
       -0.60871047 -0.07935603 -0.48637632 -0.08159282
000060 0c 3d 9e bd 90 97 0e bf 3f 66 e3 be 55 53 34 bb
       -0.077264875 -0.55700016 -0.44413945 -0.002751549
000070 71 63 07 40 22 4d dc be 8f 4b 0a 40 34 40 fa be
       2.1154444 -0.43027598 2.1608617 -0.48877108
000080 74 fa bd 3f 1a 3f e7 3f 3c f7 60 3d b1 ed 0c bf
       1.4842057 1.8066132 0.05492328 -0.5505019
000090 65 e3 aa 3f 0d 5b af 3f 26 2a 01 bf 6e 8a 91 bc
       1.3350645 1.3699661 -0.5045494 -0.017766204
0000a0 6b 98 79 3f 4c 4e 1d bf cb 56 be be 3d ed 1a bf
       0.97498196 -0.61447597 -0.37175593 -0.60518247
0000b0 83 6b a4 bd d9 75 1d bf c4 d9 ae 3d ae fa e5 be
       -0.08028319 -0.61507946 0.08537629 -0.44917816
0000c0 75 77 64 be b4 9c a1 be 71 06 1d 3d 90 8c c7 be
       -0.22311194 -0.31564867 0.03833622 -0.38974428
0000d0 e8 ac fe be 6e 25 cc be 1b e0 f2 3f 07 bd d9 3f
       -0.49741292 -0.39872307 1.8974642 1.7010812
0000e0 8f 9e fb be 90 a5 d4 3c 7d 43 c3 bc cf 59 92 3f
       -0.49144408 0.025957853 -0.023835892 1.1433657
0000f0 00 16 14 3f 8d 8f 19 bf d7 f7 c3 be 51 a3 d5 3f
       0.5784607 -0.59984666 -0.38275024 1.6690465
000100 d0 f6 ea 3f ad 4e d0 be e8 98 86 3f ed 18 ae be
       1.8356571 -0.40685025 1.0515413 -0.34003392
000110 65 ae eb 3d 55 71 af 3f 2c b2 d0 be 32 c3 2a bf
       0.115078725 1.3706461 -0.40760934 -0.66704094
000120 d3 07 09 40 84 3c c1 be c5 a2 40 3d 08 c5 f6 3f
       2.1411026 -0.37741482 0.04703023 1.9278879
000130 d6 c8 5d 3f cf e3 1a 3f f2 d7 0b bf f3 dd fa 3f
       0.86634576 0.6050386 -0.5462638 1.9598984
000140 42 c8 ec be 5a ce de be 8f 34 db be 52 b1 22 bf
       -0.46246535 -0.4351681 -0.42813537 -0.6355182
000150 66 28 22 bf 0f 9b f1 3c 8c 64 39 bf 80 e1 58 bd
       -0.63342893 0.029492883 -0.7241905 -0.05294943
000160 8e cd 24 bd 01 dc e0 be 5c 98 c8 be be 58 de bc
       -0.040235095 -0.4391785 -0.3917874 -0.027141925
000170 33 fb 0b 40 69 47 01 bf 0f 62 0f 40 1b 5a cd be
       2.187207 -0.5049959 2.24036 -0.40107808
000180 a3 60 d4 3f 6b 5d cc 3f 01 9c 45 3d a5 36 4a bf
       1.6591991 1.5966009 0.04824448 -0.7898963
000190 54 93 96 3f 85 f9 6b 3f b4 11 0f bf 81 69 f1 3b
       1.1763711 0.9217761 -0.5588639 0.0073673134
0001a0 49 f1 90 3f 2f 50 17 bf 27 71 c0 be 1e 4c 4e bf
       1.1323634 -0.59106725 -0.37586328 -0.80584896
0001b0 57 4d 55 3f 72 5f 23 bf cb 90 b9 bc cd e8 b5 be
       0.83321136 -0.63817513 -0.02265205 -0.35529175
0001c0 9a 19 89 be c5 2f 09 bf 52 c0 07 3d 81 71 4d be
       -0.26777345 -0.53588516 0.033142395 -0.2006283
0001d0 2f a2 08 bf e3 79 fa bd 1a d5 cc 3f 66 b7 ff 3f
       -0.5337247 -0.12230279 1.6002533 1.9977844
0001e0 6c b3 a4 be a0 8e 84 3d 1c bc 63 3b b2 d3 8f 3f
       -0.32168138 0.06472516 0.0034749573 1.1236479
0001f0 36 98 0c 3f 60 61 19 bf 3d 9c 0c bf af cf c2 3f
       0.54919755 -0.5991421 -0.549259 1.521963
000200 f1 5a d9 3f f4 9e 8a be 76 cf 82 3f d4 5d 1e bf
       1.6980878 -0.27074397 1.0219562 -0.6186192
000210 af eb 48 bf fb 36 d1 3f 3f 5c 48 bf b7 f4 bb bd
       -0.78484625 1.6344904 -0.78265756 -0.09177535
000220 fb 9f fd 3f 22 3a 14 bf 0f b6 97 bb f3 5b 02 40
       1.9814447 -0.57901204 -0.0046298574 2.0368621
000230 a2 15 5c 3f 88 35 41 3f 33 3e 65 bf c9 da 03 40
       0.8597051 0.7547231 -0.89548033 2.0602286
000240 83 ca 5c bf 6c 9b c9 be ed 27 3a 3f 88 ea 18 bf
       -0.8624651 -0.3937639 0.7271717 -0.59732866
000250 a3 ad 1d bf 71 b4 ac bd a5 22 d0 be a4 38 62 bd
       -0.61593074 -0.08432854 -0.40651432 -0.055229798
000260 64 3c d3 bc 85 c6 49 bf c5 aa e4 be 12 8e 44 bd
       -0.025785632 -0.7881854 -0.44661537 -0.04798705
000270 af b4 14 40 a2 5f cf be 2a 29 09 40 aa fa 48 bf
       2.323528 -0.4050265 2.1431375 -0.78507483
000280 c7 35 dd 3f dd 4d e7 3f c1 f3 9b 3c 32 ea 06 bf
       1.7282037 1.8070637 0.01903713 -0.52701104
000290 31 91 b7 3f d5 8e 4e 3f 16 52 ad be 0c 6c d5 bc
       1.4341184 0.80686694 -0.3385169 -0.026052497
0002a0 ac a3 80 3f b0 e0 19 bf 88 b0 56 be 13 53 1b bf
       1.0049949 -0.6010847 -0.20965779 -0.60673636
0002b0 22 fe fe be 39 9f 0a bf 8c 1d 12 3c d8 d8 c0 3d
       -0.49803263 -0.54149204 0.008918177 0.0941636
0002c0 2a 9b 3c be e8 e4 b8 be b4 ff cf 3c 12 02 49 be
       -0.18418565 -0.36112142 0.025390483 -0.19629696
0002d0 e2 9b aa be 2c ea 9e be 14 8f c6 3f c4 ff eb 3f
       -0.33322054 -0.31038034 1.5512414 1.8437428
0002e0 a5 62 c7 be 31 91 84 bd 01 83 e6 bd a7 04 96 3f
       -0.38942447 -0.064730056 -0.11255456 1.172017
0002f0 6d 8d 20 3f 56 b0 19 bf 1a 60 d4 be ac 0c dc 3f
       0.627158 -0.6003469 -0.4147957 1.7191367
000300 bc fe da 3f e0 78 59 be 3d e5 a7 3f 08 31 c6 be
       1.7108989 -0.21237516 1.3116833 -0.38709283
000310 2b 7a bc be bf 8b d0 3f 45 b1 25 bf cb 9b ee be
       -0.36811957 1.6292647 -0.64723617 -0.46603236
000320 31 99 08 40 9e c9 e6 be 85 27 8b 3b 30 10 f4 3f
       2.13435 -0.45075697 0.0042466545 1.906744
000330 be e4 3d 3f 6e 3d 18 3f 1c 5b a3 be da b9 ff 3f
       0.7417716 0.59468734 -0.31905448 1.9978592
000340 be eb 0d bf 11 aa 30 be 79 15 f9 be 09 e4 1a bf
       -0.5543784 -0.17252375 -0.48649195 -0.60504204
000350 da 00 55 bf 05 b9 41 3d 9d 4e dc be 8b 04 1c bd
       -0.83204424 0.04729559 -0.43028727 -0.03809027
000360 2e 69 ba bd 63 6f a9 be d1 87 b8 be 13 e2 53 3c
       -0.09102093 -0.33092794 -0.3604112 0.012932318
000370 95 93 08 40 0b e0 e4 be 51 5e 05 40 78 59 b0 be
       2.1340077 -0.4470218 2.0838816 -0.3444326
000380 e7 1f cc 3f d9 6b e3 3f af e9 a5 3d 1c 16 96 be
       1.5947236 1.7767287 0.08101212 -0.29313743
000390 8e ab c0 3f 23 5d 32 3f f6 9c 24 bf 02 a4 dc 3d
       1.5052354 0.69673365 -0.64302003 0.107734695
0003a0 f0 45 ab 3f 8c b0 1f bf 1a 57 d0 be 4e 9d 45 bf
       1.3380718 -0.62378764 -0.40691453 -0.7719315
0003b0 b3 1b e3 bc 13 be 41 bf 33 41 59 bd 57 16 c2 be
       -0.027723169 -0.75680655 -0.053040694 -0.3790767
0003c0 1a 1a 14 bf b2 49 80 be 98 53 66 bd 3c b1 ba be
       -0.5785233 -0.25056225 -0.056232065 -0.36463344
0003d0 78 6c 0f bf bf 3f 8b be 07 9f bb 3f 44 e8 e9 3f
       -0.56024885 -0.27197072 1.4657906 1.8274007
0003e0 32 d2 ae be 12 f6 9f 3d 80 f1 6f bc b0 ce d3 3f
       -0.3414474 0.07810606 -0.01464498 1.6547451
0003f0 58 f4 eb 3e 70 1c 0f bf 45 53 02 bf 66 52 bd 3f
       0.46084857 -0.5590277 -0.5090831 1.4790771

layer3.bias f4 [5]
000000 b4 ae 8c 3f 8d b1 a5 3f dd 0b c2 3f ef 4b da 3f
       1.0990815 1.2944809 1.515987 1.7054423
000010 22 24 7c 3f
       0.98492634
