ch08/car_racing_dqn_150.pth (torch, 40850 bytes, 8 tensors)

layer1.weight f4 [64, 11]
0	0xbe692258	-0.22767007
1	0x3e9297e9	0.28631523
2	0x3e407105	0.18793114
3	0x3e972a4f	0.29524466
4	0x3ea3997d	0.3195304
5	0x3e9459b2	0.28974682
6	0x3d1431e7	0.036180403
7	0x3ea5751a	0.32315904
8	0x3e8f4196	0.27979726
9	0x3e4cffb7	0.20019422
10	0x3e6047f1	0.21902443
11	0xbee58c46	-0.44833583
12	0xbd8d167a	-0.06889053
13	0x3ead8ec0	0.33897972
14	0x3e6ad5aa	0.22933069
15	0x3eb8d1db	0.36097607
16	0x3e818e07	0.2530367
17	0xbe2384b5	-0.15968592
18	0x3da4d95c	0.080492705
19	0x3e384c28	0.17997801
20	0x3edc3938	0.43012404
21	0x3eeb59df	0.45967004
22	0x3ec7b3aa	0.3900426
23	0xbda8b4fc	-0.08237645
24	0xbe9627b6	-0.29327172
25	0xbd14c01b	-0.03631602
26	0xbccc20c2	-0.024917964
27	0xbebb9750	-0.3663888
28	0xbe6260fd	-0.2210731
29	0x3e9c66ca	0.30547172
30	0xbe795208	-0.24347699
31	0xbe7f6807	-0.24942027
32	0x3ea98871	0.3311191
33	0xbe003d98	-0.12523496
34	0x3d455d02	0.048184402
35	0xbdc1107c	-0.09426972
36	0x3e06af2a	0.13152757
37	0xbda63343	-0.08115246
38	0x3e0690f6	0.13141236
39	0xbe41d489	-0.18928732
40	0x3ce88a2b	0.028386196
41	0xbd43533d	-0.047686804
42	0x3e84d345	0.25942436
43	0xbe65dc68	-0.2244736
44	0x3ec39a08	0.38203454
45	0x3ca8e81e	0.020618495
46	0x3d845375	0.06461231
47	0x3f1a3508	0.6023717
48	0x3eeea036	0.46606606
49	0x3d8a216f	0.06744658
50	0x3e6fc062	0.23413232
51	0x3e8544cd	0.26029053
52	0x3d812bc6	0.06307177
53	0x3e0b173d	0.13583083
54	0x3e7bf034	0.24603349
55	0x3d8e73de	0.06955694
56	0xbe5e794a	-0.21725956
57	0x3e91fd2c	0.28513467
58	0xbed81b8e	-0.42208523
59	0xbeb1189d	-0.3458909
60	0x3ee1fe11	0.4413915
61	0x3e8be02d	0.2731947
62	0x3ea0be75	0.31395307
63	0x3dedd32f	0.11612546
64	0xbd9471cc	-0.072482675
65	0xbe8f8152	-0.2802835
66	0xbee16bbb	-0.44027504
67	0x3e612de4	0.21990162
68	0x3ee5b23c	0.44862545
69	0x3e16be46	0.14721021
70	0x3e120009	0.14257826
71	0x3e376f85	0.17913635
72	0x3e8a7698	0.27043605
73	0x3e60cb19	0.21952476
74	0xbd38338e	-0.04497104
75	0xbb8f1d2f	-0.0043674926
76	0x3dff17a1	0.12455679
77	0xbe5e6682	-0.21718791
78	0x3e50c055	0.20385869
79	0x3e428fd4	0.19000179
80	0x3e80b2b5	0.25136343
81	0x3e42865e	0.1899657
82	0xbd7b7647	-0.061392095
83	0x3e17816a	0.14795461
84	0x3ed7383f	0.420351
85	0x3d9a38fd	0.07530401
86	0x3e090bc1	0.1338339
87	0xbe922a2d	-0.28547803
88	0x3e1e1512	0.15437725
89	0xbf2bd371	-0.6711951
90	0xbe547c43	-0.20750527
91	0xbf8518c7	-1.0398186
92	0xbf88790b	-1.0661939
93	0xbf73071a	-0.9493271
94	0xbed26ebf	-0.41100118
95	0xbea74168	-0.32667089
96	0xbe2b7e0a	-0.16747299
97	0x3e7cf1a1	0.24701549
98	0x3e64345a	0.22285596
99	0xbe4423e4	-0.19154316
100	0x3ea54897	0.32281944
101	0x3e0f498a	0.13992897
102	0xbecd11b5	-0.40052572
103	0x3e084ec8	0.13311303
104	0x3f0dccd4	0.5539067
105	0x3da37bf6	0.07982628
106	0x3e8f1faa	0.27953845
107	0x3dc7db52	0.09758629
108	0xbcc8e208	-0.024521843
109	0x3dbf843c	0.093513936
110	0x3db137f8	0.08653253
111	0xbeddabfc	-0.43295276
112	0xbec3c101	-0.38233188
113	0xbf1a4e2d	-0.60275537
114	0xbef0ba38	-0.47017074
115	0x3ee50a1c	0.44734275
116	0x3ef414a1	0.4767199
117	0x3e959c99	0.29221037
118	0x3e159f94	0.14611655
119	0x3f17ec10	0.5934458
120	0x3ed1f8f9	0.41010264
121	0x3ed0b921	0.40766242
122	0x3d8a1460	0.067421675
123	0xbeb96eef	-0.36217448
124	0xbe033890	-0.12814546
125	0x3c23ac0d	0.009989751
126	0xbf028ebb	-0.5099904
127	0xbe84ec9d	-0.25961772
128	0x3b11a501	0.0022223594
129	0xbe9975a3	-0.29972562
130	0x3d0781b5	0.033082683
131	0x3e7aaacc	0.24479216
132	0xbe576db2	-0.21037939
133	0x3d5f5969	0.054528628
134	0x3ead207e	0.33813852
135	0xbe140d44	-0.14458185
136	0x3e8b32bd	0.27187148
137	0x3ea3a9dc	0.3196553
138	0x3cb3e876	0.021961432
139	0x3bab5b17	0.0052293646
140	0xbe14ac1d	-0.14518781
141	0x3e9a611a	0.30152208
142	0x3ea91d47	0.3303015
143	0xbdbd15e6	-0.092326924
144	0x3e98da99	0.29854277
145	0x3d170655	0.036871273
146	0x3d1b55d4	0.03792365
147	0xbdd9f757	-0.106428795
148	0x3f04115c	0.5158899
149	0x3e936daa	0.28794605
150	0x3e0767cf	0.13223194
151	0x3e9045d9	0.2817829
152	0xbd82cf1f	-0.063871615
153	0xbd034f0a	-0.0320578
154	0x3e17c5a1	0.14821483
155	0xbe6fb38c	-0.23408335
156	0x3e4de029	0.20105042
157	0xbd98319a	-0.07431336
158	0xbd5f055b	-0.054448467
159	0x3da85f46	0.08221297
160	0xbe7298cd	-0.23691101
161	0xbd28b292	-0.041185923
162	0xbe6e9748	-0.23299897
163	0x3d5073f1	0.05089182
164	0x3d2332f9	0.039843533
165	0xbbc215d0	-0.0059230104
166	0xbd08ebf8	-0.033428162
167	0x3ca602d9	0.02026503
168	0xbe83960f	-0.25700423
169	0xbe161949	-0.14658083
170	0xbd339e28	-0.043852
171	0x3ded46ea	0.115857914
172	0xbe703e5a	-0.23461285
173	0xbbdd61b7	-0.0067560333
174	0xbe5043ad	-0.20338316
175	0xbdb77ad4	-0.089589745
176	0x3ef453e6	0.4772026
177	0x3ebeab6d	0.37240162
178	0x3d04c98f	0.032418784
179	0x3e926b1e	0.2859735
180	0x3e1b81b8	0.15186203
181	0x3d4c3570	0.04985565
182	0x3e925fa5	0.28588596
183	0x3ecb5a19	0.39717177
184	0x3c916992	0.017750535
185	0x3e906b34	0.2820679
186	0x3e78948e	0.24275419
187	0xbeb0be5e	-0.3452024
188	0x3c12af67	0.008952952
189	0x3ee1e234	0.44117892
190	0xbdb339ee	-0.087512836
191	0x3d86daa3	0.065846704
192	0x3ed7e319	0.4216545
193	0xbe3843df	-0.17994641
194	0xbeef3f0e	-0.46727794
195	0xbf1472e4	-0.5798781
196	0xbe5e81ea	-0.21729246
197	0x3d01e937	0.03171655
198	0xbe96070f	-0.2930226
199	0xbf4e3a0a	-0.8055731
200	0xbe83af91	-0.25719884
201	0xbf806ead	-1.0033776
202	0xbf879406	-1.0592048
203	0xbfa480c3	-1.2851795
204	0xbf19fed4	-0.6015446
205	0xbf04d351	-0.51884943
206	0xbe849f74	-0.25902903
207	0x3e17a382	0.14808467
208	0xbe9bfd32	-0.3046661
209	0x3f1ca5db	0.61190575
210	0xbea302cb	-0.31838068
211	0xbef53939	-0.4789522
212	0xbdc27f48	-0.09496933
213	0xbe53d38a	-0.20686164
214	0xbf30908b	-0.68970555
215	0xbe66bb6b	-0.22532432
216	0xbe92986e	-0.2863192
217	0xbe778166	-0.24170455
218	0x3e4b369b	0.19845049
219	0x3e757a46	0.23972425
220	0xbf41f1ca	-0.75759566
221	0x3c90fc93	0.017698562
222	0xbe76779e	-0.24069068
223	0x3e602c80	0.21891975
224	0x3e927738	0.28606582
225	0x3f1218c1	0.5706902
226	0x3eafba41	0.34321788
227	0x3edc9ddc	0.43089187
228	0x3e385663	0.18001704
229	0x3ec62376	0.3869893
230	0xbd94b2e3	-0.072606824
231	0xbdffe685	-0.1249514
232	0xbe9bfc60	-0.30465984
233	0x3d380510	0.044926703
234	0xbef3f3d2	-0.47646958
235	0x3e32433f	0.17408465
236	0x3f2c31eb	0.6726367
237	0x3dbae36b	0.09125408
238	0x3c502e51	0.012706355
239	0x3e553c30	0.20823741
240	0x3e2d9add	0.16953607
241	0xbd502c10	-0.05082327
242	0x3e9cb801	0.30609134
243	0x3d92169e	0.0713322
244	0xbeca7f6e	-0.39550346
245	0x3cfef973	0.031124806
246	0xbce29241	-0.02765763
247	0xbeb64525	-0.35599628
248	0xbe797f92	-0.2436507
249	0x3d6f7b20	0.05846703
250	0xbe85ec14	-0.26156676
251	0x3e3f1b21	0.18662693
252	0x3dc38c4a	0.095482424
253	0x3cd595ed	0.026072467
254	0xbe6168ad	-0.22012587
255	0xbd2983d0	-0.04138547

layer1.bias f4 [64]
0	0xbbdfcb96	-0.0068296893
1	0xbef6389e	-0.4809007
2	0x3e9c6e08	0.30552697
3	0xbe15d530	-0.14632106
4	0xbe0cb217	-0.13739811
5	0x3df2dcdd	0.118585326
6	0x3e3a3a61	0.18186332
7	0xbe8c5edd	-0.27416125
8	0x3ee49461	0.44644454
9	0x3e88e5fe	0.2673797
10	0xbc46616f	-0.012108191
11	0x3ecab708	0.39592767
12	0x3db3d203	0.08780291
13	0x3e3f1e4b	0.186639
14	0xbe78a742	-0.24282554
15	0xbe4a82cf	-0.19776462
16	0xbe0f7c7b	-0.1401233
17	0x3e333445	0.17500408
18	0x3ed86379	0.42263392
19	0x3e9fdba4	0.3122226
20	0x3de1d00d	0.11026011
21	0x3e2ef6df	0.17086361
22	0x3e5b4767	0.21413957
23	0xbdda578d	-0.1066123
24	0x3e2410c9	0.16022028
25	0x3e2f5d1d	0.17125364
26	0x3ec45be5	0.3835136
27	0x3e80a81f	0.25128266
28	0x3e2f51fb	0.17121117
29	0xbe6c6af9	-0.23087682
30	0x3df65c8a	0.12029369
31	0x3cb782a3	0.02240116
32	0xbe3a1b5c	-0.181745
33	0x3e957f71	0.29198793
34	0x3ea45552	0.32096344
35	0xbc17e377	-0.00927054
36	0xbdea7257	-0.1144759
37	0xbcb65ec3	-0.022261983
38	0x3c34188c	0.010992181
39	0x3cd14661	0.025546255
40	0x3ea831b3	0.32850417
41	0x3d7de83e	0.06198906
42	0x3e68bc86	0.22728166
43	0x3eb821a3	0.35963163
44	0xbea70709	-0.32622555
45	0x3e5a9db9	0.21349229
46	0x3e8ea4f5	0.27860227
47	0xbdc82c65	-0.097740926
48	0x3d97e53f	0.07416772
49	0x3eb680c8	0.35645127
50	0xbd5f5277	-0.054522004
51	0x3e782cb6	0.24235806
52	0x3e329a25	0.17441614
53	0x3d7bec9d	0.06150495
54	0xbdb0024a	-0.085941866
55	0xbd379354	-0.044818237
56	0xbe6b81b1	-0.22998692
57	0xbdc35354	-0.09537378
58	0x3e27a5f8	0.16371906
59	0x3ebfc1b3	0.37452468
60	0x3d76fc2a	0.060299076
61	0xbe84a6d7	-0.2590854
62	0xbd88c1c0	-0.0667758
63	0xbd992adc	-0.07478878

layer2.weight_ih_l0 f4 [64, 64]
0	0x3db70966	0.089373395
1	0xbb9ed584	-0.0048472304
2	0xbe62d3a5	-0.22151048
3	0xbb009781	-0.0019621553
4	0xbe503323	-0.20332007
5	0x3e9adb1c	0.30245292
6	0x3e5702b4	0.20997125
7	0x3e6d9954	0.23203021
8	0xbe38fb20	-0.18064547
9	0x3e848caf	0.25888583
10	0x3dff3b7f	0.1246252
11	0xbe90e4df	-0.28299615
12	0x3e80a7e3	0.25128087
13	0x3e293b29	0.16526474
14	0x3dd1e66f	0.1024903
15	0x3dd8e94f	0.10591375
16	0xbd0cd793	-0.034385275
17	0x3ed2512f	0.41077563
18	0xbe8307e8	-0.2559197
19	0xbe071dbd	-0.13194938
20	0x3f006336	0.50151384
21	0x3e910ada	0.28328592
22	0xbeb8bcf9	-0.36081675
23	0xbda751a4	-0.081698686
24	0x3d024351	0.03180248
25	0x3f93fac9	1.1560909
26	0xbe46f324	-0.19428688
27	0xbe463c01	-0.19358827
28	0xbe0ebd99	-0.13939513
29	0xbd33e575	-0.04392
30	0xbea2318f	-0.31678435
31	0x3ee1351e	0.43985838
32	0xbd3bc4b3	-0.045841884
33	0x3dfaccdc	0.12246105
34	0xbe91e4c9	-0.28494862
35	0x3e50b159	0.20380153
36	0xbdedda2c	-0.116138786
37	0x3df904c7	0.12159114
38	0x3d824856	0.06361453
39	0x3ddd7f5d	0.10815308
40	0xbd1fd256	-0.03901895
41	0xbe789b61	-0.24278022
42	0x3d9d9549	0.076944895
43	0x3e640363	0.22266917
44	0xbe08d097	-0.1336082
45	0xbe64be3d	-0.22338195
46	0x3e0fa76d	0.14028712
47	0xbe880ff2	-0.26574665
48	0x3fa704bd	1.3048321
49	0xbe7b43d9	-0.245376
50	0x3e479737	0.19491278
51	0xbe009a8c	-0.12558955
52	0x3f0e48ac	0.5557964
53	0xbe261f07	-0.16222773
54	0x3e47c3ca	0.19508281
55	0xbbb1c598	-0.0054251663
56	0xbcb5e4fd	-0.022203917
57	0x3d34502a	0.044021763
58	0xbe370f6c	-0.17876977
59	0xbe73ec0e	-0.23820516
60	0xbd59b8bd	-0.053154696
61	0x3cb94d81	0.022619965
62	0x3ead4c66	0.3384735
63	0xbe0f30a2	-0.13983396
64	0x3d8f9258	0.07010335
65	0x3e05b4ec	0.13057297
66	0x3e390007	0.18066417
67	0xbc32e188	-0.010918029
68	0x3da49b52	0.080374375
69	0xbda16e3a	-0.07882352
70	0x3c17dcb1	0.0092689255
71	0x3e1f6c46	0.15568647
72	0x3e89bff9	0.26904276
73	0x3d67e55d	0.056615222
74	0xbf4284d1	-0.7598391
75	0x3e870bb7	0.26376125
76	0xbcb27f6b	-0.021789273
77	0x3dcfe950	0.10151923
78	0x3d58c113	0.052918505
79	0x3c996ac8	0.018727675
80	0x3e05271d	0.13003202
81	0xbe38fb98	-0.18064725
82	0x3ef09abf	0.46993062
83	0x3df108da	0.117692664
84	0x3ce2d01c	0.027687125
85	0xbe00005f	-0.12500142
86	0x3e8f58d1	0.2799745
87	0x3c81f288	0.015862718
88	0xbd32e263	-0.04367293
89	0xbe06f6db	-0.13180105
90	0x3eaf7c2c	0.34274423
91	0xbe31c369	-0.173597
92	0x3e0b5141	0.13605215
93	0xbdebfd7c	-0.11522958
94	0xbda645ef	-0.081188075
95	0xbd5705a8	-0.05249563
96	0xbd4d90ff	-0.050187107
97	0x3caae91c	0.020863108
98	0x3d516cb6	0.051129065
99	0x3d0f60de	0.03500449
100	0x3de6423d	0.11243103
101	0x3c595c4a	0.013266632
102	0xbe059c63	-0.13047938
103	0x3d5c1298	0.05372867
104	0xbe0a88b7	-0.13528715
105	0x3d0042bd	0.031313647
106	0xbbc423b1	-0.0059857
107	0xbdcd2130	-0.10016096
108	0x3e2db0b5	0.1696194
109	0x3ea87d4e	0.329081
110	0x3d8a92b4	0.06766263
111	0x3e986594	0.29764998
112	0xbde4d064	-0.1117256
113	0x3e276e50	0.16350675
114	0xbd9c7f57	-0.07641476
115	0x3ddef4d0	0.10886538
116	0xbddbc3f6	-0.10730736
117	0x3ea57f6b	0.32323775
118	0xbe6ff760	-0.2343421
119	0x3d12a1d7	0.035798874
120	0x3d87449e	0.066048846
121	0x3e691133	0.22760467
122	0x3d9cee86	0.07662682
123	0x3df9e5ea	0.12202056
124	0xbc7650b3	-0.015033889
125	0xbd4f6b9b	-0.05063973
126	0xbe622bb4	-0.22086984
127	0x3c49b72d	0.012311739
128	0x3dae62cb	0.08514937
129	0x3dea34cf	0.11435854
130	0xbc8110fb	-0.015755167
131	0xbdc94b4e	-0.09828816
132	0x3d44c094	0.04803522
133	0x3c0cda23	0.00859693
134	0x3c713990	0.014723197
135	0x3e680901	0.22659685
136	0x3ccf6d5d	0.025320703
137	0x3dcdf71f	0.100569
138	0x3e5c0cce	0.2148926
139	0xbdbcd088	-0.09219462
140	0x3d4f163f	0.050558325
141	0x3db28c0c	0.08718118
142	0x3d27a9d1	0.040933434
143	0xbdd38afb	-0.10329243
144	0x3e6633b8	0.22480667
145	0xbddd2e08	-0.107997954
146	0xbd9a754e	-0.07541905
147	0xbdf4dc76	-0.11956112
148	0x3e1b2f9e	0.15154883
149	0x3d5f498e	0.054513507
150	0xbd0ce606	-0.034399055
151	0xbb7375c5	-0.0037149054
152	0x3ddc3aaa	0.10753377
153	0x3d8f96ee	0.070112094
154	0xbd1eba39	-0.038751815
155	0x3d3f7aee	0.046748094
156	0xbe2bb031	-0.1676643
157	0x3d641981	0.055688385
158	0x3dfbf524	0.12302616
159	0x3d20b224	0.03923239
160	0xbd2b55a7	-0.04182973
161	0x3e1cded1	0.15319373
162	0xbdd042a4	-0.10168961
163	0x3d34079b	0.043952566
164	0x3e62702b	0.22113101
165	0x3dc8eed3	0.09811177
166	0x3e326278	0.17420375
167	0x3e7f4918	0.24930227
168	0xbd976848	-0.07392937
169	0x3d602bf8	0.054729432
170	0xbd26a3d8	-0.040683597
171	0x3dc35c43	0.09539082
172	0x3d910a45	0.07082037
173	0x3e51cbf8	0.20487964
174	0xbcd8d75d	-0.02646988
175	0x3d1c0598	0.038091272
176	0x3db434c1	0.087991245
177	0xbe2f1694	-0.17098457
178	0x3d535568	0.05159512
179	0x3dc0be79	0.0941133
180	0xbbf1d159	-0.0073796925
181	0x3e8716a6	0.26384467
182	0xbcc4b666	-0.024012756
183	0x3d8412e2	0.06448914
184	0x3c20e0c7	0.009819216
185	0x3dd1c428	0.10242492
186	0x3d826579	0.063670106
187	0xbe320149	-0.17383303
188	0x3dd440d1	0.10363925
189	0xbd87b2b5	-0.066258825
190	0x3e1e79df	0.15476178
191	0x3d964672	0.07337655
192	0x3d8cdae3	0.06877687
193	0x3e022ebd	0.12713142
194	0x3e7c740c	0.24653643
195	0x3d22dfec	0.03976433
196	0x3d1feaad	0.039042164
197	0xbe6260fc	-0.22107309
198	0x3d8356a0	0.06413007
199	0x3de8f42f	0.11374699
200	0x3f102746	0.56309927
201	0xbda1c0a6	-0.07898073
202	0xbf48dc88	-0.78461504
203	0x3ea5f907	0.32416555
204	0x3d15448b	0.03644232
205	0xbe19436d	-0.14967127
206	0xbd44be6e	-0.04803317
207	0xbda8dac1	-0.08244849
208	0x3e5c90c1	0.21539594
209	0xbe36138c	-0.17780894
210	0x3f6891ab	0.9084727
211	0x3f1e15a4	0.6175177
212	0xbe0d0198	-0.13770139
213	0xbdd3e75f	-0.10346865
214	0x3ebe146d	0.3712496
215	0x3d5f8719	0.0545722
216	0xbd5134f5	-0.051075894
217	0xbe9eea0c	-0.3103794
218	0x3eb8d2f0	0.36098433
219	0x3ef19338	0.47182631
220	0x3e0a3a18	0.13498724
221	0x3db8d30f	0.09024631
222	0x3e8dae4e	0.27672046
223	0xbe3d421c	-0.1848225
224	0x3ca062ae	0.019578304
225	0xbcb7b0db	-0.022423198
226	0x3e842379	0.25808313
227	0xbd260965	-0.040536303
228	0xbc76ce5e	-0.01506385
229	0xbd42aa05	-0.047525425
230	0xbc9d9a36	-0.019238573
231	0x3d38624f	0.04501563
232	0x3d0c9f3f	0.034331556
233	0x3ea95b30	0.33077383
234	0xbe4684db	-0.19386618
235	0xbea716a0	-0.3263445
236	0x3db7a88e	0.08967696
237	0x3e94dc84	0.2907449
238	0x3ae17722	0.0017201642
239	0x3e59c8ce	0.21268007
240	0xbe2185d7	-0.15773712
241	0x3f00884f	0.5020799
242	0xbe132b69	-0.14372028
243	0x3d1b4548	0.03790787
244	0xbf0a61a8	-0.5405526
245	0x3d99679e	0.074904665
246	0xbeff3b94	-0.49850142
247	0x3ce49df1	0.027907344
248	0x3d36f8d0	0.04467088
249	0x3eee19d6	0.46504086
250	0x3e42c954	0.19022113
251	0x3ebd07ea	0.369201
252	0x3bb28910	0.005448468
253	0xbd634c39	-0.055492613
254	0xbf3d3e53	-0.73923224
255	0x3eb3cb9d	0.35116282

layer2.weight_hh_l0 f4 [64, 64]
0	0xbda67c26	-0.08129148
1	0x3bdaccec	0.0066772606
2	0x3c9bf165	0.019036004
3	0xbddc3d43	-0.10753872
4	0x3d86ae56	0.06576221
5	0x3d125843	0.035728704
6	0x3d89399f	0.067004435
7	0xbe2a8109	-0.16650786
8	0x3d30a7d4	0.043128803
9	0xbc16d43c	-0.009205874
10	0x3d9933cd	0.07480583
11	0xbc9e7938	-0.019344911
12	0x3d973369	0.073828526
13	0xbd117f91	-0.035522047
14	0xbd970d84	-0.07375625
15	0xbd17b65d	-0.03703915
16	0x3daba6a2	0.08381392
17	0xbcba8c65	-0.022772023
18	0x3d91602d	0.07098422
19	0xbdd8b27a	-0.10580917
20	0x3df56098	0.119813144
21	0xbd751a2e	-0.05983942
22	0xbe0854cf	-0.13313602
23	0xbd9bf915	-0.07615868
24	0x3d8d27a8	0.068923295
25	0x3d809ef1	0.06280316
26	0xbd58a5e2	-0.052892573
27	0xbde1c602	-0.11024095
28	0x3cca17e3	0.024669593
29	0x3d68732c	0.05675046
30	0x3ada51c6	0.001665645
31	0x3d203d89	0.039121184
32	0x3ce90ec7	0.02844943
33	0x3dc7d2e6	0.097570226
34	0xbdd988dc	-0.10621807
35	0xbd1fd78c	-0.03902392
36	0xbdee8c22	-0.11647822
37	0x3d6905fd	0.056890476
38	0xbdfa236d	-0.12213788
39	0xbd63ba9d	-0.05559789
40	0x3d8f3518	0.06992549
41	0xbcff1de4	-0.031142183
42	0xbc5dbbba	-0.013533527
43	0x3d4b1791	0.04958302
44	0x3d999280	0.07498646
45	0x3ce98af2	0.028508637
46	0x3cb6c7dc	0.022312097
47	0x3d8dce9d	0.06924174
48	0xbbdb875c	-0.0066994857
49	0xbd58f61d	-0.052969087
50	0x3d5e19c9	0.05422381
51	0x3d4a9dd0	0.049466908
52	0x3d104c1e	0.03522884
53	0x3dce27bc	0.100661725
54	0xbdab027a	-0.08350082
55	0xbb550e5d	-0.0032509782
56	0x3dd319c1	0.103076465
57	0x3d00a602	0.031408317
58	0xbdde4717	-0.10853403
59	0xbd5255e1	-0.05135143
60	0xbcf845d6	-0.030306738
61	0x3cb0d64d	0.021586562
62	0xbbdb8bb4	-0.0067000035
63	0xbcaa5f0d	-0.020797277
64	0xbc84f776	-0.01623128
65	0xbcb691a9	-0.022286253
66	0x3e0e26d5	0.13882
67	0xbda61a87	-0.081105284
68	0x3d9ae1b8	0.07562584
69	0xbd917c62	-0.07103802
70	0xbbb19e4e	-0.0054204827
71	0x3d909de2	0.07061364
72	0x3da1d4ad	0.07901893
73	0xbd94110f	-0.07229816
74	0x3cd58547	0.026064528
75	0xbdd55bc6	-0.10417895
76	0x3d0f126d	0.03492968
77	0x3c62f8c3	0.013853255
78	0xbd81c6b7	-0.0633673
79	0x3c32aaf4	0.010905016
80	0x3d199769	0.03749791
81	0x3c8e99bf	0.017407296
82	0x3d25415d	0.04034554
83	0xbc0127f9	-0.007883065
84	0x3cdd10aa	0.026985485
85	0x3e277fd2	0.16357353
86	0xbc49747f	-0.012295841
87	0xbd1ff610	-0.039053023
88	0x3d0d9b07	0.034571674
89	0xbdf150c7	-0.11782985
90	0x3c350842	0.011049332
91	0x3e4041b6	0.18775067
92	0xbc238a65	-0.009981726
93	0x3ca3c9c3	0.019993668
94	0xbd0255ce	-0.03182011
95	0xbd8ae220	-0.06781411
96	0xbd3851dc	-0.044999942
97	0xbdb1c98a	-0.08681019
98	0x3e21e1b6	0.15808758
99	0x3b94e910	0.004544385
100	0x3dc18006	0.09448247
101	0x3bbea008	0.005817417
102	0xbccd0f6e	-0.025031772
103	0xbc9a4e3f	-0.018836139
104	0x3b45922a	0.0030146935
105	0x3db7b394	0.08969799
106	0xbd8da3f2	-0.06916036
107	0xbc8aac70	-0.016927928
108	0x3dd7df54	0.10540643
109	0x3d020517	0.031743135
110	0x3dc39e21	0.09551645
111	0xbd05c737	-0.03266069
112	0xbb61767f	-0.0034402905
113	0x3cc2a130	0.0237585
114	0x3bfeae33	0.007772231
115	0x3d5f9126	0.054581784
116	0xbcb61fd4	-0.022231974
117	0xbdb48453	-0.08814301
118	0x3d9da79e	0.07697986
119	0x3d770025	0.060302872
120	0x3db5c4b6	0.0887541
121	0x3dd7e8b8	0.105424345
122	0x3d63e9d1	0.055642907
123	0x3d731094	0.059341982
124	0x3dfe8eb4	0.12429562
125	0xbd846e45	-0.06466345
126	0xbb991f6e	-0.004672936
127	0x3d5be53b	0.053685408
128	0x3c2a8c12	0.010409372
129	0xbe14b7e9	-0.14523281
130	0x3dac485b	0.08412238
131	0x3d429a59	0.04751048
132	0x3d6a2a4f	0.057169255
133	0x3d824f98	0.063628376
134	0xbd2e833f	-0.042605635
135	0x3d0a29f1	0.033731405
136	0x3d9858da	0.07438822
137	0xbd867bee	-0.065666065
138	0x3d389970	0.045068204
139	0x3c5ac9b6	0.013353756
140	0xbdc7f143	-0.09762814
141	0xbc8b3078	-0.016990885
142	0xbdaa20d4	-0.08307043
143	0x3d9ae3a9	0.07562954
144	0x3e0d98d3	0.13827829
145	0x3def4752	0.11683525
146	0xbc49762d	-0.012296242
147	0x3d5a6bd0	0.053325474
148	0xbd8beb29	-0.068319626
149	0xbc88ab53	-0.016683256
150	0x3c75dc4a	0.015006134
151	0xbdc8a85b	-0.09797736
152	0x3c261e83	0.0101391105
153	0xbc110c88	-0.008853085
154	0xbcbcf0c4	-0.023064025
155	0xbd21d2f6	-0.03950783
156	0xbdb0b369	-0.0862797
157	0xbc885e8a	-0.016646642
158	0x3e0af437	0.13569723
159	0xbda34f80	-0.07974148
160	0xbbbcd146	-0.005762252
161	0x3e014631	0.12624432
162	0xbd76640d	-0.06015401
163	0xbd228a34	-0.039682582
164	0x3e3b32c6	0.18281087
165	0xbcaddf50	-0.021224648
166	0xbcee53ac	-0.029092632
167	0xbd24a840	-0.04019952
168	0x3e07c0e2	0.13257173
169	0xbd4f24fb	-0.050572377
170	0xbe4230fd	-0.18964
171	0x3c20ceea	0.009814957
172	0x3c864273	0.016389107
173	0x3e198e53	0.14995699
174	0x3d081d63	0.03323115
175	0x3df1a96d	0.117998935
176	0x3d4386ae	0.047735862
177	0xbe0f10ec	-0.13971299
178	0xbe2154f2	-0.1575506
179	0xbe02a341	-0.12757589
180	0x3da4b9a1	0.080432184
181	0xbd320d49	-0.0434697
182	0xbc181b6a	-0.00928388
183	0x3d952cb5	0.07283918
184	0x3d1445d5	0.03619941
185	0x3a502b86	0.0007941056
186	0xbcfe733a	-0.031060804
187	0x3c9c1f14	0.019057788
188	0xbe0cb397	-0.13740383
189	0x3e056a94	0.13028938
190	0x3dc5edc4	0.09664491
191	0x3d04c372	0.032412954
192	0x3d72b06c	0.05925028
193	0x3c14b112	0.00907542
194	0xbbae9e29	-0.0053289128
195	0x3d7f9746	0.062400125
196	0x3cbb5106	0.022865783
197	0x3d46c2b5	0.04852553
198	0x3dbbc28c	0.09167966
199	0x3c33cb97	0.010973833
200	0xbd847481	-0.06467534
201	0xbd62bafc	-0.055354103
202	0x3d9d8916	0.07692163
203	0xbda82135	-0.08209459
204	0x3de87c44	0.11351827
205	0xbcd98d04	-0.0265565
206	0xbd91ec85	-0.07125191
207	0xbc7f2110	-0.015571848
208	0xbd56058b	-0.05225138
209	0xbd589a1a	-0.052881338
210	0xbda6c093	-0.08142199
211	0xbc955600	-0.018229485
212	0xbd6cfa11	-0.05785567
213	0x3d46422f	0.04840296
214	0xbcb8b5e0	-0.022547662
215	0xbd067f49	-0.032836232
216	0x3c503d68	0.012709953
217	0x3ce4784e	0.027889397
218	0x3db4c542	0.088266864
219	0xbd1cfb63	-0.03832568
220	0x3cd61657	0.0261337
221	0xbdc9c21f	-0.09851479
222	0xbdb4ee0e	-0.08834468
223	0xbd5ad510	-0.05342585
224	0xbc8c2780	-0.017108679
225	0xbca5a887	-0.020221962
226	0x3dfd2e55	0.12362353
227	0x3d8fe1ba	0.07025476
228	0xbcc447e9	-0.02396007
229	0x3d62c225	0.055360932
230	0x3ce86fe5	0.028373668
231	0xbdc3cbbd	-0.09560344
232	0xbd0f762d	-0.03502481
233	0x3d4e5c8b	0.050381225
234	0x3d6fac72	0.058514066
235	0x3b692fbb	0.0035581428
236	0xbb41bc9a	-0.0029561878
237	0x3d99ca40	0.07509279
238	0xbd89e9b6	-0.0673403
239	0x3d22e149	0.03976563
240	0x3c9e86e6	0.019351434
241	0x3d71a1a4	0.058992043
242	0xbcd222b9	-0.025651323
243	0xbd422d70	-0.047406614
244	0xbdaeabf0	-0.08528888
245	0xbd86df02	-0.06585504
246	0x3d8b3fc4	0.06799272
247	0x3d8755b8	0.066081464
248	0xbdf2502c	-0.11831698
249	0x3daa561d	0.08317206
250	0x3d0554c8	0.032551557
251	0x3cb2f013	0.021842992
252	0x3dae53ef	0.08512103
253	0xbdc9aa77	-0.09846967
254	0xbccdfd67	-0.025145246
255	0xbd019229	-0.03163353

layer2.bias_ih_l0 f4 [64]
0	0xbd776355	-0.060397465
1	0xbd0ba652	-0.034094162
2	0x3dfbc0de	0.12292646
3	0x3cd9881c	0.02655416
4	0x3d33abca	0.043865003
5	0xbd047678	-0.032339543
6	0xbcc75c19	-0.024335908
7	0xbdd7e917	-0.10542505
8	0xbc3e09c4	-0.011599008
9	0xbcb409eb	-0.021977386
10	0xbd611486	-0.054951213
11	0x3b7bb690	0.0038408376
12	0xbe2a8294	-0.16651374
13	0x3b2e0f31	0.0026559348
14	0x3b8e07e4	0.0043344367
15	0x3d82afc7	0.06381183
16	0xbd40cb54	-0.04706891
17	0x3d8217b8	0.0635218
18	0xbd8a2953	-0.06746163
19	0x3cbda83e	0.023151513
20	0xbc414d45	-0.011798208
21	0xbe298f36	-0.16558537
22	0xbdb3f347	-0.08786636
23	0xbd99338b	-0.07480534
24	0xbd5b0be8	-0.05347815
25	0xbd0bfbb5	-0.034175593
26	0x3d9b079b	0.0756981
27	0xbc0bb66f	-0.008527382
28	0x3d9ef146	0.07760863
29	0x3c9008bf	0.017582295
30	0xbc1ad71b	-0.009450699
31	0xbbc6f91a	-0.0060721757
32	0x3c9acfa5	0.01889784
33	0xbbfdc7f6	-0.0077447845
34	0xbe3ba8ef	-0.18326162
35	0x3dbbdcee	0.09172998
36	0x3dc452d8	0.09586114
37	0xbdf95292	-0.12173952
38	0xb9a02fb0	-0.00030553108
39	0xbe2fcc94	-0.17167884
40	0x3dedca73	0.1161088
41	0x3d2d97b4	0.042381003
42	0xbdccc927	-0.09999304
43	0x3d9080b8	0.07055801
44	0x3dc076a2	0.093976274
45	0xbd02300b	-0.0317841
46	0xbe40532f	-0.18781732
47	0xbd892ac6	-0.066976115
48	0x3e7d2af7	0.24723421
49	0xbe52cbf6	-0.20585617
50	0xbe531b38	-0.20615852
51	0xbd655e14	-0.055997923
52	0x3dc872b3	0.09787502
53	0xbd5d630a	-0.05404953
54	0x3dfcbc7b	0.12340637
55	0x3db57c94	0.08861652
56	0x3d84ce2b	0.06484636
57	0xbd2ae8c3	-0.041725885
58	0xbd6401fd	-0.05566596
59	0xbcc4d188	-0.024025694
60	0xbe0f4eaf	-0.13994859
61	0x3d8f46f6	0.069959566
62	0x3d05d3f4	0.032672837
63	0xbdad4465	-0.08460311

layer2.bias_hh_l0 f4 [64]
0	0x3d38743d	0.04503273
1	0xbe2b9e32	-0.16759565
2	0x3dd32a3a	0.103107885
3	0xbd18bd32	-0.037289806
4	0xbdb6a99c	-0.08919069
5	0xbbf97a09	-0.0076134247
6	0xbd783771	-0.060599748
7	0x3cf88a1d	0.030339295
8	0xbd38cc31	-0.045116607
9	0xbe085ccf	-0.13316654
10	0xbc160f57	-0.009158931
11	0xbc1b3c21	-0.009474785
12	0xbe134050	-0.14380002
13	0xbcd4871a	-0.025943328
14	0x3c99f826	0.018795084
15	0x3d9e14f8	0.07718843
16	0xbd78fd08	-0.060788184
17	0xbbcfe351	-0.006344237
18	0xbd8b458d	-0.06800375
19	0x3daac1ed	0.0833777
20	0xbd33d40f	-0.043903407
21	0x3c9b91dd	0.018990451
22	0xbd86ebd6	-0.06587951
23	0xbdc37c9b	-0.09545251
24	0xbba999b2	-0.0051757926
25	0x3d04b6bf	0.032400843
26	0xbdc6dae0	-0.09709716
27	0xbe2f01ae	-0.17090484
28	0xbd2e3a41	-0.042536024
29	0xbe13c5a6	-0.14430866
30	0xbce82f90	-0.028342992
31	0x3c21dad2	0.009878831
32	0x3d3e8368	0.046512038
33	0x3df489b6	0.11940329
34	0xbe07ed30	-0.13274074
35	0xbd791f19	-0.060820673
36	0x3ce134e3	0.027491039
37	0xbd97abc5	-0.07405809
38	0x3d3b9fba	0.045806624
39	0xbd51dc98	-0.051235765
40	0x3e141a1c	0.14463085
41	0xbd7923ac	-0.060825035
42	0xbd9f59cf	-0.077808015
43	0xbc98a5d7	-0.018633766
44	0x3ddbfe20	0.1074183
45	0xbd25bd56	-0.040463768
46	0xbd198c59	-0.03748736
47	0x3da116ad	0.07865653
48	0x3e21d41b	0.15803568
49	0xbe204db1	-0.15654637
50	0xbde45a67	-0.111500554
51	0xbdd79648	-0.10526711
52	0xbdd43c47	-0.103630595
53	0x3d757509	0.059926067
54	0x3c5d1100	0.013492823
55	0xbca35f4a	-0.019942898
56	0xbc935f69	-0.017989831
57	0xbe26714d	-0.16254158
58	0xbcf212f0	-0.029550046
59	0x3d9ac91c	0.0755789
60	0xbd2b6dce	-0.041852765
61	0xbcf52233	-0.029923534
62	0x3cb95e32	0.022627924
63	0xbd834c66	-0.06411056

layer3.weight f4 [5, 64]
0	0x3faade7b	1.3349146
1	0xbe8160fe	-0.25269312
2	0x3f5b21df	0.8559856
3	0xbe0ae510	-0.13563943
4	0xbe8fc1d6	-0.28077573
5	0x3f96256d	1.1730171
6	0xbe9977c1	-0.29974177
7	0xbee737ec	-0.45159853
8	0x3fa6af1e	1.3022192
9	0xbb2a291d	-0.0025964447
10	0x3dce9638	0.10087246
11	0x3fbbc039	1.4668037
12	0xbdb6283d	-0.088943936
13	0xbdcea984	-0.10090926
14	0xbe369790	-0.17831254
15	0x3fcd5fb8	1.6044836
16	0xbefc8b1b	-0.4932488
17	0xbdcf1d65	-0.101130284
18	0xbd8dee57	-0.06930225
19	0xbed6255b	-0.41825375
20	0xbebcc94d	-0.3687233
21	0xbdc22729	-0.094801255
22	0xbe8950b2	-0.26819378
23	0xbdb73d5b	-0.089472495
24	0xbdc1bdc1	-0.09460021
25	0xbeb6a614	-0.35673583
26	0xbe983fef	-0.29736277
27	0x3d642e8a	0.055708446
28	0x3fdadeed	1.7099282
29	0xbe1e3d14	-0.15452987
30	0x3fbc1cbd	1.469627
31	0xbefcaee0	-0.4935217
32	0x3faec48c	1.3653731
33	0x3fe2e3f7	1.7725819
34	0x3d3bdafe	0.045863144
35	0xbed92715	-0.4241263
36	0x3f88ddd2	1.0692694
37	0x3dab296b	0.08357509
38	0xbeabffac	-0.335935
39	0xbcadcd39	-0.021216022
40	0x3f1af0fb	0.60523957
41	0xbec323a9	-0.38113144
42	0xbe7c3bd5	-0.24632199
43	0xbeb1f9cd	-0.34760895
44	0xbdbe0697	-0.09278601
45	0xbeb469c7	-0.35236952
46	0x3dd0f6df	0.10203337
47	0xbea9eec5	-0.3318998
48	0xbe9e2dd5	-0.30894342
49	0xbe4387ef	-0.19094823
50	0x3d2f0160	0.04272592
51	0xbe6cbcf3	-0.23118953
52	0xbea90d17	-0.330178
53	0xbe7646f6	-0.24050507
54	0x3fd3719d	1.6519047
55	0x3fad8951	1.3557531
56	0xbe389a71	-0.18027665
57	0x3cfe039c	0.03100758
58	0xbd5d534f	-0.054034527
59	0x3f3800c9	0.718762
60	0xbd701275	-0.058611352
61	0xbed5d724	-0.41765702
62	0xbe60a4b7	-0.21937834
63	0x3facfaee	1.3514078
64	0x3faea341	1.3643571
65	0xbe7a72b8	-0.24457824
66	0x3f49ed63	0.7887785
67	0xbeb16062	-0.34643847
68	0xbc415aba	-0.011801416
69	0x3f940875	1.1565081
70	0xbe97f05f	-0.29675576
71	0xbf05278a	-0.52013457
72	0x3fbb2576	1.4620807
73	0x3de1ed72	0.11031617
74	0x3d63fce0	0.055661082
75	0x3fc01f34	1.5009522
76	0x3d8c7c01	0.06859589
77	0xbd847d8b	-0.06469258
78	0xbe949cde	-0.2902593
79	0x3fc3101c	1.5239291
80	0xbe45360e	-0.19258901
81	0xbe9edb7c	-0.31026828
82	0xbe6035d0	-0.21895528
83	0xbf0645d7	-0.5245032
84	0xbf043d8a	-0.516564
85	0x3d106519	0.035252664
86	0xbed5bb06	-0.4174425
87	0xbd54b9cd	-0.051935006
88	0x3daad6f5	0.08341781
89	0xbe59a250	-0.21253324
90	0xbe9b9aa4	-0.3039142
91	0x3dbb6a5f	0.09151148
92	0x3fcfa148	1.6221094
93	0xbd9ebae6	-0.07750492
94	0x3fb1cf89	1.389146
95	0xbed6f9be	-0.41987413
96	0x3fb34245	1.4004599
97	0x3fd7fc10	1.6873798
98	0xbd05596d	-0.032555986
99	0xbf2d6220	-0.6772785
100	0x3f671802	0.9027101
101	0x3c308fdc	0.010776486
102	0xbecdf250	-0.40223932
103	0x3c104620	0.008805782
104	0x3f5b7114	0.8571942
105	0xbeab940d	-0.3351139
106	0xbe893768	-0.26800084
107	0xbf11f293	-0.57010764
108	0x3eab3afa	0.33443433
109	0xbecff692	-0.40617806
110	0xbcddaff9	-0.02706145
111	0xbe9749b0	-0.29548407
112	0xbe690ef3	-0.22759609
113	0xbebf093f	-0.37311742
114	0x3c4ab2c1	0.01237172
115	0xbe874e4d	-0.26426926
116	0xbeee3e18	-0.4653175
117	0x3d6a54f6	0.05720993
118	0x3fa3dddb	1.280208
119	0x3fc2eb93	1.5228142
120	0xbcbf86ff	-0.0233798
121	0x3d9e2f1d	0.0772383
122	0x3da827ea	0.08210738
123	0x3f5a3470	0.85236263
124	0x3da37bcf	0.07982599
125	0xbed4e34b	-0.4157966
126	0xbef8ba66	-0.4857971
127	0x3fadc887	1.3576821
128	0x3fa1eda5	1.2650648
129	0xbe9d8580	-0.30765915
130	0x3f1ec1d9	0.6201454
131	0xbf0b9de0	-0.54537773
132	0xbf0346e6	-0.5128006
133	0x3fa3d63b	1.2799753
134	0xbf07e4b7	-0.53083366
135	0xbd9cb050	-0.076508164
136	0x3fbb3a44	1.4627156
137	0xbe252b02	-0.16129687
138	0xbbb3e5e8	-0.0054900534
139	0x3fd626b8	1.6730566
140	0x3dde0d4f	0.10842382
141	0xbd8934ba	-0.0669951
142	0xbf063b2e	-0.5243405
143	0x3fbca204	1.4736943
144	0xbee76f34	-0.4520203
145	0xbebfb0b2	-0.37439495
146	0x3e2d691d	0.16934629
147	0xbed6ed8f	-0.41978118
148	0xbefca80f	-0.4934697
149	0xbdce6931	-0.100786574
150	0xbe2b71f1	-0.16742684
151	0xbd982ebe	-0.0743079
152	0x3d87cca1	0.06630827
153	0xbef0a381	-0.46999744
154	0xbea4d7f5	-0.32196012
155	0xbd610f20	-0.054946065
156	0x3fe2d4ec	1.7721229
157	0xbe8f270f	-0.27959487
158	0x3fb3e1bd	1.4053265
159	0xbefd4d96	-0.49473256
160	0x3fb050aa	1.3774617
161	0x3fe006d2	1.7502081
162	0xbcce11e5	-0.025155017
163	0xbebe2c69	-0.37143257
164	0x3f884c32	1.0648253
165	0xbdb6ca3e	-0.089252934
166	0xbdfcb2c3	-0.123387836
167	0xbcfef49f	-0.031122504
168	0x3efcc662	0.49370104
169	0xbe9e3efd	-0.3090743
170	0xbe7b3283	-0.24530987
171	0xbed9bdbe	-0.42527574
172	0xbe33db83	-0.17564206
173	0xbe8c332a	-0.27382785
174	0x3c2e7dc4	0.010650102
175	0x3e29fb78	0.16599834
176	0xbe47c7f6	-0.19509873
177	0xbec90e29	-0.39268616
178	0xbaebcfd7	-0.0017991018
179	0xbe89b151	-0.26893094
180	0xbe9560da	-0.29175454
181	0xbea809d2	-0.32819992
182	0x3fae166f	1.3600596
183	0x3fc15ddb	1.5106767
184	0xbe5ddc21	-0.21666004
185	0xbd9e3240	-0.07724428
186	0x3db2b98c	0.087267965
187	0x3f5e89ca	0.86929
188	0x3dce2dcf	0.10067331
189	0xbeade0bd	-0.33960524
190	0xbeb22664	-0.34794915
191	0x3fa977b0	1.3239651
192	0x3f9cd177	1.2251424
193	0xbdafc02d	-0.085815765
194	0x3f5e482c	0.86828876
195	0xbebd3092	-0.3695112
196	0xbe97e6e3	-0.2966834
197	0x3fa42ad8	1.2825575
198	0xbf040b9e	-0.51580226
199	0xbed16c28	-0.4090283
200	0x3fc4a584	1.5363011
201	0xbde035bf	-0.10947751
202	0x3b970fee	0.0046100533
203	0x3fd1fc37	1.6405095
204	0x3d945730	0.07243192
205	0x3d844fac	0.06460509
206	0xbe72e586	-0.23720369
207	0x3fcee323	1.6163067
208	0xbebd3ca7	-0.36960337
209	0xbdd0b19f	-0.101901285
210	0xbef69fb6	-0.48168725
211	0xbed4d0d2	-0.41565567
212	0xbe980583	-0.29691705
213	0x3d675b2e	0.05648344
214	0xbeacdfbf	-0.33764455
215	0xbd350bd6	-0.04420074
216	0xbd54b556	-0.051930748
217	0xbe56da54	-0.20981723
218	0xbe7add8e	-0.24498579
219	0x3aca091d	0.0015414093
220	0x3fd56510	1.6671467
221	0xbe4672ec	-0.19379777
222	0x3fb88416	1.441531
223	0xbe977a9c	-0.2958573
224	0x3f9929c7	1.1965874
225	0x3fd1df79	1.6396323
226	0x3da900e4	0.08252123
227	0xbe54001e	-0.2070317
228	0x3f910b15	1.1331507
229	0xbc61b573	-0.013776171
230	0xbed0ef06	-0.4080736
231	0x3e03fd53	0.12889604
232	0x3f5475c6	0.8299221
233	0xbeca49da	-0.3950947
234	0xbea197c2	-0.31561095
235	0xbf094720	-0.53624153
236	0xbde94e4c	-0.11391887
237	0xbf073375	-0.5281289
238	0xbd81e930	-0.06343305
239	0xbe6adc21	-0.22935535
240	0xbf352724	-0.7076285
241	0xbdf3581c	-0.1188204
242	0xbddc67bb	-0.107619725
243	0xbe1590da	-0.14606038
244	0xbec693c7	-0.3878462
245	0xbe3f410a	-0.18677154
246	0x3fa3b4d7	1.2789563
247	0x3fc7d768	1.5612612
248	0x3e2f4c37	0.17118917
249	0x3dbf20a9	0.09332401
250	0x3dac39b9	0.08409447
251	0x3f8ec6e2	1.1154444
252	0x3ce0e7a2	0.027454201
253	0xbec90352	-0.39260346
254	0xbec083d8	-0.3760059
255	0x3f67ae4a	0.9050032

layer3.bias f4 [5]
0	0x3f5f2016	0.87158334
1	0x3f94d748	1.1628199
2	0x3f975c38	1.1825018
3	0x3faa1d13	1.3290123
4	0x3f310be7	0.69158787
