ch08/car_racing_dqn_450.pth (torch, 40850 bytes, 8 tensors)

layer1.weight f4 [64, 11]
00000000: bb92 c0be be54 0abd afdf 8bbd 1344 083e
00000010: 401c 563e 56c2 323e 58ce 6ab9 d137 b23e
00000020: 5d3b 943e 8383 fb3d 0b6c da3d 8633 11bf
00000030: 14ef 55be 4424 9c3e aa23 a73e b974 c53e
00000040: 2bc0 853e a3f2 42be 0ff8 c43d 080d a83e
00000050: 1314 de3e d70d 533e 51bd 973e 20ca 9cbd
00000060: 60b0 95be f4c6 8ebd 4a67 59bd 8450 abbe
00000070: 6e97 90be 109c 123e 5937 29be 08da 70be
00000080: bb4f 3a3e 2286 c2bd 65ba 153d d76b 92bd
00000090: 6edf cb3d 16bb 7bbd 72b0 cb3d a502 13be
000000a0: ad69 b03c 0929 14bd 7325 493e 1145 2ebe
000000b0: 0d14 a1bd afbe a73c 2c72 b13d def1 b73e
000000c0: d412 c53e 5047 983e fa0a 733e d83b 023e
000000d0: f4d6 b93d 55a4 113e c6b7 013d 464b c93e
000000e0: 25df 893d be8f 833e f5de 96bd 4bac 75bd
000000f0: 968c be3e fed9 d73e e5a1 023f e7b2 21be
00000100: 9417 01bf 854b e3be bf06 bbbe f251 0e3e
00000110: 1668 ab3e 2897 333e 035b d1bc 171b 6dbe
00000120: 76b1 9d3d 511b a73e c412 853d 68bf 5c3c
00000130: d22f dc3d eb4f eebe fc1f 9e3e a6c2 703e
00000140: 29bb db3d b4a6 2f3e 486a 423e f748 573e
00000150: 85c2 8e3e 7db5 183e d77c ea3d dd36 0abf
00000160: c3dc d33e 75a5 12bf aed7 eabc 2117 283d
00000170: d091 0bbf 7a37 e9be f412 ab3c 5638 213e
00000180: 2a6e 063e 5864 1c3f fe13 093f 2fa6 cdbc
00000190: b924 8e3e 0efb c53d 06f2 d5be d48a a6bd
000001a0: b615 8a3e 5a3c 523d 5928 213e ab7f c73d
000001b0: 9066 a43d 713e 713e b77f 0c3f 397e 9c3d
000001c0: 82d5 f03d 9cd3 cebe 0205 3bbf 496e 49bd
000001d0: 640b 943e a7ea b23e b911 d43d 4d9b ea3e
000001e0: e183 003f 4068 973e 3bd2 9c3d df84 b7be
000001f0: ba33 2abe 4824 35bd 7360 b8be 3d15 29be
00000200: 0c7c 883b f5fa 46be f9f0 56bd 5fc5 be3d
00000210: 106e 44be d4a6 60bd 46f2 6f3e 0390 18be
00000220: 2aad d83c 3328 b8bd 2dc7 36be a13b 9bbd
00000230: de12 92bd 037c 9b3e 2f5e 963e 0e41 08be
00000240: 8733 de3d 8a7c 0bbe 77ed 8fbe 41c4 a9be
00000250: 6d62 8f3e 61ee 833e 85c8 133d ba7c 123e
00000260: d885 1abe 4a56 d2bd abdd e53d ded3 35be
00000270: 5a22 1c3e a07f 66bd a229 29bd 6216 7f3d
00000280: cfff 37be 1c97 ffbc acfe 34be a1f9 1d3d
00000290: 7c2c f73c dd34 93bb 765a cfbc 4570 7b3c
000002a0: 415b 47be 265b e3bd 5647 08bd 6502 b43d
000002b0: f93b 36be e6f5 a7bb 26d7 1dbe d72c 8bbd
000002c0: 08c8 343d a4e8 9f3e 6704 9f3d bca8 ff3d
000002d0: 8226 183e 38fe 943e 1c04 8d3e 471e 5e3e
000002e0: 3497 563d 1681 873e b106 143d 10c1 38be
000002f0: 8f0b 63bc 26ef cf3e 4959 3f3e 26b4 bb3e
00000300: 2552 ca3d 8aa7 debe b8f1 0abf a748 1bbf
00000310: 7aba 2ebe 22ba 913d 26d7 11bf 90c8 6abf
00000320: bab2 a1be c426 82bf 2083 99bf fa47 d8bf
00000330: 1410 38bf 9d66 d9be 2f6d 7ebe 3a9f d2bd
00000340: 1960 e6be d781 1c3f 588c 3fbe 34ea aebe
00000350: 80d2 973d bf97 583c 363b cebe 2976 77bd
00000360: 8f0c 1ebd c84b e6bd c84b 363e d6df f83d
00000370: 60f6 bdbe 9060 51be 29c8 f0be 01d9 073e
00000380: 77eb 863e c173 973e 110f 9b3e 801b ef3e
00000390: 4a88 f43d 768f 613e 0b3e 2c3d 6b26 673e
000003a0: db31 84be d62d b7bd 028a e0be 4065 0f3e
000003b0: 3cc1 e03e b3a8 c13d e657 e7bb c3dc dd3d
000003c0: 6c6f e03d 7fce dd3d d05c 7f3e efa3 eb3d
000003d0: cf69 a9be 91b9 d53c 6337 12bd e83c 45be
000003e0: 3a82 ddbd 6764 fc3d 4432 a3bc 4af2 683e
000003f0: 1fb1 2f3c 64fe a13c f0e9 2abe ab73 00bd
-0.37611946 -0.033772223 -0.06829774 0.13307218 0.20909214 0.17456946 -0.00022392848 0.3480821
0.2895154 0.12280943 0.10665139 -0.56719244 -0.20891982 0.30496418 0.32644397 0.38565615
0.26123175 -0.19037871 0.09617626 0.32822442 0.4337469 0.20610748 0.29636624 -0.0765574
-0.29236126 -0.06971541 -0.05307702 -0.33459866 -0.28240532 0.14317346 -0.1652502 -0.23520672
0.18194477 -0.0949824 0.036554713 -0.07149475 0.09954725 -0.061457716 0.09945764 -0.14356478
0.021534765 -0.036171947 0.19643192 -0.17018534 -0.078651525 0.020476667 0.08664355 0.35926718
0.38490927 0.29741907 0.23734656 0.12718141 0.09074202 0.14222844 0.0316694 0.39315242
0.067320146 0.25695604 -0.073667444 -0.059978765 0.37216634 0.42158502 0.5102828 -0.15790902
-0.504266 -0.44393554 -0.36528584 0.13898447 0.3347785 0.1753813 -0.025556093 -0.23154865
0.076998636 0.32638028 0.0649772 0.013473369 0.107513085 -0.46545348 0.30883777 0.23511752
0.10729057 0.17153436 0.18985856 0.21023928 0.27882782 0.14912982 0.114495926 -0.53989965
0.41379365 -0.5728372 -0.028667297 0.041037682 -0.5451937 -0.45550138 0.020883061 0.15744147
0.13127962 0.6109061 0.5354613 -0.025103657 0.27762392 0.096670255 -0.41786212 -0.08131948
0.2696969 0.051327087 0.15738048 0.097411476 0.08027375 0.23558976 0.5488238 0.076412626
0.117594734 -0.4039582 -0.73054516 -0.04917744 0.2891494 0.3494465 0.10354943 0.4582161
0.5020123 0.29571724 0.07657286 -0.3584356 -0.16621295 -0.044224054 -0.36011085 -0.16512008
0.004165178 -0.1943167 -0.052475903 0.09314989 -0.1918261 -0.0548466 0.23432264 -0.14898686
0.026449759 -0.089920424 -0.17849417 -0.07579733 -0.07132505 0.3036805 0.2936873 -0.13306066
0.10849672 -0.13621727 -0.2811086 -0.33157542 0.2800478 0.25767806 0.036079902 0.14305392
-0.1509012 -0.102703646 0.112239204 -0.17756602 0.15247479 -0.056274056 -0.04129947 0.062277205
-0.17968677 -0.031199984 -0.17675275 0.038568143 0.030172579 -0.004492386 -0.02531169 0.015346591
-0.19468404 -0.111013696 -0.033271156 0.08789519 -0.17796315 -0.005125749 -0.15414104 -0.06795662
0.044136077 0.31232178 0.077645116 0.124833554 0.1485844 0.29100204 0.27542198 0.21691237
0.052390292 0.26465672 0.036139194 -0.18042397 -0.013857736 0.40612143 0.18686403 0.3666088
0.09878949 -0.43487197 -0.54275084 -0.60657734 -0.17063323 0.0711558 -0.56968915 -0.91712284
-0.3158167 -1.016808 -1.1993141 -1.6896966 -0.71899533 -0.424611 -0.24846338 -0.10284276
-0.44995192 0.6113562 -0.1870588 -0.34163058 0.074131966 0.013219773 -0.4027955 -0.06041542
-0.038586196 -0.11244923 0.17802346 0.12152068 -0.37102032 -0.20446992 -0.4702771 0.13266374
0.2635152 0.295805 0.30284932 0.46700668 0.119400576 0.22027382 0.042051356 0.22573249
-0.25819287 -0.089442894 -0.43855292 0.14003468 0.43897426 0.09456005 -0.007060039 0.108331226
0.10958752 0.10830402 0.24937749 0.11505877 -0.33088538 0.026089462 -0.035697352 -0.19261515
-0.10815854 0.12323838 -0.01992143 0.22748676 0.010723381 0.019774623 -0.16690803 -0.03136031

layer1.bias f4 [64]
00000000: e0a0 abbc 1b38 e3be e744 4e3e 01f5 e2bd
00000010: 0ebd 65be fd6a 933e ae66 163e cc3b a4be
00000020: e77f 953e 0857 4a3e 3ec4 8fbe a590 943e
00000030: 473d 1a3d b8ae d43d f48e 3cbe 17b0 19be
00000040: de68 85be 75b4 af3e cd4d 0d3f 2a26 913e
00000050: c0e0 7c3d 34e9 453e 09c5 393e 19bb a5bd
00000060: 66f4 7f3e 2eab 493e fd13 b63e 248a 573e
00000070: 0229 443e c651 653c 9314 003d 74b7 9a3e
00000080: 3d25 0dbe 3349 443e dd3f ab3e 774f 17bc
00000090: 53bc a3be d908 b5bd f91d 0dbc 25d1 f93b
000000a0: 2cde 703e 5d7c 35bc 4fbb 1a3e fc80 653e
000000b0: 52df 82be 927c ce3d 15a4 563e 7e52 9c3d
000000c0: bec4 383e 81bd e73e 5527 033d ce22 393e
000000d0: 7cd6 793e bb19 54bc b6ca 853b 373f 0bbd
000000e0: 7bae 32be 9ab8 5dbe 1c4e aa3c 7cbf 923e
000000f0: 229d 8ebd 45e5 48be 22e5 78be 8d13 34be
-0.020950735 -0.44378743 0.20143472 -0.11081887 -0.224354 0.28792563 0.14687607 -0.3207687
0.29199144 0.19759762 -0.28079408 0.29016605 0.037656095 0.103848875 -0.18413907 -0.15008579
-0.2605657 0.34317365 0.5519684 0.2834943 0.061737776 0.19327241 0.18141569 -0.08092327
0.24995574 0.19694206 0.35562125 0.2104879 0.19156268 0.013996547 0.03126962 0.3021809
-0.13783737 0.19168548 0.3344716 -0.0092352545 -0.31979617 -0.08839578 -0.008613103 0.007623809
0.23522252 -0.011077014 0.15110515 0.22412485 -0.25561005 0.10082354 0.2096103 0.07632922
0.18043801 0.45261768 0.03201993 0.18079683 0.24398226 -0.012945588 0.004083003 -0.033995833
-0.17449372 -0.21652451 0.020789199 0.28661716 -0.069635645 -0.1961871 -0.24306157 -0.17585583

layer2.weight_ih_l0 f4 [64, 64]
00000000: 4800 953c 693c 353e 14a2 c2be 0208 c3ba
00000010: f588 a2be 1fc5 143f cc13 683d 696b 01bf
00000020: ae19 b3be 55de 4a3e 9bf3 a53e 8943 b4be
00000030: a87e 133e 4a4c 373e 1519 9f3d 569b a43d
00000040: 4f32 2abe 55bd 2c3f ea80 52bf 6b48 96be
00000050: b8c0 e03e 5c41 9c3e bc9a d8be ae75 7dbd
00000060: b9cf de3e 903f b43f b255 eabe 71c0 47be
00000070: aca1 82be e6e9 113f b9f3 f8be 78bf 7a3f
00000080: 3e64 0ebd 9fe0 b63b 2ce2 31bf e95e b33d
00000090: a242 8ebe e154 2f3d 01f6 89bc 8487 b0bc
000000a0: c7fe 8fbd f573 23be 5179 7a3e 7aba e13e
000000b0: 5290 cfbd 651f 2ebe 3475 893e 9fb5 7dbe
000000c0: 4d4f af3f 3336 4cbf 1b0b 303f 2a26 c4bd
000000d0: ba9c 1f3f 20ec 34be 4a9f 863f eae4 86bb
000000e0: 76fc 89bc 4889 cdbd d77c 0bbe cf26 ffbe
000000f0: 5e32 c3bd d98a 8c3c b8c6 ec3e 3b41 1fbe
00000100: 9360 f53c 648f 173e 64e2 a63d deb9 07bc
00000110: 5768 053d be2c 55be 89e4 35bd 3518 253e
00000120: 1707 3a3e 6946 013d 5b82 8fbf 8d4c fb3d
00000130: 2bfd 45bd defd 783d ba7b 243d 6355 683c
00000140: 82f2 1e3d 4d31 6bbe 593d a53e ce43 24bb
00000150: 7c8c 673d 9e08 aebd 7619 b73d 45fd 443c
00000160: 37f3 9ebc b901 8fbc c1b9 453e ef10 223e
00000170: 18e0 ac3d b705 5bbe 5a07 45bd 6944 6dbd
00000180: cfe9 1bbd c4d4 303c 16d6 dbbc 8897 e13a
00000190: 775c 1f3d 306f 25bc faab 10be 9b8e 103d
000001a0: 2533 e8bd b342 b3bd 607e 94be f1b8 5bbd
000001b0: 71aa 023e bac0 b33d 70fb be3d a82f d73e
000001c0: f2fb c539 0ca7 a53d 0b85 7cbe 247c e93d
000001d0: 0cb8 0e3c 54bd 223e 3bda 7cbe fb27 de3c
000001e0: eac7 4c3d b6ed 0e3e 5528 31bc 7237 823d
000001f0: 95c3 0ebd d03c 1dbd 3d98 21bf 2ad7 4fbd
00000200: 40c5 733d c236 973e b2e5 52bd 79c0 98bd
00000210: b5c1 86bd 70eb 293d a668 35bd e99c 4d3e
00000220: d99a 94be 31df 83bc bfe2 9fbe 10b6 30bd
00000230: b520 213c 2eb5 28be f3fd fd3c 8363 a0bd
00000240: 24be 1c3d 8a3c e83d a215 b5be a224 a2be
00000250: 0c4a 663e a756 febb ebfd a9be 89a5 38bb
00000260: 182f 323e fa83 7f3e e772 97bd f587 5dbe
00000270: a520 a9be ac9a cb3e 3dfe 10be 9fd5 bf3d
00000280: cff0 01bd c50a c93c 27b5 7bbe d77c d8bb
00000290: 6181 293e 6109 d7bd 0b9e 553d 2f90 843e
000002a0: b672 03be afb2 e8bd 7ac3 3bbe 221a 803e
000002b0: 7d41 5e3d e17a 86ba 7873 c1bd b928 03bf
000002c0: 002c 08bd 20cb b2be 6287 ac3e 2c40 ad3c
000002d0: c01a 143e 0ca3 be3d a344 3a3e 8e0f 483d
000002e0: 33cc f33b fbe9 a2bd 958f 8bbd 2594 aebe
000002f0: da22 3c3d 2b73 4dbd b90e 9ebd ce9a d5bd
00000300: cb4f 413d b63c 8a3d ea4b 0f3e adb3 f63c
00000310: ce12 f33c 52ba 91be dedf be3d 2d69 643e
00000320: d673 c03e 0859 8f3c f0a3 5bbf 36a2 833e
00000330: b9b7 473b 196a abbd 6a40 15bd 37d5 7fbd
00000340: d9b8 3f3e d87c 01bf 7336 353f d1d2 7f3e
00000350: fe3a 1cbe 8ddc 4fbe 2e04 983e c888 293d
00000360: 5fec 04bd d64f a1be 2b6f 7c3e 7650 843e
00000370: 2b2e 513e 4790 65be ae50 f53d 56d6 98be
00000380: c814 733c a4fd 89bb b6e6 643d db07 223d
00000390: bd68 fb3c b71a c2bc 8dc5 5e3c 2724 bf3c
000003a0: f69e f6bc f096 bf3d 41ff 92be e2c2 bcbe
000003b0: b5ab 893d fccd 1e3e 6b3b b83c 9003 723e
000003c0: 8b4e 86be e855 a73e ee13 87be 812c 763e
000003d0: 7a8b a3be 1e17 9f3d 9446 dabe 4b46 ad3c
000003e0: 54cb 0a3d 3596 b73e 996a c23d ecdd 483e
000003f0: b00e 0f3c 8a4c 2cbd d309 77bf f6a7 813e
0.01818861 0.17698826 -0.3801428 -0.0014879706 -0.31745115 0.5811328 0.056659505 -0.5055452
-0.3498053 0.19811375 0.3241242 -0.35207775 0.14403784 0.17900196 0.07768456 0.080374405
-0.16620754 0.674764 -0.8222796 -0.29352126 0.43897033 0.30518615 -0.42305553 -0.061879806
0.43517855 1.4081898 -0.45768505 -0.19507004 -0.2551397 0.56997526 -0.48623446 0.9794841
-0.034763567 0.005580976 -0.69485736 0.08758337 -0.27785212 0.042805556 -0.016840937 -0.021548994
-0.07031017 -0.15962203 0.24460341 0.44087583 -0.10134949 -0.17004164 0.2684723 -0.24776314
1.3696076 -0.797702 0.68766946 -0.09577592 0.6234852 -0.176682 1.0517361 -0.004116644
-0.016844016 -0.1003595 -0.13621841 -0.49834296 -0.09531091 0.017156051 0.4624536 -0.15552227
0.029953277 0.14800793 0.08148649 -0.00828406 0.03257021 -0.20817849 -0.0444074 0.16122515
0.18166767 0.03156129 -1.1211656 0.1227046 -0.048337143 0.06078898 0.040157057 0.014180514
0.038805492 -0.22968026 0.32273367 -0.0025064829 0.05653046 -0.08497737 0.08940403 0.012023275
-0.019403083 -0.017456876 0.1930914 0.15826772 0.0844118 -0.21388899 -0.048102714 -0.05792657
-0.038064774 0.010792915 -0.026835483 0.0017211298 0.03890654 -0.01009731 -0.14128104 0.03529225
-0.1133788 -0.08752956 -0.29002666 -0.05364317 0.1276033 0.08776994 0.09325302 0.42028546
0.00037762482 0.08088502 -0.24660127 0.11400631 0.008710872 0.15892535 -0.24692623 0.027118674
0.04999534 0.13957867 -0.010812839 0.063582316 -0.03485449 -0.038388073 -0.6312292 -0.050742306
0.059514284 0.29533964 -0.051488586 -0.07458586 -0.065799154 0.041484296 -0.044289254 0.20079388
-0.2902439 -0.016097637 -0.3122768 -0.04314238 0.009834458 -0.16475365 0.031004881 -0.0783148
0.03826727 0.11339672 -0.35368067 -0.31668574 0.22489184 -0.0077617946 -0.33201537 -0.0028174839
0.17400777 0.24952689 -0.07394963 -0.21633895 -0.33032718 0.39766443 -0.14159484 0.09366917
-0.031723794 0.024541268 -0.24580823 -0.006606679 0.1655326 -0.10499836 0.052152675 0.25891253
-0.12836727 -0.11362206 -0.18336287 0.25019938 0.054261673 -0.001026001 -0.09445852 -0.5123401
-0.033245087 -0.34920597 0.3369704 0.021148764 0.1446333 0.093084425 0.18190245 0.04884296
0.007440114 -0.079547845 -0.068144955 -0.340974 0.045931675 -0.05015866 -0.07717652 -0.10429917
0.047195237 0.06749861 0.13993803 0.030114973 0.029672053 -0.28462464 0.09320043 0.22305746
0.37588376 0.017498508 -0.85797024 0.25709695 0.0030474497 -0.08369846 -0.036438383 -0.062459197
0.18722858 -0.5058112 0.7078621 0.24982764 -0.15256879 -0.20298977 0.2969069 0.04139021
-0.032451984 -0.31506222 0.24651782 0.25842637 0.20427768 -0.22418319 0.11978279 -0.29851025
0.014836498 -0.0042111445 0.055884086 0.039558273 0.030689592 -0.02369438 0.013596904 0.023332668
-0.030105095 0.09354961 -0.28710368 -0.36867434 0.06722204 0.15508264 0.02248927 0.23634171
-0.262318 0.3268273 -0.26382393 0.24040414 -0.3194235 0.07768081 -0.42631972 0.021151682
0.033885315 0.35856786 0.09492988 0.19615906 0.008731529 -0.04206518 -0.96499366 0.25323457

layer2.weight_hh_l0 f4 [64, 64]
00000000: 4474 2fbd 6e4d a9bc 7327 0fbb 8849 65bd
00000010: ee34 0cbd 2bca 193c d0d2 633b 4b20 d4bd
00000020: 4a68 a73c 9860 b63d 50ed 953d 750d 0c3d
00000030: c17b 5b3d 4673 3cbd 4f55 39bd cce1 3ebd
00000040: 51b3 9e3d d279 85bd 8972 4e3d c09e dcbd
00000050: 9cd3 84ba 3aa7 bebc c620 d3bd 56ef 3dbd
00000060: 10b4 473d ecff bb3c e3e4 81bd c061 b6bd
00000070: 98cc edbb e1ef aa3d 57b7 3dbc 7fbd dd3c
00000080: a0a0 7b3d ce73 a33d cd41 6fbd 664b 6dbc
00000090: c103 c9bd 8b55 223d 7c35 e0bd c461 bbbc
000000a0: 8b89 c83d eeaf 303c d088 9c3b e84b f83c
000000b0: c8d3 f8bd efd9 05bc 8519 143d 0b6a 3e3d
000000c0: 5c8e 94bd ece3 79bd 08f2 7a3d 7132 663c
000000d0: 45f9 d0bb ca4c 253e 2947 b1bc 912f 103d
000000e0: b816 263d 9afa 303d 144f bcbd 0d0d 95bd
000000f0: ae72 833c 5684 153d 2e18 14bd 9d14 9fbc
00000100: 670b 5bbd e12d 7d3d 7c81 523d 78b8 0cbd
00000110: 6d5b 5f3d 40b9 c6bd 92ab 343d 3be8 0d3d
00000120: 2972 87bc a972 87bd 705a ae3d d581 4fbd
00000130: 39d7 4d3d 72f7 1d3d 9d41 d0bc 5f60 6b3c
00000140: 8f68 2d3d 49fb 323c 684f a4bb 2be3 853d
00000150: 22ed f73c a2c9 313e bbe0 aabc 0e8e dd3c
00000160: 2ff9 e03d 8b18 7ebd 6fd6 473d 9c83 513e
00000170: d737 01bd 5521 693c 5bb4 aebd be32 92bd
00000180: ac87 b7bd e201 4dbd 9af5 2c3e 6a83 e83c
00000190: 28ef ad3c 543d c73c f2bb 31bd f7d4 183d
000001a0: e345 79bd 3acf 043e d1f3 653b 7d64 71bc
000001b0: 51d8 0fbd bc30 ad3c 03b6 003e fccd 83bc
000001c0: 36cd 15bd c146 e93d a37b 633d 28c8 f13d
000001d0: 55f9 573b 692d 12bd 12e7 3d3d 61da 8a3c
000001e0: a584 8d3d da7b 063e e39b f63d c97f 083b
000001f0: ddc1 013e 5c3a 80bd 49ea 203d 30d4 953b
00000200: a2fb 06bc 7c9b 9cbd 1761 b9bc e835 af3d
00000210: fc0b ff3c 64bf 523c c485 34bd 06c3 813d
00000220: 8f6b a43d a18c 213d 655e 243d beb6 173d
00000230: a9f9 dabd a960 b2bd 9f7c 1abc dbb6 593c
00000240: 64e0 063e ec40 013e 18ef 353d 30b9 d93d
00000250: 97aa 0fbe 35ae efba b6d6 58bb d96c 77bd
00000260: 032b da3c 4097 93bc ef21 273d e67f 17bd
00000270: 9164 04be dab6 1f3d 21bc 753d 1cde a1bd
00000280: 09fb f0b9 8b5c 9c3d 80aa f2bc bd06 22bd
00000290: c7c3 c43d 53c5 aebd f5a0 ccbd 4cfc b5bc
000002a0: cb58 163e e960 29bb 56d6 e5bd 47be 523c
000002b0: c3e6 44be 71ff 9e3d c9a5 0d3d 02b8 213e
000002c0: 5ff5 58bd 0aa9 abbd 39b0 e7bd 9eba 96bd
000002d0: a340 b43d c558 dfbd 0b52 e43a 04b4 b33c
000002e0: 3673 82bd d829 3a3c 71b3 b1bb d824 8bbc
000002f0: 99e6 e1bd 9732 7f3d 08ca f33d cb07 c6bd
00000300: 22e2 e13c fb8b c83d f6d1 b1bc c662 e53c
00000310: 8444 873d bab2 20bb 7659 e43d 7340 07bd
00000320: 7951 ebbd 1e97 5cbc 2c33 c33d 7797 c4bd
00000330: 7bc1 a53d 6ab7 80bc 93f1 c9bd b975 71bd
00000340: fc3a aebd 36e3 e73c 1edf fdbd 711d 7a3d
00000350: 87ca e63c 379d 913d c765 5ebd 3d56 5c3c
00000360: 2456 313d 01e8 ccbc 3b68 ed3d 593c e53c
00000370: e35c 01bd fd1a 5a3b 75fe 30bd ca4b bbbd
00000380: 3016 70bd fb74 00bd 4b4b 003e 966f 023d
00000390: 319c 25bd 68a6 083d e0d3 9fbb e8a2 1fbd
000003a0: a044 a5bd 4ef3 913c 5eab 873d 5892 90bc
000003b0: 7f35 babd 3fc7 463c f8d7 8bbc 7523 ce3d
000003c0: 09d6 63bc 4f57 d73d 64cd 613c f511 903b
000003d0: c787 6bbc ae3d cfbc 7124 843d 1f6a f63c
000003e0: 85f3 e6bd 89ad c63d 1900 373d 56f4 6e3d
000003f0: 25de 823d 2c57 febd 5003 fb3c 31b5 5dbb
-0.04283549 -0.020666804 -0.0021843582 -0.055978328 -0.034230165 0.0093865795 0.0034763105 -0.10357722
0.020435471 0.089051425 0.073206544 0.03419252 0.053584818 -0.04600837 -0.045247372 -0.046602055
0.07749046 -0.06517376 0.050402198 -0.10772467 -0.0010133865 -0.0232731 -0.103089854 -0.046370827
0.048755705 0.022949181 -0.06342485 -0.08905363 -0.0072570555 0.083465345 -0.011579356 0.027067898
0.06143248 0.07981072 -0.058412362 -0.014483308 -0.09815169 0.03963236 -0.10947701 -0.022873767
0.09791859 0.010784132 0.0047770515 0.030309632 -0.12149769 -0.008169635 0.03615715 0.04648785
-0.072537154 -0.06100838 0.061265975 0.014050112 -0.0063773715 0.16142574 -0.021640377 0.035201613
0.04054901 0.043207742 -0.091947705 -0.0727788 0.016045894 0.03650316 -0.036155872 -0.019419009
-0.05347767 0.06181133 0.051393017 -0.03435561 0.05453055 -0.097033024 0.044108935 0.0346453
-0.016533928 -0.066136666 0.08513343 -0.050660927 0.05025408 0.03856606 -0.025421912 0.014366238
0.042336043 0.010924169 -0.005014349 0.065374695 0.03026444 0.17362073 -0.020859113 0.027045276
0.10985028 -0.062035125 0.048788484 0.20460361 -0.031547394 0.014229138 -0.08530494 -0.071385846
-0.08961424 -0.050050624 0.16890565 0.028382976 0.021232203 0.024321236 -0.04339213 0.037312474
-0.060857665 0.12969676 0.0035087953 -0.014733431 -0.035118405 0.021141402 0.12569432 -0.016089432
-0.036572658 0.11390448 0.05553783 0.11805755 0.003295501 -0.035687838 0.046362944 0.016949834
0.069100656 0.13133183 0.12041452 0.002082812 0.12671609 -0.06261131 0.03928593 0.004572414
-0.008238705 -0.07646844 -0.022629304 0.08555204 0.031133644 0.012863014 -0.04407288 0.06336026
0.08028328 0.039440755 0.040129084 0.03703951 -0.1069215 -0.08709843 -0.009429126 0.013288225
0.13171536 0.12622422 0.04441747 0.10631025 -0.14029919 -0.0018286171 -0.0033086962 -0.06040654
0.026631838 -0.018016458 0.040803846 -0.036987208 -0.12928988 0.03899274 0.059993867 -0.07903692
-0.00045963403 0.07634839 -0.029622316 -0.039557207 0.09607654 -0.0853373 -0.099916376 -0.022215031
0.1468231 -0.0025845116 -0.11222522 0.0128627485 -0.19228654 0.07763565 0.034581933 0.1579285
-0.05296838 -0.08381851 -0.11312909 -0.07359813 0.08801391 -0.10905603 0.001741947 0.021936424
-0.06369631 0.011362515 -0.0054230024 -0.016985342 -0.11030311 0.062304106 0.11903769 -0.09669455
0.027573649 0.09792324 -0.021706562 0.0280012 0.06604865 -0.0024520592 0.11149876 -0.033020448
-0.11490149 -0.0134637635 0.09531245 -0.09599202 0.08093544 -0.015712459 -0.0986053 -0.05895016
-0.08507344 0.028306585 -0.12396072 0.061063234 0.028172744 0.071100645 -0.05429628 0.013448295
0.04329504 -0.025012972 0.11592146 0.027982878 -0.031582724 0.0033280246 -0.04321142 -0.09145315
-0.05861491 -0.03136156 0.12528722 0.031844698 -0.04043216 0.033361822 -0.0048775524 -0.03897372
-0.0806973 0.017816212 0.066244826 -0.017647907 -0.09092235 0.012132465 -0.017070755 0.10065357
-0.01390601 0.105147 0.013781879 0.004396672 -0.014375634 -0.025297966 0.06452263 0.0300799
-0.112769164 0.09701068 0.044677828 0.058338486 0.06390027 -0.124189705 0.030641228 -0.0033829922

layer2.bias_ih_l0 f4 [64]
00000000: c736 5bbd 4378 8ebd 89eb 8a3c 9940 50bc
00000010: d37e a6bc 5953 4c3b 00ff 72bd 3379 c0bd
00000020: 8e1a da3d 33ec 35bd dc1f 57bd 9a55 093d
00000030: 87d9 1abe 7583 d43c 6541 0bbd 8a4b 963d
00000040: d5d8 d0bd 4be2 4b3c 742b 83bd 858e 94b9
00000050: bad7 8f3d a0e1 2cbe 4601 f1bd 941d bcbd
00000060: 75fb 6fbd 23df 9abd 3ea0 483c 6c6d f0bc
00000070: 43fa 8a3d 2fd5 02bc cec2 8b3d ccc9 cbbc
00000080: 2788 543d 93ca 523d c6a4 31be 20be b63d
00000090: 6de7 923d 0093 31bc eb55 46bc 9cdb 1fbe
000000a0: 5206 323d bc1c 93bc 3758 01be c470 1ebb
000000b0: 8a75 7f3d e891 dbbd f835 37be dd26 6fbd
000000c0: daae 693e d4b0 48be b056 27be 0939 8cbd
000000d0: f575 073d 7e18 ccbd 36ce 263e 1f78 ce3d
000000e0: 259f e83d 1ada a5bd 28d7 71bd 47c6 93bb
000000f0: 7bdc bbbd d4fd 803c 45e1 07bd 355f 07bd
-0.053519037 -0.06956532 0.016958015 -0.012710714 -0.020324146 0.0031177609 -0.05932522 -0.09398117
0.10649596 -0.04441471 -0.052520618 0.0335289 -0.15122043 0.02594159 -0.033997912 0.07338627
-0.101976074 0.012444089 -0.064047724 -0.00028334945 0.070235685 -0.16882944 -0.11767821 -0.09185329
-0.058589417 -0.07562091 0.012245236 -0.029349051 0.06786015 -0.007985397 0.068242654 -0.024876498
0.051887657 0.05146272 -0.17348012 0.08922982 0.07173047 -0.01083827 -0.012105445 -0.15611118
0.04346306 -0.017958038 -0.12631308 -0.00241761 0.062367953 -0.10721189 -0.17891681 -0.058386672
0.22820607 -0.19598705 -0.16341662 -0.06846816 0.033071477 -0.09965609 0.162896 0.10081505
0.113584794 -0.0809824 -0.05904308 -0.0045097205 -0.09172913 0.015746035 -0.03317382 -0.03304978

layer2.bias_hh_l0 f4 [64]
00000000: 0610 d83c 406d 2ebe bfb3 0d3b 0746 7abd
00000010: d6fe f7bd 3e23 b33c bdf5 b1bd 14af 123c
00000020: 5908 a63d 5fc0 03be fd10 92bc 9223 c03c
00000030: 3027 09be ff34 8b3b f6d6 bcbc 2354 ab3d
00000040: 221a e6bd 27d4 25bd 35fc 83bd ae01 3a3d
00000050: 8220 3c3d 6915 eebc cb02 cfbd bf38 dcbd
00000060: 584d b5bc c803 cebc 4eb9 f2bd 0e2a 1cbe
00000070: add2 bebc b682 05be 51f3 5c3d f56b 51bc
00000080: 2634 953d 2d4e 173e eb16 0abe fa94 d8bc
00000090: a31c a43c 3b93 cd3c 8147 bb3c 3fbc 84bd
000000a0: 6461 853d 06f6 c4bd 7645 e0bd 474e 8fbd
000000b0: 19a3 943d 431a e9bd 7fe9 84bd 1210 553d
000000c0: 2237 253e 9b39 22be e3b8 bbbd 9c23 d9bd
000000d0: 1bbd f4bd 1b5b 59bc c960 a23d 8e3e 983c
000000e0: f2c9 4f3d 18c9 30be bba1 20bd 0445 913d
000000f0: b257 8dbc 8984 75bd 8600 27bd 09be 8fbc
0.026374828 -0.17033863 0.002162203 -0.06110194 -0.12109153 0.02186739 -0.08689449 0.008952875
0.08107061 -0.12866352 -0.017830366 0.023454461 -0.13393855 0.004248261 -0.02305172 0.08365657
-0.11235453 -0.040485527 -0.06444589 0.045411758 0.04592944 -0.029062944 -0.101079546 -0.10753011
-0.022131607 -0.025148287 -0.1185175 -0.15250418 -0.023293817 -0.13038144 0.053942982 -0.012782087
0.07285337 0.14775915 -0.13485305 -0.026438225 0.020033186 0.025094619 0.022861244 -0.064812176
0.065127164 -0.09617238 -0.109507486 -0.06997352 0.07257671 -0.11381962 -0.06489848 0.05201728
0.16134313 -0.15842287 -0.09166124 -0.10602495 -0.119501315 -0.01326635 0.079286166 0.018584516
0.0507297 -0.17264211 -0.03921674 0.07093242 -0.01725373 -0.05994085 -0.040771984 -0.01754667

layer3.weight f4 [5, 64]
00000000: 31a8 ce3f 1a50 c9be cf61 8d3f da83 4cbe
00000010: 61f2 10bf e1bc b23f c6ab 14bf 54c9 22bf
00000020: ed10 ee3f 51ad b1be af0f 9c3d 1503 f83f
00000030: a75c 8d3f 52e6 873f 61a5 fcbe f9fc 0540
00000040: 8127 47bf 5da2 4bbe 49c8 4abe d12e 09bf
00000050: f612 24bf 3442 93bd 6d01 18bf 516c 97bd
00000060: 825d 8fbd e17d 28bf c42a cabe 9e61 23bb
00000070: 923c 0a40 e31f c5be 012f 0a40 bf56 08bf
00000080: 2f5b ba3f 11bc e53f c2b7 4b3d 800c 0fbf
00000090: cc89 ab3f eb95 af3f df96 0abf 5089 2cbc
000000a0: febf 7a3f f64f 2cbf ec35 acbe 64bc 21bf
000000b0: 06c0 4a3d 30bd 35bf d95c 9e3d d247 d0be
000000c0: 62bd 71be db6d 92be a640 0e3d a18e b4be
000000d0: 333e e5be 376a ddbe 848b f23f 94b9 de3f
000000e0: fb65 e9be 66a8 c03c 69e3 b0bc 6318 993f
000000f0: 6501 223f ef18 2bbf 24e9 aebe 0833 da3f
00000100: f5e6 f03f 0c71 bdbe ff7e 883f b145 9fbe
00000110: 89f9 3e3d 0d5f ab3f 30d0 f0be 3756 29bf
00000120: acf3 0240 8722 afbe 7076 2e3d c0c1 fe3f
00000130: 9955 783f c1c3 273f 2144 1bbf 7344 0240
00000140: 708e 0ebf 0a81 cabe 94b8 e4be 79eb 13bf
00000150: 10df 21bf ddcc da3c 53ef 47bf e996 44bd
00000160: 3e55 15bd 3642 01bf a215 b6be ea6a c9bc
00000170: bf50 0d40 1936 e9be a793 0b40 2a0a e2be
00000180: 774b cb3f d954 c93f bc0d 333d 25a9 3dbf
00000190: 8894 983f afe7 7e3f ee38 13bf 493e 1b3c
000001a0: 0b51 8b3f 7bc1 2bbf 79fe adbe 65a9 42bf
000001b0: 7496 373f e526 2dbf 4a2f a8bc 69f3 a4be
000001c0: 2b4b 9abe e91c f8be bc8e f53c 51c6 3abe
000001d0: a5a3 f8be e46c 12be d510 cb3f a42b 0040
000001e0: 9efa b3be 0de1 6f3d 89d0 4a3b e409 983f
000001f0: 6fa4 1e3f 779d 26bf c291 febe f977 c53f
00000200: 9032 db3f fcef 79be 2f37 853f 4301 0dbf
00000210: d768 47bf a64c d63f f54e 39bf 271e d2bb
00000220: 1c75 f53f b946 06bf 4e78 89bb e587 0240
00000230: 280f 5e3f 7b24 583f 1dbc 73bf da60 0240
00000240: 9578 67bf 8cf3 b7be ed9e 683f 9426 0bbf
00000250: 987c 2fbf 3b84 9cbd b1fb c5be bce3 4cbd
00000260: 0659 bfbc a3a4 5fbf 0ee3 fbbe dee7 31bd
00000270: 44c0 0b40 1f5a bdbe 1895 0740 ae5c 5ebf
00000280: 9b7f d83f 58b3 df3f 6e49 8d3c dc47 1ebf
00000290: 09c5 be3f e171 6b3f e967 9abe 07fc febc
000002a0: f71c 853f 26e4 17bf 4530 44be b8e3 2dbf
000002b0: 47c0 19be 1c02 14bf 0b6f 043c 516b af3d
000002c0: 920d 9cbe 8092 a7be 8757 bc3c d714 3abe
000002d0: 65a0 9cbe 7a8c ebbe 70d9 c23f 24f6 e83f
000002e0: ed4b 16bf 9de5 6fbd 5170 d1bd efa7 913f
000002f0: 5731 3c3f 2a33 1dbf 4167 c1be 000b d33f
00000300: dc96 d73f 98e5 44be cde2 9b3f c1fc b2be
00000310: bfa8 f1be 6405 cb3f 0e23 2dbf 2dbc 0cbf
00000320: 0ff6 0340 8433 d1be bacd 7b3b 0a84 f03f
00000330: ee39 593f 45b6 293f 8d99 debe 7563 fb3f
00000340: 286b 2dbf c438 1fbe 488c dabe c730 0cbf
00000350: 5a03 53bf 4977 2f3d 4004 ffbe 8a58 0dbd
00000360: a5f5 a8bd 0762 d9be 515e b6be dff2 3f3c
00000370: b15a 0540 e794 cebe ec76 0140 0a55 f9be
00000380: 6652 c83f fbfb e13f 8a57 963d 79f2 babe
00000390: 0579 bc3f aeff 3d3f d4a1 1bbf eb63 d33d
000003a0: 83c8 aa3f f688 38bf f418 bcbe 1cf8 60bf
000003b0: 2f97 163e 3048 5cbf c6ef 44bd 54cd afbe
000003c0: c64c 00bf 2760 68be a0b8 50bd fd3b a8be
000003d0: 1a2a 03bf 86d9 d7be 6e72 bd3f 493d e63f
000003e0: ac57 e2be 70ee 903d dbc4 59bc 1e62 cd3f
000003f0: 08fc 143f 33d1 2abf 3bee eebe 64f2 b93f
1.6145078 -0.39318925 1.1045474 -0.19972172 -0.5661984 1.3963891 -0.58074605 -0.6358845
1.8598915 -0.34702542 0.07620179 1.937594 1.10439 1.0617163 -0.49344924 2.0935652
-0.77794653 -0.19886155 -0.19802965 -0.5358706 -0.6409143 -0.071903616 -0.59377176 -0.073937066
-0.07000257 -0.65817076 -0.39485753 -0.002493001 2.159947 -0.3850089 2.159119 -0.53257364
1.4559077 1.7948018 0.049735792 -0.5587845 1.3401427 1.3717626 -0.5413646 -0.010530785
0.97949207 -0.6730951 -0.3363489 -0.63178086 0.049499534 -0.709918 0.07732553 -0.40679795
-0.236074 -0.28599438 0.034729622 -0.35265067 -0.44774017 -0.43245098 1.8948827 1.7400384
-0.45585617 0.023517799 -0.021592813 1.1960567 0.6328338 -0.6683492 -0.34162247 1.7046824
1.8820482 -0.3700031 1.0663756 -0.31107858 0.046624694 1.3388382 -0.47033834 -0.6614718
2.0461226 -0.3420603 0.04259342 1.9902878 0.9700561 0.6553307 -0.6065083 2.0354278
-0.5568609 -0.39551574 -0.44672072 -0.5778118 -0.6323099 0.026709015 -0.78099555 -0.04799548
-0.036458246 -0.50491655 -0.3556338 -0.024587113 2.2080534 -0.45549086 2.180887 -0.4414838
1.5882405 1.5729018 0.04371427 -0.7408622 1.1920328 0.9957227 -0.5750874 0.009475299
1.0884107 -0.670921 -0.3398321 -0.76039726 0.7171395 -0.67637473 -0.020530362 -0.32216957
-0.30135474 -0.48459557 0.029975288 -0.18239714 -0.4856235 -0.14299351 1.5864512 2.0026636
-0.35152143 0.058564235 0.003094705 1.1878018 0.61969656 -0.6508402 -0.4972058 1.5427238
1.7124805 -0.24407953 1.0407466 -0.5508005 -0.7789435 1.6742141 -0.72386104 -0.006412286
1.9176364 -0.52451664 -0.0041952496 2.0395443 0.86741877 0.84430665 -0.95208913 2.0371614
-0.9041837 -0.35928 0.908675 -0.5435574 -0.6854949 -0.076424085 -0.38668588 -0.050021872
-0.02335788 -0.8736059 -0.49196666 -0.043434016 2.18361 -0.3698282 2.118475 -0.8686017
1.6913942 1.7476606 0.017246928 -0.618284 1.490388 0.9197064 -0.30157402 -0.031126035
1.0399464 -0.593325 -0.19159038 -0.67925596 -0.15014754 -0.5781572 0.008083115 0.08565391
-0.30479103 -0.32728958 0.022990955 -0.18172012 -0.3059112 -0.46005613 1.5222607 1.8200116
-0.58709604 -0.058568586 -0.10226501 1.1379374 0.73512787 -0.61406195 -0.3777409 1.6487732
1.6842914 -0.19228208 1.2178589 -0.3495846 -0.47199056 1.586102 -0.67631614 -0.54974633
2.0618932 -0.40859616 0.0038422183 1.8790295 0.8485402 0.66293746 -0.43476525 1.9639727
-0.6774163 -0.15548998 -0.4268515 -0.5476193 -0.8242699 0.04283837 -0.4980793 -0.034508266
-0.08249978 -0.424576 -0.35618833 0.01171562 2.0836604 -0.40347978 2.0228834 -0.48697692
1.5650146 1.7655023 0.073409155 -0.36513117 1.4724432 0.7421826 -0.60793805 0.10321792
1.3342441 -0.72083986 -0.36737788 -0.87878585 0.1470611 -0.8604765 -0.04808023 -0.3433634
-0.50117147 -0.22692929 -0.050957322 -0.32858267 -0.51236117 -0.42158145 1.4800546 1.7987453
-0.44207513 0.07076728 -0.013291563 1.6045568 0.5819707 -0.6672546 -0.4666613 1.4527097

layer3.bias f4 [5]
00000000: 0d1d 8d3f 459a 9d3f 4ce9 bf3f ad3c d53f
00000010: cdc1 793f
1.102449 1.2312704 1.4993072 1.6659142 0.9756134
