ch08/car_racing_dqn_400.pth (torch, 40850 bytes, 8 tensors)

layer1.weight f4 [64, 11]
00000000: c538 d2be 204a 9fbc 2174 4cbd f40f 003e
00000010: adbf 283e 0d99 383e 434d d1bc 5249 bd3e
00000020: 4f37 ba3e b184 503e 3185 003e fcfc 22bf
00000030: 88ea 7abe a132 973e de35 943e 5b97 c73e
00000040: 9af8 863e 7d49 74be 465f 003d 004d a83e
00000050: 046e fa3e 5da5 a23e 4330 d13e 4d61 2e3d
00000060: c7fd 70be c664 4dbd 5e77 03bd 511a a9be
00000070: 9a51 78be 7e54 5d3e 4dae 08be f0f5 5cbe
00000080: bc99 773e 8473 ccbd 074d 1d3d 79fe 99bd
00000090: 8479 d63d 2b8e 84bd 884a d63d 4795 1abe
000000a0: 0980 b93c abbb 1bbd 3e95 533e 6d5b 37be
000000b0: b585 923d c749 b73d 1f9c 003e da7e d53e
000000c0: 20b7 ef3e ffa3 a43e 6f93 803e 30f7 fe3d
000000d0: a2a3 533d f971 ce3d e8c1 af3d ec51 963e
000000e0: 088a 91bb e4c6 6b3e 17f2 eebd 0556 01be
000000f0: 2d7f c13e 12af da3e aea4 013f d6fd 5abe
00000100: a878 19bf 365b 2cbf e525 d8be 4336 5a3d
00000110: dfa7 9f3e 3bcc 353e e423 2bbd cad6 6cbe
00000120: ded8 883d f9e9 b13e c9ad d13d 8740 853d
00000130: 1f25 1b3e ca11 00bf ac24 813e e4d1 4f3e
00000140: c54a e43d f765 593e feaa 483e bc8a 583e
00000150: 661f 9d3e 6d1b 3b3e 1921 313e b54d c5be
00000160: 0823 093f 179a ffbe c6be b13c 3763 8f3d
00000170: 3256 ffbe 49b9 efbe 4aee 253d 976f 2a3e
00000180: 350d b73d 7f1d 193f bc50 283f 847f 30bd
00000190: 9855 8e3e 9459 c33d fba2 e9be be0c 10be
000001a0: 8596 843e d3a8 263d f089 393e 8d20 fd3d
000001b0: b7b6 a73d 1a3b 483e f201 fb3e 80da 0e3d
000001c0: 4fdf 0a3e e3ce c6be f60b 46bf 0804 13bd
000001d0: f881 953e ad5e c43e 77b5 4e3e 7f72 153f
000001e0: cfd7 023f 0073 d33e ec10 4a3e a6e7 9bbe
000001f0: c389 11be 62ca b0bc c508 b8be 4dac 04be
00000200: 1a36 5a3d 2bca 4abe 4cd4 83bd 61ca c53d
00000210: 9d00 2dbe 28b4 f4bc ba09 983e 1a47 bbbd
00000220: 9b14 3d3d f505 f5bc 7814 23be d825 95bd
00000230: bb9b a4bd 340d 9e3e 5d65 9a3e ff0f c9bd
00000240: c08a 013e 7403 f9bd 7a39 78be 8977 b0be
00000250: 37e7 a33e 0952 913e 19cb 823d 4310 583e
00000260: ab48 86bd 3c25 40bd f7be f13d 6523 3fbe
00000270: 1344 243e b86b 72bd 95e2 31bd 1755 863d
00000280: aa7d 41be 3d99 06bd 6f3c 3ebe 7a4a 263d
00000290: 9219 023d 7fc7 9abb 8cf4 d9bc 8f66 843c
000002a0: cda7 51be 9d11 efbd 1d19 0fbd 222b bd3d
000002b0: 2d94 3fbe df92 b0bb 8d24 26be 0251 92bd
000002c0: b676 2d3e a352 ca3e 12df ed3d 793b 2b3e
000002d0: c29a 513e 6ade 9b3e 88ff 8e3e b092 5a3e
000002e0: 28d2 bf3b dab3 673e 6946 a63d f5db 8fbe
000002f0: 3f70 b6bd 6f29 c23e 067e 113e f0a0 a53e
00000300: b6f1 e93d b2b7 e7be 35f6 17bf 3b71 33bf
00000310: c740 9bbe f306 d9bd 4283 1dbf 8f3c 75bf
00000320: d1aa aebe e418 86bf 71a8 9bbf 2f84 dcbf
00000330: 5be6 39bf ae43 ddbe f627 73be 6028 3fbd
00000340: 7e4e c2be 35f9 373f 3f58 bebd fa59 a4be
00000350: 828e 323d 51af 8638 bdc9 ffbe 70a6 dfbd
00000360: 427a d9bd d7c9 6ebe ed22 a03d 7f2b 2f3e
00000370: 5a5a ccbe ba23 21be 9284 f0be ca50 d63d
00000380: d14d 4b3e 8201 9f3e 3231 a43e 429c 063f
00000390: 48ee 603e e8b7 ac3e b8c7 1e3d a3b3 3e3e
000003a0: 504c 97be 3530 b6bd 634f f4be 58b8 c43d
000003b0: 380d e33e b2ab cb3d 9ef2 8bb9 e59a 1e3e
000003c0: 07b8 163e bfba ca3c 7659 ab3e 83de 333e
000003d0: 8084 afbe edcb ccb9 9d54 b3bc a219 82be
000003e0: c1f2 1bbe 6535 973d e1a6 efbd e500 fc3d
000003f0: 60dc e83c e352 aa3c a4cb 33be 7044 07bd
-0.41058937 -0.019444525 -0.049915437 0.12506086 0.16479369 0.18027134 -0.025549537 0.3697
0.36370322 0.20363118 0.12550808 -0.63667274 -0.24503529 0.29530814 0.28947347 0.38982663
0.26361543 -0.23856159 0.03134086 0.32871246 0.4891206 0.31766787 0.40857133 0.042573262
-0.23534308 -0.050144933 -0.03209626 -0.3302789 -0.24249879 0.21614262 -0.1334774 -0.21578193
0.24179739 -0.0998297 0.038403537 -0.0751924 0.10472396 -0.06472429 0.104634345 -0.15096007
0.02264406 -0.03802077 0.206624 -0.1790597 0.07154409 0.08949619 0.12559555 0.41698343
0.468194 0.3215637 0.25112483 0.12449491 0.051669724 0.10080332 0.085819066 0.29359376
-0.0044415034 0.2302509 -0.11667269 -0.1263047 0.3779234 0.42711693 0.50641906 -0.21385893
-0.5994973 -0.67326677 -0.4221641 0.053274404 0.31182763 0.17753689 -0.041782275 -0.2312881
0.06681989 0.3474882 0.10238225 0.06506448 0.1515088 -0.50027144 0.2522329 0.2029491
0.11147074 0.21230303 0.19596478 0.21146673 0.30688018 0.18272181 0.17297782 -0.38535848
0.5356908 -0.4992225 0.021697413 0.070013456 -0.4987045 -0.4682105 0.040510453 0.1664413
0.08938066 0.5981063 0.6574819 -0.04309036 0.27799678 0.0953857 -0.45632157 -0.14067361
0.25896087 0.040688347 0.18119025 0.12359724 0.08189147 0.19553795 0.49024922 0.034876347
0.13561748 -0.38829717 -0.77362 -0.035892516 0.2920072 0.38353482 0.20186411 0.5837783
0.5111055 0.41298676 0.19733018 -0.3045017 -0.14212708 -0.021580879 -0.3594419 -0.12956353
0.05327425 -0.19803683 -0.06436977 0.09657741 -0.16894765 -0.029871061 0.2969492 -0.09144421
0.04616223 -0.029910067 -0.15925777 -0.07282609 -0.08037516 0.30869448 0.3015546 -0.09817504
0.12650585 -0.12158862 -0.24240676 -0.34466198 0.3201234 0.283829 0.06386394 0.21099953
-0.06556829 -0.04691051 0.11804002 -0.18665846 0.16041593 -0.05918476 -0.043428976 0.06559198
-0.18895593 -0.032860983 -0.18577741 0.04059837 0.031762667 -0.004723489 -0.026605867 0.016162185
-0.20474167 -0.11673281 -0.03493606 0.092367426 -0.18708868 -0.005388602 -0.1622488 -0.07144357
0.16939816 0.39516172 0.11614813 0.16721906 0.20469192 0.30443126 0.2792933 0.2134502
0.00585391 0.22627202 0.081188984 -0.280975 -0.08908128 0.37922236 0.1420823 0.32349348
0.11423056 -0.45257336 -0.5936006 -0.7009465 -0.3032286 -0.105970286 -0.6152841 -0.9579553
-0.34114698 -1.0476346 -1.2160779 -1.7227839 -0.7261712 -0.43215698 -0.23745713 -0.046669364
-0.3795051 0.71864635 -0.09294175 -0.32099897 0.043592937 6.422273e-05 -0.49958602 -0.10920417
-0.10619022 -0.23319183 0.078191616 0.17106436 -0.39912683 -0.15736285 -0.46976143 0.10464628
0.19853903 0.31055838 0.32068783 0.5258218 0.21965897 0.3373406 0.038764685 0.18623213
-0.2955041 -0.088959135 -0.47716817 0.09605473 0.44346023 0.09944858 -0.0002669291 0.15488775
0.14718638 0.02474725 0.3346669 0.1756535 -0.34280777 -0.0003906185 -0.021890933 -0.2541018
-0.15229322 0.07383231 -0.117017515 0.12304858 0.028425395 0.020791477 -0.17558151 -0.03302425

layer1.bias f4 [64]
00000000: caa9 e5bc 2a7e eabe d3e3 733e a8a4 eebd
00000010: 4bae 4abe 35f5 863e 110d 243e c493 9ebe
00000020: e490 a83e befe 583e 8ef2 83be b565 a33e
00000030: 3c6b 433d 4048 f23d 2d67 46be 2f93 21be
00000040: a8c1 7dbe 79bc a93e a21d 0e3f a1db 923e
00000050: 342e b63d 1337 553e 6b4b 303e 2e24 aebd
00000060: b7e2 983e d96b 5e3e e400 c33e 211e 433e
00000070: 7794 513e 0547 b43c e14d 573d 987c 843e
00000080: 7381 14be 79ba 603e 2a56 bb3e 5ceb 9fbc
00000090: 1724 87be 792f e2bd b9f1 793b 6996 98bc
000000a0: dec6 823e 4c1a f8bb da37 473e d021 903e
000000b0: 17b0 89be 49f8 f03d 7424 7a3e 36fd 933d
000000c0: e19e 383e 8de9 ed3e 4edc 913b c91d 303e
000000d0: 8d35 613e 1f08 2fbb fc65 b43c 6c65 12bd
000000e0: d7c4 3bbe 1162 33be 8b20 283d 1e92 8c3e
000000f0: b42e 2cbd 2050 53be 93d9 81be 19f6 2fbe
-0.028035063 -0.4579938 0.23817377 -0.116524994 -0.1979305 0.26358953 0.1602061 -0.3097211
0.32923043 0.21190926 -0.25770992 0.31913534 0.04770969 0.11830187 -0.19375296 -0.15778802
-0.24780905 0.33151606 0.55513966 0.2868319 0.08895531 0.2082179 0.1721627 -0.085029945
0.2986047 0.21720828 0.38086617 0.19054462 0.20466791 0.022006521 0.052564505 0.25876307
-0.14502506 0.21946134 0.36589175 -0.019521408 -0.26394722 -0.11044211 0.0038138463 -0.018626409
0.2554235 -0.007571494 0.194549 0.28150797 -0.26892158 0.11766107 0.24427968 0.072260305
0.18029357 0.46467248 0.004451311 0.17198862 0.21993084 -0.0026707721 0.022021286 -0.035741255
-0.18336807 -0.17517878 0.04104666 0.2745523 -0.042036727 -0.20636034 -0.25361308 -0.17183723

layer2.weight_ih_l0 f4 [64, 64]
00000000: 390f 343d fd21 6e3e 2215 b4be 62ff ccba
00000010: b9c8 bebe 1935 173f 5b0c a93d 26a2 edbe
00000020: ea8e 89be 53e4 5e3e 8455 af3e d001 afbe
00000030: 6f6e 353e 9455 343e 946d a73d d5ef ac3d
00000040: 2d42 62be 8712 343f ba9e 52bf f342 a0be
00000050: 9298 f13e cee9 b93e df22 e4be 7b78 85bd
00000060: 8d98 f83e bfc6 b83f c527 d4be 8082 1dbe
00000070: a9ce 84be 06a6 0f3f b89b f3be 654d 613f
00000080: e6e3 15bd 68ce 903d 2aa6 20bf 68cb a43d
00000090: 539b a3be 9b65 103e 5b28 1fbd b682 4b3b
000000a0: c961 f6bd a830 46be c653 6a3e c7e2 cc3e
000000b0: 682a dabd 97e0 56be 5b26 5e3e 5702 38be
000000c0: ca11 b63f 9d3d 4bbf 64b3 393f 50d8 3ebe
000000d0: 2a42 0c3f 87b1 49be f153 523f afb5 8dbb
000000e0: cffe 90bc 79c7 08be 9f01 33be b601 c8be
000000f0: 5163 08be e7d5 933c c50b 1e3f 68af 4cbe
00000100: 9f99 e93c a969 193e 0ea0 a83d a38a 0ebc
00000110: 1881 fe3c 06fe 6fbe c310 47bd bd07 2b3e
00000120: dd2b 3d3e cade fe3c e6ce 97bf dc5a 003e
00000130: e157 4dbd 7694 7f3d 39d0 2c3d cd60 743c
00000140: b5e3 1e3d bd9c 7cbe 3eb1 ac3e de92 21bc
00000150: 78bb 583d 7166 c4bd 207a b23d 341b 4f3c
00000160: 5e6d 19bd 8282 abbc bd3f 4a3e d2d7 253e
00000170: 5a03 903d 737e 69be 231f 5fbd 03a6 53bd
00000180: e005 24bd eb9d ed3b fd68 0fbd 51fe 2039
00000190: a472 203d bc64 2fbc 0f47 1abe fc75 103d
000001a0: 4201 fbbd ba6d c5bd a2aa 9dbe 4dca 8fbd
000001b0: 367b 093e a9b2 b83d caac c33d 9061 e03e
000001c0: 425d 86bb b1d0 a83d c418 89be 96d8 fa3d
000001d0: 2975 e73b 1439 283e 0c91 84be b385 e93c
000001e0: 0062 573d 2d8d 133e e728 62bc 3ee8 7f3d
000001f0: 6fa6 1fbd c87a 25bd 13b0 2cbf 4f9e 67bd
00000200: ff77 9c3d 84d6 5b3e abea 04be 9b8b a0bd
00000210: 6c1f c9bd 6133 443d b033 5dbb d442 603e
00000220: a160 bbbd bcf9 993d f690 853d 95ca 08be
00000230: 3755 bf3c d966 e63d a0c0 053d 02b8 a8bd
00000240: b8a5 1a3d 2fea 0a3e 7e3b b9be 8c88 93be
00000250: 29a7 763e f57b 6d3d eb49 45be 3431 42bb
00000260: ed98 603e 54b6 8d3e 0168 edbd d663 81bc
00000270: cb76 8bbe d86a ed3e 4cef e8bd 9432 413d
00000280: 94c1 08bd 1ea2 073e 8dc4 6dbe 0f5e 843c
00000290: 6028 f63d 3191 a93d ea1b 963d 812b 943e
000002a0: 5a7d 22be e035 02be 5839 bb3b 9e23 673e
000002b0: e8a0 693d 5372 b13c 5b4e 683d 9097 c5bd
000002c0: cdc6 d83d 5a9e b9be d121 b43e a364 c83c
000002d0: b650 d33d c913 133e 36f9 473e f869 523d
000002e0: 6933 003c b5bc 9abd f219 a7bd 119b 7cbe
000002f0: bef5 f93c 410d 58bd 41ff a03e 08be d4bd
00000300: 05af 603d 74af bb3d abb4 3c3e 9ed5 013d
00000310: 3b8b b33c ce7b abbe f7b2 c03d e1fc 603e
00000320: 358b de3e 7e7c 3f3c b17d 65bf 42c5 973e
00000330: 6d6f a83b f147 b4bd 0cd3 1cbd 1eba 86bd
00000340: 072b 3c3e 070d 03bf 3d73 3e3f 3790 9b3e
00000350: e49f 1abe be92 51be e917 ac3e 614a 323d
00000360: bc08 8fbc fe89 acbe e20e 983e ebfe 9a3e
00000370: a003 553e 60c9 6ebe d7e3 103e 3885 a8be
00000380: 3b9e 7f3c 3d54 55bb 5bc9 e93d 1562 043d
00000390: 9d10 ac3c 7709 e8bc e1fc 8e3b 389d af3c
000003a0: b7a5 00bd 4168 c93d be30 93be 5a70 c1be
000003b0: 15a5 903d b9a6 203e ca43 c53c cf2d 963e
000003c0: 5dc6 8cbe 31d1 be3e 1a66 51be c363 743e
000003d0: c4da b3be 9971 8a3d b264 e3be a75c b63c
000003e0: a9e4 113d c0de bb3e 9ab6 c23d 4699 7a3e
000003f0: 29b9 693a 7b4e 35bd ca49 82bf 7954 823e
0.04395983 0.23255153 -0.35172373 -0.0015640075 -0.37262514 0.59065396 0.0825431 -0.46412772
-0.26866847 0.21766786 0.3424493 -0.3418107 0.17717908 0.1761077 0.08175197 0.08444182
-0.22095557 0.7034077 -0.8227345 -0.31301078 0.47186714 0.3631119 -0.44557855 -0.065171205
0.48553887 1.4435652 -0.41436592 -0.15381813 -0.2593892 0.56112707 -0.4757974 0.8800872
-0.036594294 0.07070619 -0.62753546 0.08046609 -0.3195444 0.1410126 -0.038856845 0.0031053252
-0.1203037 -0.19354498 0.2288352 0.40016767 -0.106526196 -0.20984112 0.21694319 -0.17969643
1.4224179 -0.7939089 0.72539353 -0.18637204 0.5478846 -0.19696628 0.82159334 -0.004324637
-0.017699627 -0.13357343 -0.17481087 -0.39063805 -0.13319136 0.018046333 0.6173671 -0.19988787
0.028515635 0.14981712 0.08233653 -0.008700046 0.031067416 -0.23436746 -0.04859997 0.1670217
0.18473764 0.031112093 -1.1860015 0.1253466 -0.050132636 0.062397443 0.042190764 0.014915657
0.038791377 -0.24669166 0.33728975 -0.009861676 0.05291316 -0.09589852 0.087147 0.012640763
-0.037457816 -0.020936254 0.19750877 0.1619561 0.07031889 -0.22802143 -0.054473054 -0.051671993
-0.040044665 0.0072514913 -0.035012234 0.0001535353 0.03917183 -0.010705169 -0.15066169 0.03526877
-0.12256099 -0.09640069 -0.30794245 -0.07021008 0.13425907 0.09018452 0.09554441 0.43824434
-0.0041004727 0.0824293 -0.26776707 0.12248342 0.007063527 0.16428024 -0.25891912 0.028506136
0.052583694 0.14409323 -0.013803697 0.062477343 -0.038977083 -0.040400296 -0.6745617 -0.05654746
0.07640075 0.2146855 -0.12980144 -0.07839128 -0.09820446 0.04790056 -0.0033752732 0.21900493
-0.0914929 0.07518336 0.0652179 -0.13358529 0.023356063 0.112500854 0.032654405 -0.08238222
0.037755698 0.13565896 -0.361782 -0.28815114 0.24087204 0.057979543 -0.19266479 -0.0029631378
0.21933337 0.27678168 -0.11592103 -0.015794676 -0.2723907 0.46370578 -0.11373767 0.047167376
-0.033387735 0.13245437 -0.2321951 0.016158132 0.1201942 0.08279646 0.07329543 0.2893944
-0.1586813 -0.12715864 0.005713623 0.2257218 0.057038218 0.02166096 0.05671535 -0.09648049
0.10584793 -0.36253625 0.3518205 0.02446205 0.10318129 0.14363016 0.1952866 0.05137059
0.007824757 -0.07555524 -0.081592456 -0.24668528 0.030512687 -0.052747015 0.31444743 -0.10387808
0.05485441 0.091643244 0.18428294 0.03169786 0.021916976 -0.33492893 0.09409135 0.21971466
0.43465582 0.011687396 -0.89644915 0.29642683 0.005140236 -0.08802784 -0.038287207 -0.06578468
0.18375789 -0.51191753 0.7439459 0.30383465 -0.15100056 -0.20466134 0.33611992 0.043527965
-0.01746022 -0.3369903 0.29698855 0.30272612 0.20802164 -0.23319006 0.14149414 -0.32914138
0.01560169 -0.003255143 0.11415359 0.0323201 0.021004016 -0.028324826 0.0043636416 0.021437272
-0.031408038 0.09834338 -0.28748125 -0.3778103 0.07062737 0.156886 0.024080176 0.29331824
-0.2749509 0.37268975 -0.20449105 0.23866181 -0.35127842 0.06759948 -0.44412762 0.022260977
0.035618458 0.36693382 0.09507485 0.24472532 0.00089158356 -0.044264298 -1.0178769 0.25455073

layer2.weight_hh_l0 f4 [64, 64]
00000000: 75d0 45bd a5b5 fcbc 89d6 1bbd 2c13 66bd
00000010: be02 0dbd 5a21 633c 33d8 15bb bc39 eabd
00000020: 37d5 f63c 3b96 9e3d 4daf 893d 2d57 f03c
00000030: ed94 1b3d 5658 24bd f037 0abd a1b7 64bd
00000040: 432e b53d e00c 9bbd f865 863d f520 f8bd
00000050: a742 5abd 7b47 0abd b870 c7bd df13 6dbd
00000060: 1e2b 2b3d 8716 0a3d 407b 7dbd d7a3 d2bd
00000070: a9c5 48bc c9b3 9f3d 55f6 2abc 505f 3b3c
00000080: 4731 913d bc93 b53d 0f4c 90bd 3df5 423c
00000090: 51d5 e9bd 3817 453d 2253 18be 530b 0cbd
000000a0: 0240 e83d 4ec1 403c d8ba 41bb c5c0 543d
000000b0: 6882 03be 855f cfba 295c f23c b0e9 273d
000000c0: b1d0 08be 25cb 94bd 4bf2 5f3d fae7 e43b
000000d0: 38af 41bc f4ae 233e a3e8 b7bc 5f9b c13c
000000e0: 2619 fb3c 5749 143d fa90 d9bd 5c88 9cbd
000000f0: f452 103c 36b0 2c3d 6d24 1abd 72dc 34bd
00000100: 166e 59bd 1d33 873d 6c92 5e3d 6313 19bd
00000110: 01b7 553d b5de d2bd 4cae 2a3d 4412 0d3d
00000120: c128 94bc f5ed 8dbd 4e0b b93d 3635 4ebd
00000130: 889a 4d3d f67f 233d f31e fdbc df7b 983c
00000140: da39 223d 9fd3 563c 23eb 02bc 4e98 903d
00000150: cd05 073d df6f 3b3e 6f12 d0bc 748a ed3c
00000160: ed60 ee3d 2cf7 8fbd 384b 563d 6797 5c3e
00000170: 0666 fabc 3c3f 6a3c c358 b0bd bbbd a2bd
00000180: 40ca bebd 0733 57bd 3d7c 363e d243 013d
00000190: 36bb b33c 8f95 ca3c 346b 42bd bdb5 223d
000001a0: 18d7 85bd d6f6 063e b141 873b 94fc 72bc
000001b0: aef2 23bd 0ea6 883c b518 083e fd7d 71bc
000001c0: 2962 18bd e5b4 f63d cde3 703d 5b9d ff3d
000001d0: 8242 ce3b a43c 1bbd 94b0 4a3d 4a9c 923c
000001e0: 9607 9e3d c9d3 0d3e 3f70 023e 49fd da3b
000001f0: f300 073e ddd2 8fbd 0a65 2e3d 26f2 c73b
00000200: d4a4 31bc ef50 ccbd 719c 5a3c 0b26 953d
00000210: 4ba9 0c3d 7476 113d 3ade 28bd b59e c13c
00000220: f913 dc3d 8a42 823c 58e8 cf3c 0583 433d
00000230: 87a0 27be d09f 9abd 32b8 f3bc 4c52 d53c
00000240: a68a 2a3e f61d e43d 9f03 5d3d aae2 b93d
00000250: cd56 10be 98d4 b3bc 9648 52ba d4b0 adbd
00000260: d802 f33b 8167 8dbc 8388 8d3c fd28 6fbd
00000270: b80c 28be 9380 e63c 2486 b83d 451d dfbd
00000280: 7af1 403c 9e42 c83d e7d5 57bd ac55 07bd
00000290: 4734 db3d 0912 7fbd c70a f0bd 215e 28bd
000002a0: ec9c 343e 6b10 ae3c 1844 0fbe b679 fb3c
000002b0: 9800 50be bc61 ae3d f71d 813c 90ba 183e
000002c0: daff 72bd 3f8e ddbd 91ae 09be 3c7d c6bd
000002d0: a582 9b3d 7e95 ebbd 2bb6 643b ec07 043d
000002e0: e315 33bd d822 28bc 6100 e2bc 7197 c2bc
000002f0: 6435 08be a056 b03d 8fcf c83d 673b 81bd
00000300: 8709 c73c 671c c63d 8cb9 c7bc d005 023d
00000310: 0681 ad3d a080 853a 12be 093e 0d25 61bc
00000320: d974 ebbd ba6b 62bc 7661 c33d 5a14 dbbd
00000330: a0fd b83d df36 50bc 65a2 adbd f3a4 8bbd
00000340: ab7a 95bd 7b6f d53c 4fe0 fcbd 1f0c 723d
00000350: b613 433d 9dfe 8f3d 5190 2fbd 5b7a 173c
00000360: 3e40 283d 82ae f8bb 5692 ff3d 3dac cc3c
00000370: 650b 28bd b1ee 47ba c56c 46bd df9f 98bd
00000380: 055c 69bd d238 e7bc 1a87 023e dc93 203d
00000390: 8bb1 23bd 9a45 1d3d a5b3 083c 515d 38bd
000003a0: 9c47 a6bd b983 0c3d 9d2e 833d 3632 79bc
000003b0: dd58 a0bd c8fd c63c 2efb b5bc b875 cf3d
000003c0: b097 85bb 59a8 d33d 0f50 133c cf8c 9bba
000003d0: 7b79 99bc f07c cbbc 2a75 943d 5b2e cd3c
000003e0: 5c23 ecbd 2a0d c83d c256 2f3d c773 623d
000003f0: d137 9a3d 9a7c ecbd 1d63 ef3c c2b9 0cbc
-0.048294503 -0.030848334 -0.038046394 -0.056170627 -0.034426443 0.013862932 -0.002286446 -0.11436793
0.030130966 0.07743498 0.06722889 0.029338444 0.037983824 -0.040123306 -0.033744752 -0.055839185
0.08846714 -0.07570815 0.06562418 -0.12115661 -0.05328622 -0.033759575 -0.09738296 -0.05788028
0.041789167 0.03371289 -0.06188512 -0.10285156 -0.012254157 0.07797963 -0.010434707 0.0114362985
0.07089477 0.08866069 -0.07045757 0.01189929 -0.1141764 0.048117846 -0.14875463 -0.034190487
0.113403335 0.011764837 -0.002956083 0.05194165 -0.12842715 -0.0015821314 0.029584961 0.040994346
-0.1336086 -0.07265309 0.054674428 0.0069856616 -0.011821561 0.15984708 -0.022449797 0.023633657
0.03065164 0.036202755 -0.10623355 -0.07643196 0.00880884 0.042160235 -0.037632395 -0.044155546
-0.0530835 0.06601546 0.054338858 -0.037372004 0.05217648 -0.10296384 0.04167013 0.034441248
-0.01808584 -0.06930152 0.09035359 -0.050343715 0.0501962 0.039916955 -0.030898547 0.018613754
0.039605953 0.013111978 -0.007990631 0.070603 0.032964516 0.18304394 -0.025399415 0.028996684
0.11639581 -0.07029566 0.052317828 0.2154213 -0.030566227 0.014297303 -0.0861068 -0.079463445
-0.0931592 -0.052538898 0.1782083 0.03155882 0.021939855 0.024729518 -0.047465518 0.0397241
-0.065351665 0.13180098 0.004127704 -0.014830727 -0.04002636 0.016680744 0.13290675 -0.014739511
-0.037202988 0.12046222 0.058810998 0.12481185 0.0062945494 -0.03789963 0.049484804 0.01789679
0.07716291 0.13850321 0.12738131 0.006683026 0.13183956 -0.07022641 0.042576827 0.0061018644
-0.010842521 -0.09976374 0.013342963 0.07282647 0.034341138 0.035513356 -0.041227557 0.023635248
0.10745997 0.015900869 0.025379345 0.04773237 -0.1636983 -0.07550013 -0.029750917 0.026040219
0.16654453 0.11138527 0.05395853 0.09076436 -0.14095612 -0.021951959 -0.00080216804 -0.08480993
0.0074161105 -0.017261269 0.017277008 -0.0583887 -0.16411102 0.02813748 0.0900996 -0.108942546
0.0117763225 0.09778331 -0.052694228 -0.033040687 0.107033305 -0.06227306 -0.117208056 -0.041105393
0.17637986 0.021248063 -0.1399082 0.030697685 -0.20312726 0.08514735 0.015761359 0.14914918
-0.05932603 -0.10818147 -0.13445498 -0.09691855 0.07593278 -0.11503123 0.003489862 0.032234117
-0.043722045 -0.010262214 -0.027588071 -0.023753854 -0.13301617 0.086102724 0.09805214 -0.06310158
0.024296535 0.09673386 -0.024380468 0.031743824 0.08471875 0.0010185428 0.13451412 -0.013741744
-0.11496896 -0.013819629 0.095400736 -0.10697241 0.0903275 -0.012708395 -0.0847824 -0.06818571
-0.07298788 0.026054135 -0.12347471 0.05909359 0.04762622 0.070309855 -0.04286224 0.00924548
0.04107689 -0.0075891623 0.12479083 0.024984473 -0.04102649 -0.00076268153 -0.048443574 -0.07452368
-0.056972522 -0.028225336 0.1274685 0.03920351 -0.03996424 0.038396455 0.008343612 -0.04501087
-0.08119127 0.034305308 0.06405375 -0.015209725 -0.07829449 0.024290934 -0.022214498 0.10129875
-0.0040769204 0.10334844 0.008991255 -0.0011867526 -0.018734684 -0.024839848 0.0724891 0.025046518
-0.11530182 0.09768136 0.042807348 0.055286195 0.075301774 -0.11547203 0.029222066 -0.00858921

layer2.bias_ih_l0 f4 [64]
00000000: f03d 59bd 8f5f 9fbd 9f24 343d 2744 10bc
00000010: 1437 b0bc 6e67 80bb ced6 8abd a036 d1bd
00000020: c58c d03d 6eb9 2fbd 48ca 68bd ae5c f63c
00000030: 1512 e8bd faf4 5e3d 7275 42bd a4de 9e3d
00000040: c393 ddbd 1773 d63a 6cf4 79bd eee4 ee3a
00000050: ce55 783d f46f 3dbe 80f9 04be 3665 d9bd
00000060: e4b5 80bd c88e c9bd 392d ae3c b89b 27bd
00000070: 162b 9a3d 9b2d 5bbc efab 283d 2d86 2bbd
00000080: c4bd 003d d023 453d d81c 3dbe 98df a83d
00000090: 0b9f c23d 4273 06bd 16c8 223c 6474 3abe
000000a0: 5887 533d eda4 8ebc 3b0e 08be b536 653c
000000b0: 06cb 083d 3d75 b7bd 590b 48be 2202 64bd
000000c0: 0fd7 713e 9524 52be d17c 3fbe 342f 9cbd
000000d0: 1de2 143d 845a d3bd 7d6e 253e 6a5f d73d
000000e0: 8adc a53d 220a b7bd 7dae 6fbd d3fd e8bc
000000f0: 25ff 8fbd 78ca a53c b66a bbbc 5f9e 52bd
-0.053037584 -0.07781898 0.043980237 -0.008805311 -0.021510638 -0.00391858 -0.06779252 -0.10215497
0.101831 -0.04290145 -0.056833535 0.03007349 -0.11331574 0.054432847 -0.047475286 0.07757309
-0.10819199 0.0016361204 -0.061024114 0.0018226185 0.060628705 -0.18499738 -0.12985802 -0.106150076
-0.06284693 -0.098416865 0.021261798 -0.04091999 0.07527749 -0.013377572 0.041179594 -0.041876007
0.031430975 0.048129857 -0.18468034 0.08245772 0.09502991 -0.032824762 0.0099353995 -0.18208462
0.051642746 -0.017412627 -0.13286678 0.013990094 0.033396743 -0.08957908 -0.19535579 -0.055666097
0.23617195 -0.20521767 -0.18699957 -0.07626191 0.03634845 -0.10319999 0.16155429 0.10516246
0.08098705 -0.089374796 -0.058516014 -0.028441345 -0.07031087 0.020238146 -0.022878032 -0.051420566

layer2.bias_hh_l0 f4 [64]
00000000: d0d3 fd3c e65b 3cbe f6cd e83c b692 74bd
00000010: 598b 02be 0c67 813c 5622 c6bd 4436 c73b
00000020: b8e6 993d 11a4 06be f6fe a6bc b95f 9f3c
00000030: dbf7 c2bd f681 013d e341 13bd 38c1 b43d
00000040: c014 f4bd 4763 5dbd e0ac 7bbd 6051 4c3d
00000050: a39a 0f3d b9a7 1bbd f412 e6bd b82f fbbd
00000060: ae8b c8bc 64a8 39bd 4628 eebd 956d 2ebe
00000070: 4242 a8bc ee95 11be 2bfb d53c d8e5 eebc
00000080: 7c0c 5b3d 79f5 183e ca6b 13be b398 20bd
00000090: 9879 263d 7a8e a23b 9f4d 3f3d 3843 b0bd
000000a0: 5a70 983d cf0e ccbd 367b ebbd 3cca 69bd
000000b0: 53d9 343d 16ab c5bd 54c6 9abd 855f 773d
000000c0: d4c2 293e afe4 29be 116d e4bd 9e09 edbd
000000d0: 6219 febd 40d6 49bc a6fa 963d 015e 993c
000000e0: cec2 743c 7447 3ebe f2a0 1abd 8677 503d
000000f0: 68f3 023c 4948 73bd bdd5 fcbc 68cc 0fbd
0.03098479 -0.18394431 0.028418522 -0.059710227 -0.1274847 0.015796207 -0.09674518 0.006079467
0.07514709 -0.13148524 -0.020385247 0.019454824 -0.09519931 0.03161808 -0.035951506 0.08825916
-0.1191802 -0.054049756 -0.061444163 0.049882293 0.035059582 -0.03800175 -0.11234084 -0.12264961
-0.024480667 -0.045326605 -0.11628775 -0.1703399 -0.020539407 -0.1421735 0.026120743 -0.029162332
0.053478703 0.1493739 -0.14396587 -0.039208125 0.040643305 0.004960832 0.046704885 -0.08606571
0.07443304 -0.09963762 -0.1149811 -0.05707763 0.04415257 -0.09651773 -0.07557359 0.06039383
0.16578227 -0.16591142 -0.11153615 -0.115741 -0.12407185 -0.012319148 0.07372026 0.018721582
0.014939023 -0.18581945 -0.037751146 0.050895236 0.007992603 -0.05939511 -0.030863637 -0.035107046

layer3.weight f4 [5, 64]
00000000: e184 cf3f 96c3 d3be c5a9 8e3f 78f8 58be
00000010: cb02 15bf ee95 b43f 63d7 18bf 7148 2bbf
00000020: 97d1 f33f 68d1 babe 8a2f a43d 4505 f83f
00000030: 2a5e 9a3f 483c 863f 07c5 f4be 81c5 0640
00000040: 9146 48bf 51d8 56be 9bac 59be 8053 10bf
00000050: 1576 20bf d6d4 9abd e132 15bf 6f15 9fbd
00000060: 24f0 96bd 6574 26bf 649e d7be 1db6 2bbb
00000070: cf24 0c40 b5ea d0be 8dc6 0c40 e507 0cbf
00000080: 2609 be3f e1dc ea3f d851 563d 1745 0fbf
00000090: 847b a93f 1697 b03f 591f 10bf 68bb 8abc
000000a0: e3ce 7c3f 7b8d 2ebf 194e b5be 78dc 25bf
000000b0: 8d3e 4bbd 0271 39bf 58b1 a63d 00f3 dabe
000000c0: a519 68be 2701 9abe 59bc 153d 86eb bdbe
000000d0: 01cf f1be 0db1 e3be 9c56 f93f a08b e23f
000000e0: a1d5 e6be 9f80 ca3c c5f9 b9bc f085 9a3f
000000f0: 816e 213f e2e3 2bbf ef6a b9be 85a8 db3f
00000100: caba f13f 0249 c7be c257 883f b76d a7be
00000110: 1dd6 5a3d 8492 ae3f 8723 eabe 0baa 34bf
00000120: 01e9 0640 7337 b8be cc8c 373d b7c3 fe3f
00000130: e2f6 763f c174 233f 1b3e 1dbf f099 0240
00000140: fbc5 09bf ee1c d5be e835 e9be 7e8d 1bbf
00000150: 4fc7 25bf d028 e63c f994 47bf f8ac 4ebd
00000160: e0e7 1cbd 3905 04bf 7234 c0be 0de0 d3bc
00000170: 8447 1140 9cea f5be 4cf5 0d40 ab78 f1be
00000180: 404f d03f 952e ce3f 1824 3c3d 7843 47bf
00000190: 1c0d 9a3f 07d8 7f3f f586 15bf 5bfa e53b
000001a0: 82f4 8d3f b719 29bf 9324 b7be e66d 4fbf
000001b0: e116 383f 8fcc 30bf 7bd1 b0bc cb4a adbe
000001c0: 17c3 8bbe 979f 02bf d630 013d c3ad 44be
000001d0: 2bfe 02bf 21d0 27be 1b5c d03f f8c2 0040
000001e0: d851 acbe 4437 7c3d 3b13 593b b3e3 953f
000001f0: de7d 153f 114e 27bf 5da0 06bf 4319 c73f
00000200: 6eb9 df3f ea9a 83be b60a 863f 7796 15bf
00000210: cf93 57bf 77fd d73f 4213 53bf fa59 99bd
00000220: aae1 f73f 3c1e 0dbf f76b 90bb 0922 0540
00000230: 7941 663f 7e0c 493f ec2e 7dbf 6793 0540
00000240: c191 70bf c46f bfbe 6a30 343f e31a 11bf
00000250: 70ff 25bf bdaf a4bd e6e2 e8be d27d 57bd
00000260: 3f31 c9bc bd48 5fbf c076 d4be ec2a 3bbd
00000270: d6c7 1440 1740 c5be 3e79 0b40 4d2e 5bbf
00000280: 9c54 da3f 14c9 e03f a9a9 943c 704f 19bf
00000290: 86b4 bf3f 741a 623f 0a12 a8be ed38 cbbc
000002a0: 2586 813f 055f 25bf 2a29 4dbe d99e 27bf
000002b0: e6ba 9cbe f5cb 15bf d03f 0b3c 7b7f b83d
000002c0: ac68 81be 9825 b0be c02f c63c c611 3fbe
000002d0: dac5 a0be 0d36 87be 1183 c23f c65e eb3f
000002e0: a59c f0be 1d3c 7cbd dd93 dbbd 6569 973f
000002f0: 20ac 293f 708f 24bf 0f35 c7be 56cf de3f
00000300: c1f5 da3f 8001 4fbe 183f a63f ad55 bdbe
00000310: 5a73 f3be 6f1e ce3f 72ba 2fbf 6fc6 0cbf
00000320: 4341 0740 40a3 dbbe 0998 843b 6749 f43f
00000330: 7b97 4f3f 1e36 233f f5bf c8be 395a 0040
00000340: e2da 21bf d9b0 27be 1cd9 04bf fc8a 13bf
00000350: 9938 5abf a58d 383d bd60 f6be 73ba 14bd
00000360: dea9 b1bd e368 c8be 28d0 b7be 18cb 493c
00000370: 36bd 0740 8b9d d8be 4ff6 0440 521f d5be
00000380: 2094 cb3f fa03 e63f 2cea 9d3d 8661 b5be
00000390: 1601 bf3f 315b 393f b1a5 1ebf 6e48 d23d
000003a0: cfe0 ab3f e247 35bf fb3f c6be 10b6 60bf
000003b0: 1351 ec3d 1f92 58bf ab0c 4fbd afe3 b8be
000003c0: 140b 1ebf e869 74be 7464 5bbd 43af b1be
000003d0: 3e6e 0abf b1c3 cabe 84a4 bf3f dd72 ed3f
000003e0: bfdf d0be 1281 983d da99 64bc daf9 d23f
000003f0: 13ef 023f 20b0 22bf 7200 fcbe acd0 bd3f
1.6212426 -0.41360158 1.114556 -0.21188533 -0.58207387 1.4108255 -0.59703654 -0.6690741
1.9048337 -0.3648789 0.0801688 1.9376608 1.2059987 1.0487146 -0.4780657 2.1058047
-0.78232676 -0.20980956 -0.2125725 -0.5637741 -0.6268018 -0.075601265 -0.5828076 -0.0776776
-0.07370022 -0.65021354 -0.4211303 -0.0026201077 2.1897466 -0.40804067 2.1996186 -0.54699546
1.4846542 1.8348657 0.052324146 -0.559648 1.3240819 1.3796108 -0.5629783 -0.016935065
0.98753184 -0.6818463 -0.35411146 -0.64789534 -0.0496202 -0.7243806 0.081392944 -0.4276352
-0.22666033 -0.30079004 0.036556575 -0.37093753 -0.47228244 -0.44471017 1.9479556 1.769886
-0.4508486 0.024719534 -0.022702107 1.2072124 0.6305924 -0.67144597 -0.36214396 1.7160803
1.8885128 -0.38922888 1.0651782 -0.32700893 0.05342685 1.3638463 -0.4573023 -0.70571965
2.1079714 -0.35979804 0.04481201 1.9903477 0.96470463 0.6385003 -0.6142289 2.0406456
-0.5381772 -0.41623634 -0.4554894 -0.60762775 -0.64757246 0.028095633 -0.7796169 -0.050457925
-0.03830707 -0.5157047 -0.37540013 -0.025863672 2.26999 -0.48030555 2.2180967 -0.47162375
1.6274185 1.6107966 0.04593286 -0.77837324 1.2035251 0.99939007 -0.58409053 0.00701837
1.1090243 -0.6605486 -0.3577009 -0.81027067 0.7190991 -0.6906213 -0.021584263 -0.33846125
-0.2729728 -0.51024765 0.031540714 -0.1920691 -0.5116908 -0.16387989 1.6278108 2.0119
-0.33656192 0.061576143 0.0033123035 1.1710113 0.58395183 -0.65353495 -0.52588445 1.5554584
1.7478464 -0.25704128 1.0472019 -0.58432716 -0.84209913 1.6874226 -0.8245126 -0.07487865
1.9365742 -0.5512426 -0.0044074017 2.0802023 0.89943653 0.78534687 -0.9889972 2.0871217
-0.939724 -0.37389958 0.70386374 -0.5668165 -0.6484289 -0.08041332 -0.4548561 -0.052610226
-0.024559615 -0.87220365 -0.4149685 -0.04569523 2.324697 -0.3852546 2.179275 -0.85617524
1.7057071 1.7561364 0.018147307 -0.59886837 1.4976966 0.88321614 -0.32826263 -0.024807418
1.0119063 -0.64598113 -0.20035234 -0.6547676 -0.30611342 -0.5851434 0.008499101 0.0900869
-0.2527517 -0.34403682 0.02419269 -0.18659124 -0.3140095 -0.26408425 1.5196248 1.8388298
-0.4699451 -0.061580766 -0.10721562 1.1829039 0.66278267 -0.6428137 -0.38907668 1.7407024
1.7106248 -0.20215416 1.2988005 -0.36979428 -0.47548944 1.6103038 -0.6864387 -0.54990286
2.1133583 -0.42897987 0.0040464443 1.9084901 0.81090516 0.6375445 -0.39208952 2.0055068
-0.63224614 -0.16376056 -0.5189378 -0.5763395 -0.8524261 0.045056958 -0.4812068 -0.036310624
-0.08674978 -0.39142522 -0.35900998 0.012316488 2.1209235 -0.42307696 2.0775335 -0.41625458
1.5904579 1.7969964 0.0771068 -0.35425967 1.4922206 0.7240477 -0.61971575 0.10267721
1.3427981 -0.7081281 -0.38720688 -0.87777805 0.11538901 -0.84597963 -0.05054919 -0.3611121
-0.61735654 -0.23868525 -0.053562596 -0.34704027 -0.54074466 -0.39602426 1.4972081 1.8550678
-0.40795705 0.07446493 -0.013952697 1.6482499 0.5114605 -0.63549995 -0.4921909 1.4829307

layer3.bias f4 [5]
00000000: c832 8e3f 0b57 a13f 187a c03f 5bb3 d83f
00000010: d3dd 7d3f
1.1109247 1.2604688 1.503726 1.6929735 0.991666
