ch08/car_racing_dqn_300.pth (torch, 40850 bytes, 8 tensors)

layer1.weight f4 [64, 11]
00000000: 772e a1be 04f7 ac3d d394 6d3d 4789 643e
00000010: e141 6d3e 5f5f 463e fb6d 1fbc 0123 9b3e
00000020: c7b2 c23e 0328 823e 3e5e 3b3e c066 28bf
00000030: 3ffe 81be 453b 6a3e 93d0 133e 7a44 a03e
00000040: ac9b 803e 9554 75be b05e 9cbc 12f7 a83e
00000050: 5342 1d3f a4c2 ec3e 71e2 c73e dbf9 af3d
00000060: 0f64 40be e70b c8bd a4b2 97bd 5bd6 bdbe
00000070: 0c96 9dbe a301 2b3e 56cc 60be 9a71 a7be
00000080: 4f6f 243e c9ae ddbd 7795 2a3d 41f2 a6bd
00000090: 126c e83d b889 8fbd bb39 e83d 2498 27be
000000a0: 1811 c93c f8db 28bd eb52 653e c4be 46be
000000b0: a937 243e 8b2a a43d a99d a23d 4a97 d13e
000000c0: fe90 fa3e 8689 ab3e f6f6 803e 6d14 343e
000000d0: 48db 8b3c 099a 863d fcaa cf3d f604 953e
000000e0: 90c0 283d e380 be3e ac12 47bd 8ec9 10be
000000f0: 735b be3e b92a e53e 79c2 ff3e 8845 35be
00000100: f400 0fbf ff77 41bf e0bf e4be 707a a83d
00000110: 5ae2 b13e 4dc0 483e 482f 3fbc e1d3 5cbe
00000120: 1609 e53d 962e 763e 7216 2a3d f7f1 8a3d
00000130: db95 203e 0d49 01bf 52bd 273e 4499 a23d
00000140: a902 823d 6520 5e3e 3f93 513e 84dd 4a3e
00000150: 6270 b43e f150 263e b75c 2f3e da50 a6be
00000160: 1138 1d3f 5c1d 02bf 3640 28bc 959e 11be
00000170: 10a5 24bf 1794 00bf 5642 a63d 78e5 423e
00000180: fc0b c8ba 601d fe3e e116 1e3f fb56 ddbd
00000190: cf33 7e3e a8ac 9c3d 920c ebbe e1cb 05be
000001a0: d117 8b3e b6b3 27bc 3f1b 5c3e 7dee f13d
000001b0: fde7 8f3d e3f4 423e 1d93 053f 9776 653d
000001c0: 9a76 193e 60b1 a2be a1ed 35bf d481 623c
000001d0: 662a 9f3e 9e38 c53e f4da 913e 5590 3a3f
000001e0: f92f 1b3f 6c2b ce3e 36df 813e 9084 85be
000001f0: f982 38be d701 6abd abdd d5be c337 4cbe
00000200: 7495 aabc 719a 8bbe b7da 1dbe 7a38 883c
00000210: 780b 26be b297 94bc 379c 973e be75 debd
00000220: ff45 ae3c 7c7e 4abd 4e85 febd 1e80 87bd
00000230: 711e 66bd 19c7 ca3e fb77 c73e 44c6 debd
00000240: 523d 183e 9044 9bbd 8532 b6bd 0a65 8bbe
00000250: 174d ae3e c984 6f3e c878 dc3d 6934 6b3e
00000260: cd89 74bd 75dc 16bd 7a2a 033e 7536 4fbe
00000270: 1409 323e a78b 83bd 30d1 40bd 2f83 913d
00000280: 0ebf 51be e8ce 11bd bb3d 4ebe 9c3e 343d
00000290: da08 0d3d 61cf a7bb 8155 ecbc b55d 8f3c
000002a0: 3b42 63be f8a8 01be 6d3f 1bbd 6817 cd3d
000002b0: eaaf 4fbe 8065 bfbb 3c15 34be 3e80 9ebd
000002c0: 0c99 803e ff42 cb3e 3d0c 763d 44c0 093e
000002d0: 5461 483e 18e7 9d3e d6bc 8a3e cbc6 8d3e
000002e0: 8856 65bc 3039 533e 5074 d93d db4e a8be
000002f0: c988 ddbd f481 d53e be13 0c3e 0583 9e3e
00000300: e7d3 3a3e a98c b6be 970d 0ebf f608 2abf
00000310: 5346 8ebe a781 bbbd d993 07bf b11f 53bf
00000320: 60dc 69be 563d 78bf b6f8 85bf e607 b5bf
00000330: 2d5f 18bf f7c1 d9be 021d 5abe b065 c5bc
00000340: a549 bcbe 3eaa 303f 20bf 9cbd 6138 91be
00000350: 9ed7 22bd a133 96bd dc0a 12bf dd72 3dbe
00000360: 1a9a 51be b3b9 a8be 9d58 56bb 694d bd3d
00000370: 7506 dcbe b3ae afbd 0b13 b8be ba79 563e
00000380: a163 803e 9fdf ab3e 2d91 aa3e 59fc f53e
00000390: 5038 383e c30e b23e 9535 d4bb 4b8d 4f3e
000003a0: b541 8dbe 46a5 28bc 91b8 cebe 9d7b 153e
000003b0: 7a05 f93e 5df8 e73d d23b 3e3d ec27 633e
000003c0: d9a6 573e d6f0 0d3d fd98 9b3e 7bc1 633e
000003d0: b031 9dbe fae0 1ebd f624 84bd 9a88 9cbe
000003e0: 0dcc 53be 6a1d c73c 20c3 41be 450e 263d
000003f0: 5152 7bbd e0a4 b83c 00e3 42be 218d 12bd
-0.31480762 0.08445552 0.058003258 0.22317992 0.23169662 0.19372319 -0.009730811 0.30300143
0.3802702 0.25421152 0.1829767 -0.65781784 -0.25389287 0.22874172 0.14435034 0.31302243
0.25118768 -0.23958047 -0.01908812 0.33001 0.6142933 0.4624225 0.3903995 0.08592578
-0.1878817 -0.09767895 -0.0740712 -0.37077603 -0.3077854 0.16699843 -0.21952948 -0.3270386
0.16058086 -0.10824353 0.041646447 -0.08151675 0.11348738 -0.0700869 0.11339136 -0.16366631
0.024544284 -0.041225404 0.22394912 -0.19408709 0.16036858 0.08015927 0.079402275 0.40935737
0.48938745 0.3350336 0.25188416 0.17585917 0.017072335 0.065723486 0.101400346 0.29105347
0.041199267 0.37207708 -0.04860179 -0.14139387 0.37179145 0.44759157 0.49953058 -0.17702305
-0.5586083 -0.75573725 -0.4467764 0.08226478 0.34743005 0.19604607 -0.011668988 -0.215652
0.11183374 0.24041209 0.04152531 0.067844324 0.15682165 -0.5050209 0.16380814 0.07939389
0.06348164 0.21692045 0.20466326 0.19811064 0.3524199 0.16241814 0.17125212 -0.3248356
0.61413676 -0.5082605 -0.010269215 -0.1422065 -0.64314365 -0.5022597 0.08118121 0.19032848
-0.0015262361 0.49631786 0.6175366 -0.10807606 0.24824451 0.07650119 -0.45908028 -0.13066055
0.27166608 -0.0102357175 0.21494769 0.11813066 0.0702667 0.1903873 0.521776 0.0560213
0.14986649 -0.3177595 -0.7106572 0.013824899 0.31087035 0.38519758 0.2848736 0.72876483
0.60620075 0.40267503 0.2536561 -0.260777 -0.18018712 -0.05713066 -0.41770682 -0.19943146
-0.020823218 -0.27266267 -0.15415464 0.016628493 -0.16215312 -0.01813874 0.2961137 -0.10862301
0.021273611 -0.04943703 -0.124277696 -0.06616233 -0.056181375 0.39605024 0.38958725 -0.1087766
0.14867142 -0.07581437 -0.088963546 -0.27225524 0.3404319 0.23390497 0.10765225 0.22969212
-0.05970173 -0.036831338 0.12809172 -0.20235617 0.17386276 -0.06423121 -0.047074497 0.071050994
-0.20483038 -0.03559771 -0.20140736 0.04400502 0.03443227 -0.005121157 -0.028849365 0.017500738
-0.22193234 -0.12662113 -0.037902284 0.1001423 -0.2028195 -0.005840957 -0.17586225 -0.07739304
0.25116765 0.3969955 0.060070265 0.1345225 0.19568378 0.30840373 0.27097195 0.2769073
-0.013997681 0.20627284 0.10617888 -0.32872662 -0.10817105 0.4170071 0.13679406 0.30959335
0.18244897 -0.3565419 -0.55489486 -0.66419923 -0.27788028 -0.091555886 -0.5295997 -0.8247023
-0.22837973 -0.9696859 -1.0466526 -1.4143035 -0.59520227 -0.42530796 -0.21300128 -0.02409634
-0.36774936 0.6900977 -0.07653642 -0.28363326 -0.03975641 -0.07334066 -0.5704782 -0.18500848
-0.20468941 -0.32954177 -0.0032706626 0.092432804 -0.42973676 -0.08578243 -0.3595203 0.20944872
0.2507601 0.33569047 0.33313885 0.48044088 0.17990232 0.34776887 -0.006476114 0.20268743
-0.27589193 -0.0102933105 -0.40375188 0.14597936 0.4863699 0.113266684 0.046443768 0.22183198
0.21059741 0.034653507 0.30390158 0.22241776 -0.3070197 -0.038788773 -0.06452362 -0.3057297
-0.20683308 0.024306018 -0.1892209 0.040540952 -0.0613578 0.022539556 -0.19031906 -0.035779122

layer1.bias f4 [64]
00000000: c8f0 10bd 7257 f0be 387f 7b3e ae6b 01be
00000010: 65b2 24be e8ab 593e 7895 1b3e 6938 8dbe
00000020: 8ac2 ec3e 4cd1 6c3e 91a2 a7be 8fbf a93e
00000030: 20ad 503d dd5a 1d3e 4c09 57be 9019 2fbe
00000040: a8e7 39be 9a69 a13e 8483 dd3e fce0 963e
00000050: 0834 e83d d964 603e 5f05 2b3e ebc2 bcbd
00000060: 86b3 5d3e 30d7 783e 74d6 bb3e 2732 713e
00000070: 3450 8f3e d369 0ebd 14a0 c23d 6265 913e
00000080: bae8 20be 16ae 6e3e 0027 be3e a589 c1bc
00000090: a5bc 42be 095c c0bd b9dc a23c 9549 00bd
000000a0: ce56 a53e 0400 ec3c 062c 153e d1c2 ad3e
000000b0: a13d 95be deab 273e 4da9 8f3e 6acc 093d
000000c0: 5228 1f3e 070c b23e 401c 0b3d dd48 8b3e
000000d0: 8c9c 483e 1afd 2d3d 5977 a8bb b396 1ebd
000000e0: d68a 4bbe 3da1 febd d5f0 c33d b670 c73e
000000f0: d0cc 023d dd08 65be d026 a6be 4ac9 e1bd
-0.035385877 -0.46941715 0.24560249 -0.12638733 -0.16083677 0.21256983 0.15193737 -0.275821
0.46242172 0.23126715 -0.32741216 0.3315396 0.050946355 0.15366693 -0.2099964 -0.17099595
-0.18154776 0.3152588 0.432644 0.29468524 0.11338049 0.2191347 0.16701268 -0.09216865
0.21650514 0.24300838 0.36687052 0.23554288 0.27990878 -0.03476889 0.09503189 0.2839766
-0.15713778 0.23308596 0.3713913 -0.023625204 -0.19017275 -0.09392554 0.01988064 -0.031320173
0.3229279 0.028808601 0.14567575 0.33937696 -0.29148582 0.16374156 0.28058854 0.03364221
0.15542725 0.347748 0.03396249 0.27204028 0.19590968 0.042477705 -0.0051411805 -0.038717937
-0.1987718 -0.124330975 0.095674194 0.3895318 0.031933606 -0.22366662 -0.32451487 -0.11024721

layer2.weight_ih_l0 f4 [64, 64]
00000000: f172 833d 8d92 d93e d00c a4be a444 deba
00000010: 1fa9 95be 2ffe f83e 8afc 1c3e 0ea8 85be
00000020: 7e3f b6be ec57 cc3d 7b7b 6a3e 5e4b afbe
00000030: 34d7 8d3e 017b 4c3d 2c7c b53d a27e bb3d
00000040: b6d6 2abe 198f 373f 8e5b 03bf d5fb 5abe
00000050: e734 df3e 8654 893e 25d3 d4be 108e 90bd
00000060: 5ace 243e 2c5d c33f f350 bbbe 10ef 2fbe
00000070: 63eb b0be 71c8 2e3f 2002 c3be 62d6 6a3f
00000080: 9f6e 22bd 5c04 423d 5be6 fdbe a02a fb3d
00000090: 1309 6dbe 956c 0e3e 8d2c 49bd 804f c53d
000000a0: 311c a8bd 5dc9 53be a0cd e5bc b62b 3f3e
000000b0: 0f93 ecbd 20bd 69be 5ef3 8dbc f9ef 9bbd
000000c0: a871 cd3f 8bcc efbe 1af6 3b3f a28a 67be
000000d0: 57e4 103f 7290 4bbe bd34 df3e a0b5 99bb
000000e0: 1f25 9dbc 84a7 7ebd e13f 1abe e3ce c0be
000000f0: 3d30 8bbd 072c a03c e25a 0a3f 9648 2ebe
00000100: cf75 473d 22b7 373e 16f7 e43d 3da2 1abc
00000110: 1624 403d bba0 67be 736a 28bd 73f6 433e
00000120: 8e6b 5d3e d833 263d 723e a5bf 3f80 1e3e
00000130: 7136 4dbd c87d 9a3d 265c 3b3d 83a5 843c
00000140: 1ca8 523d 5bce 72be 52e5 bf3e b04d 0a3c
00000150: fe11 a93d e45a a0bd 8a24 e93d 0587 603c
00000160: fd5a cebb f23e cfbb 6936 773e d53a 473e
00000170: 1f1d f23d 66fa 5dbe 9964 7ebd a1dc 21bd
00000180: 3ac5 31bd 8035 c53c 9aae 1abc 9abd 2a3c
00000190: 13cb 533d a0d1 1ebc c1d8 1cbe 0d81 513d
000001a0: 5847 f1bd 75d3 b6bd 9609 a7be fa2c 0bbd
000001b0: e002 153e 0afe dc3d cdc9 e83d edfb f83e
000001c0: 3824 86bb 2305 d33d a36a 4dbe c3e7 043e
000001d0: f29a fe3c bc82 423e 3431 93be 0f3e fd3c
000001e0: 2965 693d 1476 2b3e 9502 b0bb 780d aa3d
000001f0: d684 f8bc 085c 33bd 91e0 3bbf 8c26 4ebd
00000200: 3aa3 bf3d 77c4 233e 8dea 05bd 05fa adbd
00000210: 2da1 863d f9bf 993d 8b43 ce3c a758 793e
00000220: ef1d 5f3d 825c ac3d fcdd 613e 1864 cbbd
00000230: 9ae1 3d3d 1831 903d 39de 103d a4e4 b6bd
00000240: 6144 663e d354 43bd dc60 02be d2a8 1bbe
00000250: 7a88 fe3d 997e 013d e590 8fbd 6880 52bb
00000260: 6f3c ab3d 3a91 253e 93f8 4cbd aec9 bf3c
00000270: a1f5 12be d896 073f 9bc3 e43d 202a 903d
00000280: 9e34 14bd fb06 013e e062 b9bd 6ad4 8a3d
00000290: e781 923e dfdd bf3d 02b4 233e 1fc8 903e
000002a0: af48 8dbd f48a 6c3d b965 1abd d4d8 dc3c
000002b0: f85a 7d3d 2cb2 5c3e dc04 2ebd 2467 e8bc
000002c0: a93f 723d f9c6 2fbe 3038 f73e 4c1d 033e
000002d0: 8660 073e 2110 953e f6dd 643e 4512 643d
000002e0: b122 0b3c b79b e23d d5d6 043e fb6a 04be
000002f0: 7c35 183e 9828 6abd 8960 7a3e 5c09 cf3d
00000300: cb4f 3c3d 0299 a83d 75cd 623e e6c4 0c3d
00000310: e514 b53b cd69 bbbe 7e44 b33d cb6e 703e
00000320: c65c e43e 0a68 4f3b 7647 7cbf 6e5e ad3e
00000330: c0bd 08bc 6f09 c1bd 490f 2abd 70f3 91bd
00000340: 0bf8 383e d2a1 0cbf e6c3 4f3f 6c89 b63e
00000350: e60d 2dbe 5e07 69be b802 c23e a241 413d
00000360: fc21 b9bc fe84 babe 5ee3 a73e 2095 b23e
00000370: 37a0 233e c7a5 82be 82e5 333e e93a bcbe
00000380: 85bb 8a3c 6937 87bc a864 0a3e c8af c03c
00000390: 34b4 ee3b 8c43 06bd 4a9e 4dbc f5dc 703c
000003a0: 31ce 3bbd 581a a63d f6c4 9fbe c326 ccbe
000003b0: 65cb 9c3d 6637 123e a73c 013d d884 9b3e
000003c0: 5e71 97be 4fbe d23e 715a ccbe 57f6 7c3e
000003d0: c239 c5be ffac 4a3d c342 f8be c3aa c53c
000003e0: f90a 1e3d 1e19 c33e e8b4 ad3d 4da8 7f3e
000003f0: edb1 7ebc 1386 44bd 832e 8fbf 64a1 823e
0.06418408 0.42494622 -0.32041025 -0.0016957712 -0.29230592 0.48631427 0.15330711 -0.26104778
-0.35595316 0.09977707 0.22898667 -0.34237188 0.2770325 0.049921993 0.088615745 0.09155013
-0.16683468 0.71702725 -0.51311576 -0.21385129 0.4359505 0.268223 -0.4156734 -0.07058346
0.16094342 1.5262809 -0.36585197 -0.17181039 -0.34554586 0.682746 -0.3808756 0.9173337
-0.039656278 0.04736744 -0.4958981 0.122639894 -0.23147993 0.13908608 -0.049114753 0.09634304
-0.08208502 -0.20682283 -0.028052151 0.18669018 -0.11551487 -0.22826052 -0.01732796 -0.076141305
1.605031 -0.4683574 0.73422396 -0.22611478 0.5659842 -0.1987932 0.43594924 -0.004690841
-0.01918274 -0.062171474 -0.1506343 -0.37657842 -0.0679631 0.019552244 0.54044926 -0.17019877
0.048696335 0.17940953 0.111799404 -0.009438095 0.046909414 -0.22619908 -0.041117143 0.19136982
0.2162306 0.040576786 -1.2909682 0.1547861 -0.050100747 0.07543522 0.045742176 0.016192203
0.051429853 -0.23711531 0.37479645 0.008441374 0.08255385 -0.07829836 0.113839224 0.013704066
-0.0062974677 -0.0063246423 0.2414185 0.19456036 0.11821961 -0.2167755 -0.062107656 -0.03951705
-0.04340098 0.024073362 -0.009441042 0.010421181 0.05170734 -0.009693533 -0.1531706 0.051148463
-0.11781186 -0.08927051 -0.326245 -0.03397844 0.14551878 0.107906416 0.113666154 0.48629704
-0.004093673 0.10303714 -0.2006021 0.12979035 0.031079743 0.18995184 -0.28748477 0.03091338
0.05698124 0.16744262 -0.0053714016 0.0830335 -0.030336779 -0.04378894 -0.73389536 -0.05032973
0.09357305 0.15992914 -0.03269439 -0.08494953 0.065737106 0.07507319 0.025178691 0.24350224
0.054471906 0.08416082 0.22057337 -0.09931201 0.04635773 0.07040614 0.035368178 -0.089303285
0.22487022 -0.047688317 -0.12732261 -0.15201119 0.124283746 0.031614874 -0.07010058 -0.0032119993
0.08361136 0.16168681 -0.050041746 0.023411598 -0.14351512 0.52964544 0.11170121 0.07039285
-0.036182992 0.12600319 -0.09052062 0.06778796 0.28614733 0.093684904 0.15986636 0.2827768
-0.06898629 0.057749704 -0.037694667 0.02695886 0.061854333 0.21552342 -0.042485103 -0.028369494
0.059142742 -0.17165746 0.48285055 0.12804145 0.13220415 0.29113868 0.22350296 0.055681486
0.008492158 0.110648565 0.12972577 -0.12931435 0.14864153 -0.05716762 0.24450888 0.10109207
0.045974534 0.08232309 0.22148688 0.034367464 0.0055261725 -0.36604157 0.08753298 0.23479764
0.4460203 0.0031647705 -0.9854654 0.33861107 -0.008346021 -0.094256274 -0.041518483 -0.0712651
0.18063371 -0.5493442 0.8115829 0.3565172 -0.16899833 -0.22756717 0.378927 0.047181733
-0.022599213 -0.3642959 0.32790655 0.34879398 0.15979086 -0.25517103 0.17568019 -0.36763695
0.01693512 -0.016505914 0.1351496 0.023521319 0.0072846655 -0.03277926 -0.012549946 0.014701118
-0.045850936 0.081104934 -0.31204957 -0.39873323 0.07655982 0.14278945 0.031551983 0.3037479
-0.2957868 0.4116082 -0.3991275 0.24703346 -0.38520628 0.04948139 -0.48488435 0.024129277
0.038584683 0.381051 0.08481771 0.24966545 -0.0155453505 -0.047979426 -1.1186069 0.25513756

layer2.weight_hh_l0 f4 [64, 64]
00000000: fe44 84bd 583c d9bc 7baa d2bc b1c6 80bd
00000010: d9a9 8abc 8792 7a3c 3163 91bc 8961 1fbe
00000020: ac73 ba3c 520a d73d f4d3 ba3d 8ea7 3a3d
00000030: 65c8 383d ee21 69bd 2afc 35bd 65f0 57bd
00000040: da98 aa3d b081 adbd e710 353d 3c1f 01be
00000050: 280d 993d bda1 97bc 5edb 14be aba9 30bd
00000060: e830 813d ba5f 223d 881b a9bd e842 bfbd
00000070: d88d 8bbc b7fc cb3d e039 66bd e221 bd3b
00000080: c83e 833d cd4b d03d 7b2e 69bd b554 bebc
00000090: 7256 02be ec26 5d3d 2ef7 fcbd 3d51 8abc
000000a0: 1a84 dd3d 1fc8 70bc 50e8 013c dcfe e13c
000000b0: 52eb 173d 6827 67bc ce1d 573d 5e91 583d
000000c0: 6758 1d3d b30c 76bd d674 9c3d ac30 623c
000000d0: 2252 ebbc 0ecd 513e e468 d1bc 310c 0d3d
000000e0: d13f f43d 7161 763d 0e89 c1bd 4518 95bd
000000f0: b95b 8cbb 0057 333c 0c5e 4cbd 80db 10bd
00000100: ddc5 4bbd bad7 6c3d 6c37 923d 99ac 75bd
00000110: bb3e 363d df22 d2bd 4449 ed3c ecd2 013d
00000120: 5594 06bb 5380 b1bd 94a9 af3d 3124 28bd
00000130: 73e7 8b3d 05a1 593d df1b 34bd b407 0f3d
00000140: 9f1e fb3c fa8f c8bb 8074 e7bb b9aa 503d
00000150: a955 f33b 46b2 423e d920 14bd 5cc5 bc3c
00000160: 7321 e33d 789b b7bd 50e5 073d 7b71 643e
00000170: 889f f8bb 88c2 273b 24ce a8bd 9b70 c5bd
00000180: e21e a2bd 881c 22bd 6473 3d3e 4204 983c
00000190: b2fb 053d 5f74 263d 982d 63bd cb03 0e3d
000001a0: 9a6a 54bd dcac 053e b769 ecbb 9f49 05bd
000001b0: be6d 05bd c399 ff3b b974 0a3e e82c 28bd
000001c0: c24a 40bd 1af9 f23d 697c 633d 92be fa3d
000001d0: 356e 9cbc 647d 3ebd 17d6 7e3d 6006 073d
000001e0: 4238 8c3d b177 113e 13bf f43d 6013 8c3c
000001f0: 8ff9 1a3e ea81 b5bd 5a7f b13c d1a6 b03c
00000200: 0065 283d de75 ecbd 53fe d83d 2bf7 653d
00000210: 4092 fd3c 747d a83d e373 16bd 9c35 bbbc
00000220: 18a8 e13d 4f61 ce3c fee8 c33c 1ce5 c53d
00000230: 8150 16be 0e7f aabd 1533 91bd 848d 933d
00000240: c60a 1c3e 36b1 e63d ebff a0bd 4a9a c43d
00000250: 13af 96bc 722c fcbc 134f 2abd ff64 cbbd
00000260: a8c7 ae3b b8b4 b2bc e7a3 e73c dac9 8ebd
00000270: 8a1a d1bd 3bd5 d43c 6219 fe3d 1fbb 06be
00000280: 1a4e 633c 4988 da3d 11c7 8cbd 5ccc 6dbd
00000290: 82dc 293e ff4e e3bc 6933 11bc 06b7 49bd
000002a0: 829e 413e 3dac 63bc c47b 26be 18f5 1ebc
000002b0: 463e 313c 942a 9d3d a245 463c 5d79 213e
000002c0: 967e f73d 7cee fcbd 4455 20be 46f6 e6bd
000002d0: 2161 923d 4aef 92bc 0288 763c 6609 b93d
000002e0: 9e7e ccba 78ff 89bc ae31 e0bc 9042 123d
000002f0: b4e2 14be df09 8d3d ee90 d23d 1303 9a3c
00000300: 0ddd b53c 613a e43d 6cc7 00bd a5bb 213d
00000310: c0b7 c03d 0bf9 1ebc bd3e 183e a2d5 26bc
00000320: 0e16 f8bd 8b57 3bbc 1402 d93d b4aa fbbd
00000330: 7f6e d03d b315 9abc 00b6 b3bd 382b 9bbd
00000340: 987d 99bd bf4c 1b3d 8c63 07be 2130 933d
00000350: c780 843d ecd8 a13d 682b 2fbd a1b9 583c
00000360: 6942 443d ddde 4abb 29bb 063e c073 ef3c
00000370: 6de5 63bd 443e 02ba 8e56 78bd b695 9cbd
00000380: ee40 83bd 1af0 babc 639f 0f3e 0848 163d
00000390: cd48 57bd d2e2 073d 9a56 1e3c d738 3dbd
000003a0: f243 bcbd 05f7 273d 96b5 923d 036b cbbc
000003b0: 5b4c c9bd 061d f33c 08ab b0bc 9717 ec3d
000003c0: a58a bd3b 6702 ec3d d229 463c 7d69 bb3b
000003d0: 30d1 84bc d84d 15bd 097f a53d a9ad 243d
000003e0: 7903 febd d70c de3d ef56 4a3d 225a 5f3d
000003f0: 3b5c 9e3d 3703 f9bd 0ba5 fa3c ee3e 00bc
-0.06458472 -0.026518032 -0.025716057 -0.062878974 -0.016926693 0.015293724 -0.017747493 -0.1556455
0.022760235 0.10500015 0.09122458 0.04556995 0.045112986 -0.056917123 -0.044429936 -0.052719492
0.08329935 -0.084720016 0.044205572 -0.12609571 0.074732125 -0.01850974 -0.14536807 -0.043130558
0.06308156 0.039642073 -0.08257204 -0.09338933 -0.01703541 0.09960311 -0.056207538 0.0057718614
0.06408459 0.10170708 -0.056929093 -0.02323375 -0.12728289 0.053992197 -0.12351833 -0.01688444
0.10816212 -0.01469615 0.007928923 0.027587347 0.037089653 -0.014108516 0.05251866 0.052873008
0.038414385 -0.060070705 0.07639472 0.01380555 -0.028725687 0.20488378 -0.025562711 0.034435455
0.119262345 0.06015152 -0.09449969 -0.0728002 -0.004283395 0.010946035 -0.049894378 -0.03536558
-0.049749244 0.05782292 0.07139477 -0.059979055 0.04449342 -0.102605574 0.0289656 0.03169529
-0.002053519 -0.08667054 0.08577266 -0.04105014 0.06831255 0.053132076 -0.043971892 0.034919456
0.03065425 -0.006120679 -0.0070634484 0.050944064 0.007425983 0.19013318 -0.03616414 0.023043327
0.11090364 -0.089652 0.033177674 0.22308914 -0.007587377 0.0025598127 -0.08242443 -0.096406184
-0.07916047 -0.03957799 0.1850105 0.018556718 0.03271074 0.040638324 -0.055463403 0.034671586
-0.051859476 0.13054222 -0.0072147506 -0.032540914 -0.03257536 0.0078003122 0.13521089 -0.04105845
-0.046946295 0.118639186 0.05553857 0.1224338 -0.01909552 -0.0465063 0.06221589 0.032965064
0.06846668 0.14205815 0.11950507 0.017099082 0.15134262 -0.0886267 0.021667171 0.02156392
0.041111946 -0.11545919 0.105953835 0.05614392 0.030953526 0.08227053 -0.036731612 -0.022852711
0.110183895 0.025192885 0.02391481 0.0966284 -0.14679147 -0.08325015 -0.07089821 0.07204726
0.15238485 0.11264269 -0.078613125 0.09599741 -0.018394029 -0.030782912 -0.041579317 -0.09931373
0.0053338595 -0.021814689 0.028276397 -0.06972094 -0.1021014 0.025980582 0.12407185 -0.13157319
0.013873601 0.106705256 -0.068739064 -0.05805622 0.16588023 -0.02774763 -0.008862355 -0.04924681
0.18908122 -0.013896045 -0.1625815 -0.00970199 0.01081807 0.07674137 0.012101563 0.15768953
0.12084691 -0.12350175 -0.15657526 -0.11277442 0.07147432 -0.017936368 0.015047075 0.09034996
-0.00156017 -0.01684545 -0.02736744 0.03570801 -0.14539605 0.068866484 0.102815494 0.018800294
0.022200132 0.111439474 -0.031440184 0.039485592 0.094100475 -0.009702931 0.14867683 -0.01018277
-0.121135816 -0.011434446 0.105960995 -0.122884184 0.101773255 -0.018809175 -0.08774948 -0.07576603
-0.07494658 0.037914988 -0.13221568 0.07186914 0.06469875 0.07902703 -0.042766005 0.013227851
0.047914896 -0.003095559 0.13157333 0.029229999 -0.05563872 -0.0004968385 -0.06062942 -0.076457426
-0.06408869 -0.022819567 0.14025645 0.036689788 -0.052559663 0.033175297 0.009664202 -0.046196785
-0.09192647 0.04100706 0.07163541 -0.0248313 -0.09829017 0.029676925 -0.021565929 0.11527937
0.00578435 0.11523896 0.012094932 0.0057193623 -0.01621303 -0.03645119 0.08080871 0.040204678
-0.12403006 0.10842293 0.049399313 0.054529317 0.07732435 -0.12158816 0.030596277 -0.007827504

layer2.bias_ih_l0 f4 [64]
00000000: feb1 c3bd 3ad0 89bd 6aaa a93d df15 91bc
00000010: 99e3 183c 8fbd f1bb 27e3 60bd 0993 a3bd
00000020: 39ba 873d 22c7 1bbd 40a4 78bd 5217 baba
00000030: df2f b9bd 035f 203d af89 28bc 9496 383d
00000040: a998 93bd e0f8 0e3d f19e 37bd 32d9 133c
00000050: c7a4 763d e83f 3ebe 027b cebd 606c cfbd
00000060: c0ea 86bd bca3 85bd e647 a73c 568d 13bd
00000070: a2b9 4d3d 86fe a1bb ae2a 793c 159f 7bbc
00000080: 2ba2 2f3d 56f2 40bc 2adf 37be dada e63d
00000090: 7f9e d33d f43e 3cbd 6f5f d53c d8f2 3fbe
000000a0: 48da 4e3d 20b2 1c3c dad4 06be 498b 5e3d
000000b0: cef4 e83c 6b04 55bd ebfe 4ebe 2930 6fbd
000000c0: c7bb 823e 08b7 5ebe 0506 46be bf70 98bd
000000d0: 2c38 493d 7236 b5bd 2efa d13d 17a2 b53d
000000e0: ac6a cf3d 1ebc b0bd dd39 72bd 592b 82bd
000000f0: ce6d e5bd 0e8f 3f3d a4eb ecbc 0362 a7bd
-0.09555434 -0.06729169 0.08284457 -0.017710624 0.009331607 -0.0073773335 -0.05490413 -0.07987029
0.06627316 -0.038031705 -0.060703516 -0.0014197624 -0.09042334 0.03915311 -0.010286733 0.045065477
-0.07206852 0.034905314 -0.044829313 0.009023951 0.060215738 -0.18579066 -0.10082056 -0.10128093
-0.06587744 -0.065253705 0.020420026 -0.03602346 0.05022586 -0.0049436716 0.01520793 -0.015357752
0.042879265 -0.011776527 -0.17956224 0.112722114 0.10332965 -0.045958474 0.026046483 -0.18744981
0.050501138 0.009563953 -0.13167134 0.05433205 0.028437044 -0.052006166 -0.20214431 -0.05839554
0.25533888 -0.21749508 -0.19338234 -0.074433796 0.049125835 -0.08848275 0.10252796 0.08868807
0.10127768 -0.086296305 -0.059137214 -0.06355924 -0.11202584 0.046767287 -0.028920956 -0.08172991

layer2.bias_hh_l0 f4 [64]
00000000: 537f 91bb 9ef1 3abe 6224 873d 3a4d 95bd
00000010: 776b d8bd 5764 653c 62a7 b0bd d494 193d
00000020: 7ecc 183d cc50 09be 5228 adbc f2ee 53bc
00000030: bc11 91bd 5d5e 6c3c 1ccf 103b 1aee 673d
00000040: dfe9 abbd 81b3 d0bc d68b 39bd fd48 7a3d
00000050: 8800 053d a1e4 d6bc 987b a7bd 7833 f4bd
00000060: 3a35 c6bc 732a fdbb edf4 03be 97a9 34be
00000070: 47ba 5bbd 2636 14be 7dcf 92ba c5fc cdba
00000080: 02b0 883d 44c6 c83d 9705 0bbe 44ef 9cbc
00000090: 4467 353d 0dbc a3bb 25ff 863d 328e aabd
000000a0: e608 9a3d b307 a3bd a88a e6bd 8518 babc
000000b0: 1b21 243d 9dd0 73bd 50d3 93bd 1b29 8a3d
000000c0: 1f22 373e fdfc 32be 80a4 e4bd 2fe1 efbd
000000d0: 3e10 00be faaa 243c c916 f33b b2d8 a6bb
000000e0: d47b f33c 6869 43be b3af 15bd effb b73c
000000f0: 6a80 debc af16 22bd 7207 1abd 0a38 83bd
-0.004440227 -0.18256232 0.06598736 -0.072901204 -0.10567372 0.014000974 -0.08625676 0.03749545
0.037304394 -0.13409728 -0.02113739 -0.012935387 -0.07083461 0.014426795 0.0022096103 0.056623556
-0.08394217 -0.02547622 -0.045299374 0.061104763 0.03247121 -0.026232066 -0.081778705 -0.119238794
-0.024195302 -0.0077260076 -0.128864 -0.17642818 -0.053644445 -0.14473781 -0.0011200752 -0.001571559
0.06674196 0.09803441 -0.13576351 -0.01915706 0.044287935 -0.0049967826 0.06591634 -0.08327903
0.075212285 -0.07960453 -0.11256915 -0.02271677 0.040070634 -0.05952512 -0.07218039 0.067461215
0.1788411 -0.1747932 -0.111641884 -0.11712872 -0.12506196 0.01005053 0.0074184877 -0.00509175
0.029722132 -0.19083178 -0.036544513 0.022458998 -0.027160842 -0.039572414 -0.037604757 -0.06407173

layer3.weight f4 [5, 64]
00000000: bd41 ae3f bdd6 e5be 1aab 723f 0359 6ebe
00000010: 6285 d4be c013 a13f c502 e8be be51 f6be
00000020: 523c d23f 42ba cabe adf2 b13d bd04 c43f
00000030: 6458 453f ac7e 193f 3d11 9cbe f2b1 d73f
00000040: 411e 1bbf c6a8 6abe 3f38 f0bd 61ef 1cbf
00000050: aa1a 15bf 0ede a7bd 04ad bbbe c772 acbd
00000060: b095 a3bd b31d edbe 6c66 ebbe 6528 3abb
00000070: 925a e73f eda7 e4be a3a3 f03f ce91 c5be
00000080: 1a3d ab3f ab72 c23f 9041 683d 5a90 07bf
00000090: 39f8 943f eb9c 733f 4c50 d7be a666 96bc
000000a0: 0252 543f 1972 03bf 02c8 c4be 8122 00bf
000000b0: 7b65 b5bd e5c1 00bf d4ae b43d dcae edbe
000000c0: fc80 91be 58f5 a6be 1e43 223d ad43 cebe
000000d0: b100 04bf bbe2 83be 7a65 c83f 3641 b33f
000000e0: 5843 57be 8d87 db3c f994 c9bc e533 633f
000000f0: ffc0 003e 1851 02bf f41a cbbe cf1c bb3f
00000100: bb69 bf3f 823d d7be 47da 683f 1c38 b4be
00000110: aa62 233e 2146 9a3f 53e0 a7be e517 18bf
00000120: 37c1 ec3f bca0 c7be 41f4 463d 060c ca3f
00000130: 1772 103f 89dc 953e a6ef d2be 6f31 d03f
00000140: 433b 8fbe f76e e6be 1e55 afbe 421a 28bf
00000150: 4cf9 1ebf 6570 f93c 4a9a 10bf e910 60bd
00000160: 3226 2abd 03a0 96be 9f86 cfbe 12a3 e5bc
00000170: fb88 ec3f 84e2 05bf fe0a fa3f 3288 a1be
00000180: 2c6a b93f 99a0 a63f f7f9 4b3d a815 45bf
00000190: d642 7f3f bde7 1e3f 2f79 efbe be3b f93b
000001a0: 5432 803f aafd f1be 7eb4 c6be 6849 2ebf
000001b0: 73b2 3a3f 9bf3 f8be 53a9 bfbc 9fc8 bbbe
000001c0: f12d aebe 918f 0dbf 1e20 0c3d 8253 54be
000001d0: 9f25 0dbf 4280 e03c d1d6 9f3f 0b95 d03f
000001e0: 3f94 89be 6cee 883d 87d9 673b b734 663f
000001f0: e319 693e 0936 febe 576a 11bf 5e1a a83f
00000200: 4bd1 b53f 864b 8fbe 3185 483f 2226 24bf
00000210: 74f1 2dbf fd94 af3f bcc1 2bbf 1d72 fabd
00000220: 3405 e03f d12a 19bf 4792 9cbb 1e6b dc3f
00000230: b64d 183f f670 f63e 2b22 48bf cfb3 df3f
00000240: 2f7a 31bf defc d0be b483 0c3f 070c 1ebf
00000250: ff9f 26bf 887e b2bd 2a8c 85be ad84 69bd
00000260: 4c0a dabc 3c0d 22bf 4761 edbe 8edf 4abd
00000270: aebb 0040 8907 d9be 8a53 eb3f 1f18 36bf
00000280: 56b1 bf3f e2a5 c53f f614 a13c ba2b fbbe
00000290: 7629 963f d9da 063f 43da 82be 365c dcbc
000002a0: e0be 443f 6c0a ffbe 6fd3 5dbe 8502 fbbe
000002b0: 0810 febe d6db bbbe c4f9 163c 77b0 c63d
000002c0: 5bf1 72be 1def bebe 9ccd d63c 846f 50be
000002d0: 3e44 b1be 15a9 8bbe 8b46 a43f 3988 c73f
000002e0: a5b5 c4be fdf0 88bd 4318 eebd 5790 613f
000002f0: b789 af3e ea94 f8be 2a87 dcbe 5630 b63f
00000300: 91c3 b33f 2d1a 60be 6c7f 873f c872 c8be
00000310: 5452 90be 60a4 b13f 8bb1 1fbf fe25 bbbe
00000320: e3d8 f13f 79b2 eebe ae94 8f3b ebd9 d03f
00000330: da53 ec3e d99a 9f3e 3684 60be fa4b dd3f
00000340: ca11 d7be 9387 34be e1a7 cebe d96e 1ebf
00000350: d7e8 42bf 810a 483d 24d1 b0be 6e27 21bd
00000360: bf93 c0bd 7c28 75be 7060 babe 19b6 5a3c
00000370: 4829 e73f a00c f1be 5795 e73f ff95 7bbe
00000380: 14c3 ac3f f1e0 bc3f 5342 ab3d 0922 83be
00000390: 5de3 a13f a017 d23e ca3a 1dbf 56ee e33d
000003a0: ab9e 8a3f e6ea f9be 5aca d7be 20f2 21bf
000003b0: 1884 1f3c 0d25 1fbf 7277 60bd e7ad c7be
000003c0: 0161 2ebf 7ea9 84be b1e5 6dbd 992a c0be
000003d0: 3e46 12bf c64d 43be a553 9a3f 1c1a c63f
000003e0: 3a60 c5be b64e a53d 40b8 77bc 6f01 af3f
000003f0: cba0 313e 5d19 e2be a488 03bf 2def 993f
1.3613812 -0.44890395 0.9479233 -0.23276143 -0.41508013 1.2584152 -0.45314613 -0.4810924
1.6424658 -0.39595228 0.08688865 1.5313946 0.77088 0.5995891 -0.30481902 1.685118
-0.6059304 -0.22915944 -0.11729478 -0.61302763 -0.5824381 -0.081966504 -0.36655438 -0.084203295
-0.07987535 -0.4631172 -0.4597658 -0.0028405425 1.8074515 -0.44659367 1.8799938 -0.38587803
1.3378022 1.5191244 0.05670315 -0.5295464 1.1638252 0.9516131 -0.4205345 -0.018359493
0.82937634 -0.51345974 -0.38433844 -0.5005265 -0.088572465 -0.5029586 0.08822408 -0.4642247
-0.2841872 -0.32609057 0.03961479 -0.40286008 -0.51563555 -0.2575892 1.5655968 1.4004276
-0.21021783 0.026798034 -0.024607169 0.8875106 0.12573622 -0.5090499 -0.39669 1.4618167
1.4954141 -0.42039114 0.90958065 -0.35199058 0.15955606 1.2052652 -0.32788333 -0.5941146
1.8496464 -0.38989818 0.048572782 1.5784919 0.5642409 0.29269817 -0.41198462 1.6265086
-0.279749 -0.45006534 -0.34244627 -0.65665066 -0.62099147 0.030449102 -0.56485426 -0.054703627
-0.041540332 -0.29418954 -0.40532395 -0.02803186 1.8479303 -0.5229876 1.9534605 -0.3154922
1.4485526 1.301776 0.049798932 -0.7698617 0.9971136 0.62072355 -0.46772143 0.007605999
1.0015359 -0.47263843 -0.3880958 -0.6808076 0.7292854 -0.48623356 -0.02339617 -0.366765
-0.34019426 -0.5529719 0.034210317 -0.2073498 -0.5513553 0.027404908 1.2487432 1.6295484
-0.26870915 0.066861 0.003537746 0.89924186 0.22763781 -0.496506 -0.56802887 1.3133047
1.4204496 -0.27987307 0.78328234 -0.64120686 -0.67946553 1.3717343 -0.6709249 -0.12228797
1.7501588 -0.5983096 -0.00477818 1.722019 0.5949358 0.48133057 -0.78177136 1.7476748
-0.6932706 -0.40817922 0.54888463 -0.617371 -0.65087885 -0.0871554 -0.260835 -0.057011295
-0.026616238 -0.63301444 -0.4636328 -0.049529605 2.011455 -0.4238856 1.8384869 -0.71130556
1.4975994 1.5441248 0.019663315 -0.49056798 1.1731403 0.52677685 -0.25557145 -0.026899438
0.7685375 -0.4981264 -0.21662687 -0.4902536 -0.49621606 -0.3669116 0.009214822 0.09701627
-0.23724882 -0.37291804 0.026221089 -0.2035504 -0.34622377 -0.27277437 1.2834028 1.5588447
-0.38419834 -0.0668659 -0.11625721 0.8811087 0.34284756 -0.48551112 -0.43071872 1.4233501
1.4044057 -0.21884985 1.0585761 -0.3915007 -0.2818781 1.3878288 -0.62380284 -0.36552423
1.8894314 -0.4662054 0.0043817377 1.6316503 0.46157724 0.31172827 -0.21925434 1.7288811
-0.4200576 -0.17629842 -0.40362456 -0.6188789 -0.76136535 0.048838142 -0.34534562 -0.039344244
-0.0940318 -0.23941225 -0.364017 0.0133490795 1.8059473 -0.47079945 1.809245 -0.24568938
1.3497033 1.4756147 0.0836226 -0.25611904 1.2647511 0.4103365 -0.6141783 0.11129443
1.0829672 -0.48812026 -0.4214657 -0.6326008 0.009736083 -0.6216591 -0.054801412 -0.38999864
-0.68116766 -0.25910562 -0.05808038 -0.375325 -0.5713843 -0.19072637 1.2056776 1.5476718
-0.38549978 0.080716535 -0.015119612 1.3672312 0.17346494 -0.44159976 -0.5138037 1.2026116

layer3.bias f4 [5]
00000000: 8294 743f 71e6 953f fd8d a53f 17e9 bb3f
00000010: d467 4b3f
0.95539105 1.171095 1.2933956 1.4680508 0.79455304
