ch08/car_racing_dqn_50.pth (torch, 40839 bytes, 8 tensors)

layer1.weight f4 [64, 11]
0	0x3d50c157	0.050965633
1	0x3e5a4c6f	0.2131822
2	0xbce87f04	-0.028380878
3	0x3ea8c93f	0.3296604
4	0x3ed9809d	0.42480937
5	0x3e3f198f	0.18662094
6	0xbdac0eb0	-0.08401239
7	0x3e9041c4	0.28175175
8	0x3e690978	0.22757518
9	0x3e89345c	0.2679776
10	0x3e9de8a4	0.30841553
11	0xbeb78b78	-0.35848594
12	0xbdc75004	-0.09732059
13	0x3e9be054	0.30444586
14	0x3d2a5995	0.04158934
15	0x3e3c2bb2	0.18376043
16	0x3e0d7355	0.13813527
17	0xbe8fa10c	-0.28052557
18	0xbc14ad4a	-0.009074518
19	0x3d2ac22d	0.041689087
20	0x3ebbe015	0.366944
21	0x3ee03316	0.43788975
22	0x3e935308	0.28774285
23	0x3dd34ea9	0.103177376
24	0xbcdb3e7f	-0.026763199
25	0xbdb7c18b	-0.08972462
26	0xbe2efdb9	-0.17088975
27	0xbf09fb49	-0.53899056
28	0xbf00fbea	-0.5038439
29	0x3de8854b	0.113535486
30	0xbe37b8b0	-0.17941546
31	0xbe99f8e2	-0.30072695
32	0x3e3e7f4c	0.18603247
33	0xbe0cb151	-0.13739516
34	0x3d5846e6	0.05280199
35	0xbdd3a5b8	-0.10334343
36	0x3e1396df	0.14413022
37	0xbdb62b34	-0.08894959
38	0x3e13754f	0.14400218
39	0xbe5478da	-0.20749226
40	0x3cff00b9	0.031128274
41	0xbd5614fe	-0.052266113
42	0x3e918619	0.2842262
43	0xbe7bf786	-0.24606141
44	0x3e5133e6	0.20429954
45	0xbaf9e72b	-0.0019066086
46	0x3d8ba8ef	0.06819331
47	0x3eb4b859	0.35296896
48	0x3e5f9055	0.21832402
49	0xbd9e31c6	-0.07724337
50	0x3e527ee6	0.2055622
51	0x3e6bd015	0.23028596
52	0x3c4d8922	0.012544902
53	0x3da74da7	0.08169108
54	0x3e90519b	0.2818726
55	0x3e5f8ca1	0.2183099
56	0xbea7b1f1	-0.32752946
57	0x3e42a272	0.1900728
58	0xbe2e0d3b	-0.16997235
59	0xbd088e5e	-0.033338897
60	0x3f133b7b	0.57512635
61	0x3e71a5f5	0.23598464
62	0x3ea0fcf1	0.3144298
63	0x3e04122a	0.12897554
64	0x3c3a551b	0.01137283
65	0xbe4ebbc1	-0.2018881
66	0xbdebd9d8	-0.1151616
67	0x3e22a386	0.15882692
68	0x3eaaa56d	0.33329335
69	0x3ec731a7	0.3890507
70	0x3ea1b771	0.31585267
71	0x3d6eab69	0.05826894
72	0x3e2cdfd9	0.16882266
73	0x3e446c77	0.19182001
74	0xbdcd2aa8	-0.10017902
75	0x3d8924a4	0.06696442
76	0x3e6ccd62	0.23125222
77	0xbe60b5bd	-0.21944328
78	0x3e2cc3d6	0.1687158
79	0x3de9626a	0.11395724
80	0x3dc68827	0.09693938
81	0x3d7589a6	0.059945725
82	0xbe176097	-0.1478294
83	0x3e1a6c1e	0.15080306
84	0x3ef143ae	0.47121948
85	0x3dc8cfd3	0.09805264
86	0x3e66ef9d	0.22552343
87	0xbdd62b70	-0.10457504
88	0x3ccd4a0b	0.02505972
89	0xbf0ef3c0	-0.55840683
90	0xbdbc6d2b	-0.0920051
91	0xbf580f70	-0.84398556
92	0xbf45728f	-0.7712793
93	0xbe8e8c8d	-0.27841607
94	0xbe68bca6	-0.22728214
95	0xbef9ab59	-0.4876354
96	0xbe972ad4	-0.29524863
97	0xbd9734d6	-0.073831245
98	0xbdcf4ee0	-0.10122466
99	0x3da51d26	0.080622
100	0x3e95ad09	0.29233578
101	0x3d25ce70	0.040480077
102	0xbdf72927	-0.12068396
103	0x3eeeaa42	0.4661427
104	0x3f1d1b5b	0.61369866
105	0x3cc62e6b	0.024192056
106	0x3e9140de	0.28369802
107	0x3dae422a	0.085087135
108	0x3d2e5b9f	0.042567845
109	0x3e2d0ea3	0.16900115
110	0x3e934209	0.28761318
111	0xbe6eca6c	-0.23319405
112	0xbdad1b4b	-0.08452471
113	0xbe91be68	-0.2846558
114	0xbebffaec	-0.37496126
115	0x3e91ce6a	0.28477794
116	0x3e1a84ab	0.15089671
117	0xbda2485a	-0.07923956
118	0xbe18aa24	-0.14908653
119	0x3ee347ab	0.44390616
120	0x3e77f514	0.24214584
121	0x3eaea2c2	0.3410855
122	0x3e902f6d	0.28161183
123	0xbd8ed438	-0.06974071
124	0xbdf88bd3	-0.12136044
125	0xbd2c7422	-0.04210294
126	0xbf20bc74	-0.62787557
127	0xbf000c6a	-0.5001894
128	0xbea4673a	-0.32110006
129	0xbe8c7da4	-0.27439606
130	0xbceb3668	-0.028712466
131	0x3d007b6c	0.031367704
132	0x3d04bec0	0.032408476
133	0xbd347f2c	-0.044066593
134	0x3e39cc87	0.18144427
135	0xbd1fc4fb	-0.039006215
136	0x3ee3b963	0.44477376
137	0x3ea6acfa	0.32553846
138	0xbcb2abae	-0.021810379
139	0xbca205e5	-0.019778201
140	0xbe6acd6f	-0.22929929
141	0x3eb6fc61	0.35739425
142	0x3ebc63de	0.36794943
143	0x3e37d7ab	0.17953365
144	0x3e8e6096	0.27808064
145	0xbdcec106	-0.1009541
146	0x3e81871f	0.25298402
147	0x3e02da53	0.12778597
148	0x3f0e23f2	0.555236
149	0x3e66d119	0.22540702
150	0x3dcf8003	0.10131838
151	0x3e8afc4e	0.27145618
152	0xbc5e3087	-0.0135613745
153	0x3d1b19b9	0.037866328
154	0x3e265b4a	0.16245762
155	0xbe83887f	-0.25690076
156	0x3e61bce0	0.22044706
157	0xbda6d20f	-0.08145534
158	0xbd747715	-0.059683878
159	0x3db889c3	0.09010651
160	0xbe852974	-0.2600819
161	0xbd38e4a2	-0.045139916
162	0xbe82e899	-0.25568083
163	0x3d647fc9	0.055785928
164	0x3d32e512	0.04367549
165	0xbbd4bf26	-0.006492513
166	0xbd161352	-0.03663952
167	0x3cb5f664	0.022212215
168	0xbe9025a4	-0.28153718
169	0xbe24841c	-0.1606602
170	0xbd44e2ce	-0.04806786
171	0x3e022b64	0.12711865
172	0xbe83d693	-0.25749645
173	0xbbf2b777	-0.0074071246
174	0xbe644c12	-0.22294644
175	0xbdc911de	-0.09817861
176	0x3e7d4ff6	0.24737534
177	0x3ebc0528	0.36722684
178	0x3cc9b7c2	0.024623755
179	0xbbb27491	-0.0054460247
180	0xbdfe5e96	-0.124203846
181	0xbd616ad4	-0.05503352
182	0x3e9a7b1b	0.30172047
183	0x3ed7c3a7	0.42141458
184	0xbb90c708	-0.0044182576
185	0x3e9212a8	0.2852986
186	0x3eadc685	0.3394052
187	0xbe4b80ea	-0.19873396
188	0xbe16542a	-0.14680544
189	0x3e963f83	0.2934533
190	0x3d843799	0.06455917
191	0x3e76cf6c	0.24102563
192	0x3f000b11	0.50016886
193	0xbc5143ce	-0.012772514
194	0xbe77f273	-0.24213581
195	0xbebdb7ac	-0.37054193
196	0x3b44c705	0.0030025851
197	0x3e82b31e	0.2552728
198	0xbe8606a1	-0.26176932
199	0xbf210b08	-0.6290746
200	0xbdbc30ad	-0.09188972
201	0xbf41b27c	-0.7566297
202	0xbf2ba3f5	-0.67047054
203	0xbf350f2d	-0.7072628
204	0xbe929772	-0.2863117
205	0xbef03501	-0.4691544
206	0xbe33351b	-0.17500727
207	0x3e41b870	0.18918014
208	0xbeb4ffa6	-0.35351294
209	0x3ee89d7a	0.45432645
210	0xbe3acb0f	-0.18241523
211	0xbe95922c	-0.29213083
212	0xbe544201	-0.20728303
213	0xbeaa11ec	-0.33216798
214	0xbf37ca05	-0.7179263
215	0xbe690288	-0.22754872
216	0xbe91e8a7	-0.28497812
217	0xbe3abf13	-0.18236952
218	0x3e59f730	0.21285701
219	0x3e55aff9	0.2086791
220	0xbee6361a	-0.4496315
221	0x3e03fe1b	0.12889902
222	0xbe03dcf4	-0.12877256
223	0x3e801a55	0.2502009
224	0x3e527bb6	0.20555004
225	0x3e99969a	0.29997712
226	0x3ddc4e84	0.10757163
227	0x3eb2b7d6	0.3490588
228	0x3db43bb6	0.088004515
229	0x3eeb018d	0.4589962
230	0xbc05b33f	-0.008160411
231	0x3e067aea	0.13132825
232	0xbe9b8743	-0.30376634
233	0x3d27d802	0.040977485
234	0xbe657b03	-0.22410206
235	0x3ebbca34	0.36677706
236	0x3f2195d0	0.6311922
237	0xbd2c0b7c	-0.04200314
238	0xbd24260c	-0.040075347
239	0x3e4701ff	0.19434355
240	0x3e7b7353	0.24555711
241	0x3b9f2037	0.004856135
242	0x3e8a823e	0.27052492
243	0x3e9fd719	0.31218794
244	0xbde3a896	-0.111161396
245	0xbbb66490	-0.005566187
246	0xbe14a75e	-0.1451697
247	0xbf0194c7	-0.5061764
248	0xbee76f33	-0.45202026
249	0xbdd26cab	-0.10274633
250	0xbe51eba4	-0.20500046
251	0x3e36c3d8	0.17848146
252	0xbd8ab981	-0.06773663
253	0x3cea09a4	0.02856905
254	0xbe770328	-0.24122298
255	0xbd39c8e5	-0.045357604

layer1.bias f4 [64]
0	0xbd2ad24d	-0.041704465
1	0xbeb77aef	-0.35835978
2	0x3e9ca790	0.3059659
3	0xbe243934	-0.16037446
4	0xbdd88ab5	-0.10573331
5	0x3de68f5e	0.11257814
6	0x3e35792d	0.17722006
7	0xbe275f0c	-0.16344851
8	0x3ea6bbf6	0.32565278
9	0x3e8381d5	0.2568499
10	0xbe22017b	-0.15820877
11	0x3edb6f8b	0.42858538
12	0x3d673b20	0.05645287
13	0x3e2def14	0.16985732
14	0xbe889009	-0.2667239
15	0xbe5e117b	-0.21686356
16	0xbde5850d	-0.11207018
17	0x3e53a8be	0.20669839
18	0x3eaa45ce	0.33256382
19	0x3ea9206d	0.3303255
20	0x3d8fea65	0.07027129
21	0x3e16a678	0.1471194
22	0x3e78cbfc	0.24296564
23	0xbdef7936	-0.11693041
24	0x3e22306c	0.15838784
25	0xbbfd4f61	-0.00773041
26	0x3edff830	0.4374404
27	0x3e8b09af	0.27155825
28	0x3da2a78e	0.07942115
29	0xbe3e73d8	-0.18598878
30	0x3e40fa55	0.18845494
31	0x3bf8006e	0.0075684106
32	0xbe4bf6b1	-0.19918324
33	0x3e950528	0.29105496
34	0x3e5169c4	0.20450503
35	0xbd21af65	-0.03947391
36	0xbd81b30d	-0.06332979
37	0xbd42e60a	-0.047582664
38	0xbcfb8fc6	-0.030708205
39	0x3d3a9d92	0.045560427
40	0x3eb32a07	0.34993002
41	0x3dcb868c	0.09937772
42	0x3e46d0e5	0.19415624
43	0x3e9f3c25	0.31100574
44	0xbe8d1c6b	-0.27560744
45	0x3e90dbf9	0.28292826
46	0x3e835afa	0.25655347
47	0xbd4b40a1	-0.04962218
48	0x3ba9a6fb	0.0051773763
49	0x3e74a615	0.2389148
50	0xbdba6750	-0.091017365
51	0x3ea21ab9	0.31661013
52	0xbbaa4595	-0.005196283
53	0x3dddfe2c	0.10839495
54	0x3d65763d	0.056020964
55	0xbd492c69	-0.04911462
56	0xbe812c74	-0.25229228
57	0xbd4ee19a	-0.05050812
58	0x3e6de2b4	0.23231012
59	0x3e7bbe37	0.2458428
60	0x3d9b51eb	0.07583984
61	0xbe9154bb	-0.28384957
62	0x3b44973e	0.0029997374
63	0xbc8af70b	-0.016963502

layer2.weight_ih_l0 f4 [64, 64]
0	0x3d0e76e0	0.034781337
1	0xbcbcc910	-0.023045093
2	0xbd022874	-0.03177686
3	0xbb0d0b3a	-0.0021521584
4	0x3c81be26	0.01583774
5	0x3db0ee1d	0.086391665
6	0x3e06daa5	0.13169344
7	0x3d07d812	0.033165045
8	0x3d91be00	0.07116318
9	0x3e3aac37	0.18229757
10	0x3c0824ca	0.008309552
11	0xbe2685f6	-0.1626204
12	0x3e6ea70e	0.23305914
13	0x3da7963d	0.081829526
14	0x3de60cbe	0.11232899
15	0x3dedd6a6	0.116132066
16	0x3dddb729	0.10825951
17	0x3e557353	0.20844774
18	0x3d2803cb	0.041019242
19	0x3d4a7875	0.049431283
20	0x3d400967	0.046883967
21	0x3d8178a9	0.06321842
22	0xbe5a8867	-0.21341096
23	0xbdb7639e	-0.08954547
24	0xb9b829b7	-0.00035126295
25	0x3e4e13c8	0.20124733
26	0xbdeadbd8	-0.11467713
27	0xbd92dfcc	-0.07171592
28	0x3d969e00	0.07354355
29	0xbda2f668	-0.079571545
30	0xbdea3d4d	-0.114374734
31	0x3d5fe6ad	0.05466335
32	0xbd4de6ea	-0.050269045
33	0xbc75fa26	-0.015013253
34	0xbd00f8cd	-0.031487275
35	0x3dfdde4c	0.123959154
36	0x3d84619c	0.0646393
37	0xbc33b7c3	-0.010969105
38	0x3cfac383	0.030610805
39	0x3e15d29d	0.14631124
40	0x3dbf421e	0.09338783
41	0xbdb2dad8	-0.087331474
42	0xba9f152d	-0.0012137048
43	0xbc6ce36d	-0.014458519
44	0xbde5e422	-0.112251535
45	0xbdd89735	-0.105757155
46	0x3e050d74	0.12993413
47	0x3d11cbbb	0.035594683
48	0x3e07c7a0	0.13259745
49	0x3c8094e5	0.015695998
50	0x3d82d2ce	0.06387864
51	0xbe005bd7	-0.12535034
52	0x3e5a9bea	0.21348539
53	0xbe0e49af	-0.13895296
54	0x3e0ee181	0.1395321
55	0xbbc2e2dd	-0.0059474544
56	0xbcc75a35	-0.024335006
57	0x3e2a065e	0.16603991
58	0xbd925a1e	-0.07146095
59	0xbc158fbe	-0.009128509
60	0x3cfc6dcf	0.03081408
61	0x3ccb0b6f	0.024785725
62	0x3c8c6f93	0.017143046
63	0xbd6afb34	-0.057368472
64	0x3d302b80	0.043010235
65	0x3dc29d53	0.095026635
66	0x3e5cfc8b	0.21580712
67	0xbc441676	-0.011968246
68	0x3d08a35c	0.033358917
69	0xbda0ffb4	-0.078612715
70	0xbc537fa7	-0.012908853
71	0x3db25451	0.08707488
72	0x3e7cd64c	0.24691123
73	0x3d83ca97	0.06435125
74	0xbef0ebdf	-0.47054955
75	0x3ea5672f	0.32305285
76	0x3b1ebe1e	0.0024222205
77	0x3db219a3	0.08696296
78	0x3d6da8ac	0.058022186
79	0x3ca82a8e	0.020528104
80	0x3d98b9e6	0.07457332
81	0xbd019119	-0.031632517
82	0x3ed51098	0.41614223
83	0x3e1223be	0.14271447
84	0x3d62e3c4	0.055392995
85	0xbda52595	-0.08063809
86	0x3eb9d3d7	0.36294433
87	0x3c8e6641	0.017382743
88	0xbda89ba2	-0.082328096
89	0xbe00844d	-0.12550469
90	0x3eba431c	0.36379325
91	0xbcd44597	-0.02591209
92	0x3daf6899	0.08564872
93	0xbde89c39	-0.11357922
94	0x3d202276	0.039095365
95	0xbd385a90	-0.045008242
96	0xbd61680f	-0.05503088
97	0x3d1e74ed	0.038685728
98	0xbc89f2a5	-0.016839335
99	0xbcecd260	-0.028908908
100	0x3c6f5310	0.014607206
101	0xbc1f3dcc	-0.009719323
102	0xbe25ce30	-0.16191936
103	0x3ce55ecc	0.027999304
104	0xbd76a75e	-0.060218208
105	0x3db8a254	0.09015337
106	0x3d88e422	0.06684138
107	0x3d883d2b	0.06652292
108	0x3e2cf2c2	0.1688948
109	0x3eaf04b6	0.34183282
110	0x3da9a74e	0.08283864
111	0x3e4b4cb5	0.1985348
112	0xbd5b1e16	-0.05349549
113	0x3dbeba2c	0.09312853
114	0xbd675237	-0.05647489
115	0x3dc05805	0.093917884
116	0xbe1d7c29	-0.15379395
117	0x3e801a99	0.25020292
118	0xbdd83160	-0.105562925
119	0x3d20b3eb	0.039234083
120	0x3d943cee	0.07238184
121	0x3e45946a	0.19294897
122	0x3d0f9b24	0.035060063
123	0x3d55d23a	0.05220244
124	0xbd9df8ab	-0.07713445
125	0xbd636491	-0.05551583
126	0x3ca99b85	0.02070404
127	0xbd37b104	-0.04484655
128	0xbd55257b	-0.052037697
129	0x3d4f6596	0.05063399
130	0xb9b5c591	-0.0003467021
131	0xbddcaa0d	-0.10774622
132	0xbe0ba6f2	-0.13637903
133	0xbdf4bbb8	-0.11949867
134	0xbdfa05e4	-0.12208155
135	0x3d070554	0.032964066
136	0x3dcdd2c4	0.10049966
137	0xbc332d17	-0.010936043
138	0x3da9b128	0.08285743
139	0xbdafb5a9	-0.08579571
140	0xbd241433	-0.040058326
141	0xbd028453	-0.031864475
142	0x3d37c3cf	0.044864472
143	0xbde7cf54	-0.113188416
144	0x3d36e1fb	0.044649106
145	0xbe12bc67	-0.14329682
146	0xbc0cbbb2	-0.008589672
147	0xbd29267f	-0.04129648
148	0x3ad9853f	0.0016595497
149	0xbcb3e207	-0.021958364
150	0xbb0d066c	-0.002151872
151	0xbb85a5bf	-0.0040785964
152	0xbd360495	-0.044437964
153	0xbc5a9bc5	-0.013342802
154	0xbd3e5f13	-0.04647739
155	0x3c93a1a4	0.018021412
156	0xbd6108de	-0.054940097
157	0x3d8d1714	0.068891674
158	0xbbab0005	-0.005218508
159	0x3c29221f	0.0103230765
160	0xbd3bc516	-0.045842253
161	0x3cf28271	0.029603215
162	0xbd233a36	-0.039850436
163	0xbda83b37	-0.08214419
164	0xbb12abf0	-0.0022380315
165	0xbcefd7c9	-0.029277699
166	0x3d5e89a7	0.054330494
167	0x3da761ee	0.081729755
168	0xbdcaf9ed	-0.09910951
169	0xbd87a3ea	-0.06623061
170	0xbdf93e1c	-0.121700495
171	0x3d4e98af	0.05043858
172	0x3d97f4fc	0.07419774
173	0x3dd518b9	0.10405106
174	0xbe01031c	-0.12598842
175	0xbd779b6c	-0.060450956
176	0x3d015ec6	0.031584524
177	0xbddb6592	-0.107127324
178	0x3cb68251	0.022278937
179	0xbb0f1901	-0.0021834972
180	0xbe022fa0	-0.1271348
181	0x3df8729b	0.12131234
182	0xbcce89ca	-0.025212187
183	0x3d90b056	0.070648834
184	0x3c305cdc	0.010764327
185	0xbd86fde9	-0.06591398
186	0xbd2df691	-0.042471472
187	0xbde93a0a	-0.11388023
188	0xbca74c65	-0.02042217
189	0xbd94b740	-0.07261515
190	0xbca1d0dc	-0.019752912
191	0xbd8178fe	-0.063219056
192	0x3d7e3858	0.062065452
193	0x3dc3d3a4	0.095618516
194	0x3e5858a7	0.21127568
195	0x3d328a78	0.043589085
196	0xbc1cd789	-0.009572872
197	0xbe21cef2	-0.158016
198	0x3dc3f1f4	0.09567633
199	0x3dd02e3e	0.1016507
200	0x3e9c353e	0.3050937
201	0xbd70433a	-0.058657862
202	0xbe9a3fe8	-0.30126882
203	0x3ec4db9d	0.38448802
204	0x3cbae5d3	0.022814667
205	0xbe10d751	-0.14144637
206	0xbd579c1f	-0.052639123
207	0xbdb91078	-0.09036344
208	0x3e8fa9f7	0.2805936
209	0xbdbd3037	-0.09237712
210	0x3f28c096	0.6591886
211	0x3ebf4a8a	0.37361556
212	0x3a836c4a	0.001002678
213	0xbd31ec6e	-0.043438368
214	0x3eef799f	0.46772477
215	0x3d750179	0.059815858
216	0xbcf0791d	-0.029354626
217	0xbd79c940	-0.060982943
218	0x3e83510c	0.2564777
219	0x3eabffa9	0.3359349
220	0x3d67b6be	0.05657076
221	0x3dfbe10f	0.12298786
222	0x3e3ef962	0.1864982
223	0xbd6dde9b	-0.05807362
224	0x3cafd34c	0.021463059
225	0x3b9e5545	0.0048319423
226	0xb90b0a51	-0.00013259916
227	0xbd172674	-0.036901906
228	0x3d596bd7	0.05308136
229	0xbd01323d	-0.03154205
230	0xbc5ba8a6	-0.013406908
231	0x3d8f7d77	0.070063524
232	0xba5d9603	-0.00084528344
233	0x3ea8dd87	0.32981512
234	0xbdf14b86	-0.11781983
235	0xbe3affe9	-0.18261684
236	0x3dd33915	0.10313622
237	0x3eceb9a6	0.40376014
238	0xbc682291	-0.0141683975
239	0x3e06db5f	0.13169621
240	0xbd850fe5	-0.06497172
241	0x3e7f8733	0.24953918
242	0xbd9b8a33	-0.07594719
243	0x3d9ece4d	0.077541925
244	0xbe900316	-0.28127354
245	0x3e48ba66	0.19602355
246	0xbda5534e	-0.0807253
247	0x3cfa8e99	0.030585574
248	0x3d488504	0.04895498
249	0x3f00f5d6	0.50375116
250	0x3e61bd24	0.22044808
251	0x3e037810	0.12838769
252	0xb9245fc4	-0.00015675934
253	0xbd790fd9	-0.06080613
254	0xbe5cb29e	-0.21552512
255	0x3ed3fe2c	0.41404855

layer2.weight_hh_l0 f4 [64, 64]
0	0xbda37989	-0.07982165
1	0x3cbdea4f	0.023183016
2	0x3d9355f1	0.071941264
3	0xbdc7a210	-0.09747708
4	0x3db12e2a	0.08651383
5	0x3d53d72f	0.051718887
6	0x3db296b5	0.08720151
7	0xbe2d6dc1	-0.16936399
8	0x3d5a23a1	0.053256635
9	0xbc320c99	-0.010867261
10	0x3d8b2bd0	0.06795466
11	0xbbc6c2ce	-0.006065703
12	0x3d8a7a02	0.067615524
13	0xbd330271	-0.0437035
14	0xbd7c3dc0	-0.061582327
15	0xbd01ac5d	-0.03165852
16	0x3dd91c1e	0.10601066
17	0xbd1cea2f	-0.038309272
18	0x3ddb6721	0.1071303
19	0xbe05b893	-0.1305869
20	0x3ddd4b05	0.108053245
21	0xbd9a1d77	-0.07525151
22	0xbdf1ecf0	-0.1181277
23	0xbdad1b09	-0.08452422
24	0x3d7ce39b	0.0617405
25	0x3d8f6e26	0.07003431
26	0xbd46db91	-0.04854924
27	0xbe060a24	-0.13089806
28	0x3cd7e8d0	0.02635613
29	0x3d980a18	0.074238
30	0x3c28e8b1	0.010309384
31	0x3d158587	0.036504295
32	0x3d33174c	0.04372339
33	0x3dc29f63	0.09503057
34	0xbdf739dd	-0.120715834
35	0xbd7559d3	-0.059900116
36	0xbddfac81	-0.109215744
37	0x3d08ca18	0.033395857
38	0xbe0180c5	-0.12646778
39	0xbd87f6eb	-0.06638893
40	0x3d9d9758	0.07694882
41	0xbcc7a34e	-0.024369862
42	0xbc996bce	-0.018728163
43	0x3d6fc3b7	0.058536258
44	0x3d9c7f2c	0.076414436
45	0x3d5f8e19	0.054578874
46	0x3c986de1	0.018607082
47	0x3dc784e0	0.09742141
48	0xbd11919f	-0.035539266
49	0xbd70072b	-0.058600586
50	0x3d215b6a	0.03939382
51	0x3d948ad5	0.072530426
52	0x3d3c2f06	0.045943283
53	0x3dfe279f	0.12409901
54	0xbdd0f0d7	-0.102021866
55	0x3b871d15	0.00412334
56	0x3db023f2	0.08600606
57	0x3cec3f19	0.028838681
58	0xbe04b96f	-0.12961362
59	0x3c14dc7a	0.009085769
60	0xbc924a63	-0.017857736
61	0x3cf02c6b	0.029318055
62	0xbb8ba52f	-0.004261635
63	0x3cf3e8bf	0.029774068
64	0x3b61ae28	0.003443608
65	0xbd022f94	-0.031783655
66	0x3dc98a00	0.098407745
67	0xbdd1c728	-0.10243064
68	0x3daa24db	0.08307811
69	0xbd58198d	-0.052758742
70	0x3b88a7ac	0.0041703787
71	0x3dacb56a	0.084330395
72	0x3de2e08b	0.110779844
73	0xbdfeb518	-0.12436885
74	0xbc8395bc	-0.01606261
75	0xbde51be3	-0.111869596
76	0xbc2475b1	-0.010037825
77	0xbd09c50e	-0.03363519
78	0xbdcbae04	-0.099453
79	0x3c54cc3d	0.012988147
80	0x3d3ac065	0.045593638
81	0x3cce76b4	0.025203086
82	0x3d113556	0.035451256
83	0xbccb6adc	-0.024831228
84	0x3d21c681	0.03949595
85	0x3e04dba6	0.12974414
86	0xbc5e3c1a	-0.013564134
87	0xbdc2c169	-0.09509546
88	0xbbcb431e	-0.0062030694
89	0xbdfd8c42	-0.12380268
90	0x3c7e7594	0.0155309625
91	0x3e1d783e	0.153779
92	0xbc8150dd	-0.015785629
93	0xbd622be2	-0.05521763
94	0xbcf3395f	-0.029690443
95	0xbd9e026d	-0.077153064
96	0xbcf00824	-0.029300757
97	0xbdd1e700	-0.10249138
98	0x3df5c948	0.12001282
99	0x3ab45ba4	0.0013760221
100	0x3e0229d1	0.12711264
101	0xbcf03c5a	-0.029325653
102	0xbd3ab480	-0.045582294
103	0xbd935d25	-0.071955
104	0x3d2454b1	0.04011983
105	0x3dd299e9	0.10283262
106	0xbe19574c	-0.14974707
107	0xbd16f673	-0.036856126
108	0x3dd0b582	0.1019087
109	0x3d46c5a0	0.048528314
110	0x3d5f177d	0.05446576
111	0xbd441a3f	-0.047876593
112	0x3d584583	0.052800667
113	0xbd0dbfc8	-0.034606725
114	0xbd236597	-0.039891805
115	0x3d6a9f23	0.05728067
116	0xbd2d0f0b	-0.042250674
117	0xbdbb885e	-0.09156869
118	0x3dcc3db9	0.0997271
119	0x3d72ab3b	0.05924533
120	0x3da7efd3	0.0820004
121	0x3d816074	0.06317225
122	0x3c409809	0.011754998
123	0x3d539d42	0.051663645
124	0x3daaaf4d	0.08334217
125	0xbdb35eff	-0.087583534
126	0xbc993251	-0.01870075
127	0x3d95cb1b	0.0731413
128	0xbd95a0e8	-0.07306081
129	0xbdc958cd	-0.098313905
130	0xbb36e353	-0.0027906492
131	0x3c3e055d	0.011597958
132	0x3c33456b	0.0109418435
133	0x3bd04333	0.006355667
134	0xbdb9c858	-0.09071416
135	0x3c58661a	0.013207937
136	0xbc937b82	-0.018003229
137	0x3b9646df	0.004586085
138	0x3e0b3e1e	0.13597915
139	0xbd2e46e6	-0.042548083
140	0xbc7b4f23	-0.015338692
141	0x3d9ad755	0.075606026
142	0xbe0fca13	-0.14041929
143	0x3b0170f8	0.0019751173
144	0x3ddb960c	0.107219785
145	0x3dd7ea3e	0.10542725
146	0xbd87fb59	-0.06639738
147	0x3c8276d6	0.015925806
148	0xbda56ffe	-0.080780014
149	0x3d91ebd0	0.07125056
150	0xbc907b24	-0.017636843
151	0xbc4c9e19	-0.012488865
152	0x3dd119ff	0.102100365
153	0xbd3323f8	-0.043735474
154	0xbd8899a7	-0.06669932
155	0x3d22a25f	0.03970563
156	0xbe0fe5a6	-0.14052448
157	0x3d2cd9a9	0.042199764
158	0x3d948929	0.07252724
159	0xbda6c136	-0.08142321
160	0xbdaad153	-0.08340707
161	0x3d607a0d	0.054803897
162	0x3ca25d56	0.019819897
163	0xbd9ca8cc	-0.07649383
164	0x3dfd253c	0.123606175
165	0x3d929db3	0.07158985
166	0xbd7e7f4d	-0.062133122
167	0x3d3ce293	0.046114516
168	0x3d9087e3	0.07057168
169	0xbdc39aa9	-0.095509835
170	0xbe2104ba	-0.1572446
171	0xbd401b2a	-0.046900906
172	0x3cc7855c	0.024355583
173	0x3dff1370	0.12454879
174	0x3dfd78c9	0.123765536
175	0x3dcbbebb	0.09948488
176	0x3d50c82d	0.050972153
177	0xbdae920e	-0.085239515
178	0xbd9d4452	-0.07679047
179	0xbda8a783	-0.08235075
180	0x3d299190	0.041398585
181	0xbcb0a896	-0.021564763
182	0xbd85b680	-0.0652895
183	0x3bf59cce	0.007495499
184	0x3df17401	0.11789704
185	0x3db0fd69	0.08642084
186	0x3d66f0ec	0.056382105
187	0xbcbcfea0	-0.023070633
188	0xbd9775d1	-0.073955186
189	0x3de46fd8	0.11154145
190	0x3d89f000	0.067352295
191	0x3b9b29cc	0.004735207
192	0x3d66f272	0.056383558
193	0x3d33daff	0.043910023
194	0xbb04060a	-0.00201452
195	0x3d93c5cb	0.072154604
196	0x3ca600a1	0.020263972
197	0x3d6c7b3a	0.057734706
198	0x3de3a0c6	0.111146495
199	0x3b045210	0.0020190515
200	0xbdc8321c	-0.097751826
201	0xbd4badb2	-0.049726196
202	0x3daa864c	0.08326396
203	0xbdf0b036	-0.117523596
204	0x3e01bed2	0.12670448
205	0xbc26d85c	-0.01018342
206	0xbd8d2d1f	-0.06893372
207	0xbd051545	-0.032490987
208	0xbd852fb3	-0.065032385
209	0xbd274784	-0.040839687
210	0xbde5ea47	-0.112263255
211	0xbbe19f0f	-0.0068854163
212	0xbd831498	-0.06400412
213	0x3d64743f	0.055774923
214	0xbd3a062f	-0.045416053
215	0xbcfbb0b4	-0.030723907
216	0x3c8992be	0.016793605
217	0x3d047e92	0.03234727
218	0x3dc893aa	0.0979379
219	0xbd2aa99d	-0.041665662
220	0x3bc60fa3	0.0060443445
221	0xbdfc7a7b	-0.12328049
222	0xbe026830	-0.12735057
223	0xbd9e2032	-0.077209845
224	0xbd1bc476	-0.038029157
225	0xbd4f16bd	-0.050558794
226	0x3e0a7fd8	0.13525331
227	0x3db38d26	0.08767156
228	0xbd17786f	-0.03698009
229	0x3d7815f1	0.0605678
230	0x3d21d3c2	0.03950859
231	0xbdcf31d7	-0.10116928
232	0xbd5ba32b	-0.053622406
233	0x3d762d16	0.06010159
234	0x3da1de47	0.07903724
235	0x3cdb2ec6	0.026755702
236	0xbd317890	-0.043327868
237	0x3d979f7f	0.07403468
238	0xbd960576	-0.0732526
239	0x3cc8e1ef	0.024521796
240	0xbb5bda5a	-0.0033546896
241	0x3d909be2	0.07060982
242	0xbd149b6b	-0.03628103
243	0xbd768eb4	-0.060194686
244	0xbda24107	-0.07922559
245	0xbdabe668	-0.08393556
246	0x3db344d7	0.087533645
247	0x3d84fc5f	0.064934485
248	0xbdab5025	-0.08364896
249	0x3dbc056c	0.09180722
250	0x3d380eda	0.04493604
251	0x3c9aa3a1	0.018876852
252	0x3de6e9a0	0.11275029
253	0xbde2e3dd	-0.11078618
254	0xbcbce5b8	-0.023058757
255	0xbd25776a	-0.040397085

layer2.bias_ih_l0 f4 [64]
0	0xbd8686c5	-0.06568674
1	0x3d566ca6	0.05234971
2	0x3d03a7fb	0.03214262
3	0x3d708ed2	0.058729954
4	0x3d4ba8a5	0.04972138
5	0xbdb8db0f	-0.09026157
6	0x3c65c94e	0.014025046
7	0xbd9922b9	-0.07477326
8	0xbd2db1f2	-0.04240603
9	0xbc4206c4	-0.011842433
10	0xbd006b50	-0.03135234
11	0xbca21a5d	-0.019787962
12	0xbe1059bd	-0.14096732
13	0x3d54381a	0.051811315
14	0x3ced90f4	0.028999783
15	0x3c341187	0.010990507
16	0xbcdb7f80	-0.026794195
17	0x3e150770	0.14553618
18	0xbda57b40	-0.08080149
19	0x3d55b9eb	0.05217926
20	0x3d044bc1	0.032298807
21	0xbe107c6a	-0.1410996
22	0xbd70b2e7	-0.058764365
23	0xbca7f9d4	-0.02050487
24	0xbca47665	-0.020075986
25	0x3cbafc3c	0.022825353
26	0x3e0b479e	0.13601539
27	0x3da3f94e	0.080065355
28	0x3d025ff8	0.031829804
29	0x3d939b81	0.072073944
30	0xbd6d1f4d	-0.05789118
31	0x3c63972f	0.013891025
32	0x3ccb7efb	0.024840822
33	0xbcf00066	-0.029297065
34	0xbdc97edf	-0.09838652
35	0x3e17af1d	0.14812894
36	0x3d2d67ec	0.042335436
37	0xbdf156b8	-0.117841184
38	0x3c901a96	0.017590802
39	0xbe16aa8e	-0.14713499
40	0x3c2eb6ea	0.010663727
41	0x3d9a859e	0.07545017
42	0xbd798995	-0.060922224
43	0x3e041376	0.12898049
44	0x3dcb10f0	0.0991534
45	0xbc1609b7	-0.00915759
46	0xbe22b6dd	-0.1589007
47	0xbdd88c2b	-0.1057361
48	0x3e2820c5	0.1641875
49	0xbe28c291	-0.16480471
50	0xbe20167b	-0.15633576
51	0x3c9b33f6	0.018945675
52	0x3e088428	0.13331664
53	0xba2bff5b	-0.0006561183
54	0x3dee1278	0.116246164
55	0x3daf4307	0.08557706
56	0x3da42e7e	0.0801668
57	0x3d996844	0.0749059
58	0xbc766eb0	-0.015041038
59	0xbd44e62a	-0.048071064
60	0xbdc6f683	-0.09714987
61	0x3dd5bb9b	0.104361735
62	0x3dc13c78	0.094353616
63	0xbdd40c0d	-0.10353861

layer2.bias_hh_l0 f4 [64]
0	0x3d4c8a02	0.049936302
1	0xbdc072d8	-0.09396905
2	0x3c2afff4	0.010437001
3	0xbc387dfc	-0.011260506
4	0xbdc4c003	-0.09606936
5	0xbd81578a	-0.06315525
6	0xbcd2e7f6	-0.025745373
7	0x3d97afec	0.07406601
8	0xbda21187	-0.07913499
9	0xbe090163	-0.13379435
10	0x3c9a65c1	0.018847348
11	0xbd0cdd5c	-0.034390792
12	0xbdedddc8	-0.11614567
13	0x3ca76a01	0.020436289
14	0x3d37b317	0.044848528
15	0x3cd22fa6	0.025657486
16	0xbd2b4cc1	-0.041821245
17	0x3d8d1ad6	0.06889884
18	0xbda6b3b9	-0.08139748
19	0x3df20278	0.11816877
20	0xbb3dd46c	-0.0028965725
21	0x3d7a9684	0.0611787
22	0xbd0e0d1f	-0.034680482
23	0xbd30c43c	-0.043155894
24	0x3d06c51c	0.032902822
25	0x3dc44f0c	0.095853895
26	0xbd5b18b3	-0.053490352
27	0xbdc8b808	-0.09800726
28	0xbdcca83d	-0.099930264
29	0xbdd81cee	-0.10552393
30	0xbda0fac0	-0.07860327
31	0x3d008423	0.031376015
32	0x3d6199e7	0.055078413
33	0x3de175a0	0.11008763
34	0xbd2fd39a	-0.04292641
35	0xbc9ca4af	-0.019121496
36	0xbd059853	-0.03261597
37	0xbd866f68	-0.06564218
38	0x3d8b87fc	0.06813046
39	0xbc74a3a9	-0.014931598
40	0x3d2ba7d1	0.04190809
41	0xbd1a6893	-0.037697386
42	0xbd15ea63	-0.03660048
43	0x3cff6573	0.031176304
44	0x3de94d0a	0.11391647
45	0xbc9901f5	-0.018677691
46	0x3bbc304e	0.005743063
47	0x3d5d289d	0.05399381
48	0x3d882b63	0.066489
49	0xbde2e38e	-0.11078559
50	0xbd57ed20	-0.052716374
51	0xbd0f9cfd	-0.035061825
52	0xbdb3693b	-0.087603055
53	0x3dfea9c6	0.124347255
54	0xbb8da1ef	-0.0043222825
55	0xbd0913cc	-0.033466145
56	0xbc2f0d1d	-0.010684279
57	0xbd6bd01f	-0.057571527
58	0x3c5ecfc3	0.013599339
59	0x3d7a6af3	0.06113715
60	0x3c297ecc	0.010345172
61	0xbba94c6f	-0.0051665823
62	0x3daaaffc	0.083343476
63	0xbda5eeba	-0.08102174

layer3.weight f4 [5, 64]
0	0x3e9e8705	0.30962387
1	0xbddcde1c	-0.107845515
2	0x3da5c00b	0.0809327
3	0xbd2ba8c3	-0.04190899
4	0xbe68a6a1	-0.22719814
5	0x3e0a5acb	0.13511197
6	0xbe3d1fc0	-0.18469143
7	0xbe95ec4b	-0.2928184
8	0x3ea8d7e5	0.32977214
9	0xbbb72c4c	-0.0055899974
10	0x3de27ff0	0.110595584
11	0x3ec66f99	0.38757017
12	0xbdc7a310	-0.097478986
13	0xbda09425	-0.07840756
14	0xbdc2517a	-0.09488197
15	0x3ecfb374	0.405666
16	0xbe9eb1e4	-0.30995095
17	0xbcf639b7	-0.030056817
18	0xbd339921	-0.043847207
19	0xbe840e20	-0.25792027
20	0xbe2d8847	-0.16946517
21	0xbdd4d1d5	-0.10391585
22	0xbe2a76a1	-0.16646816
23	0xbdc8cf46	-0.09805159
24	0xbdd46051	-0.103699334
25	0xbe8583a9	-0.2607701
26	0xbe30c558	-0.1726278
27	0x3d7a0f0e	0.061049514
28	0x3f008afb	0.5021207
29	0xbd31d7e4	-0.04341878
30	0x3ec9a073	0.39380226
31	0xbeb5ea2d	-0.35530224
32	0x3ec22770	0.37920713
33	0x3f0a8b76	0.5411905
34	0x3d4e00ed	0.05029385
35	0xbea7dcf6	-0.32785767
36	0xbcafc3b5	-0.021455625
37	0x3dd14d3e	0.10219811
38	0xbe101246	-0.14069471
39	0xbcbe95cc	-0.023264788
40	0xbdc32c04	-0.0952988
41	0xbe5a5776	-0.21322426
42	0xbe0cff5f	-0.13769291
43	0xbe5e04a9	-0.21681465
44	0xbdeb2e8b	-0.11483487
45	0xbe2ccd86	-0.16875276
46	0x3de50c11	0.11183942
47	0xbd662f4b	-0.056197446
48	0xbe4dcc2b	-0.20097415
49	0xbd811bf3	-0.06304159
50	0x3d3fe34a	0.04684762
51	0xbdf9b56d	-0.12192807
52	0xbe4509be	-0.19241998
53	0xbe36960f	-0.1783068
54	0x3e32d3d3	0.17463617
55	0x3eaa0e50	0.33214045
56	0xbda3c35f	-0.079962485
57	0x3d0b6693	0.03403337
58	0xbd76c212	-0.060243674
59	0xbe003a20	-0.12522173
60	0xbd67d3d7	-0.05659851
61	0xbe7ce5b6	-0.24697003
62	0xbdd51fa6	-0.10406427
63	0x3cb4e791	0.022083076
64	0x3e901a66	0.2814514
65	0xbe0a3a32	-0.13498762
66	0x3d18332d	0.03715818
67	0xbe45a885	-0.19302566
68	0xbbbdca9a	-0.0057919743
69	0x3e0ca940	0.13736439
70	0xbe146787	-0.14492618
71	0xbe8b07f8	-0.27154517
72	0x3ed09ff2	0.4074703
73	0x3d5c53db	0.05379091
74	0x3d79d80e	0.06099706
75	0x3ea27375	0.31728712
76	0x3d9a08b1	0.07521189
77	0xbd97fb36	-0.074209616
78	0xbe2d97a0	-0.16952372
79	0x3eb45cc2	0.3522702
80	0xbd941e7a	-0.072323754
81	0xbe01b690	-0.12667298
82	0xbd59237a	-0.05301235
83	0xbe8dfb64	-0.27730858
84	0xbe99cae4	-0.30037606
85	0x3d1e3de7	0.038633253
86	0xbe5c8394	-0.21534568
87	0xbd6913c7	-0.056903627
88	0x3dbb3adf	0.09142088
89	0xbe03802e	-0.12841865
90	0xbdf31768	-0.11869699
91	0x3dcd7bb7	0.10033362
92	0x3ee95a6a	0.45576793
93	0xbdbba90a	-0.09163101
94	0x3e9ed896	0.31024617
95	0xbe908c03	-0.2823182
96	0x3eb4a9ab	0.35285696
97	0x3f0044ef	0.50105184
98	0xbd121b29	-0.035670433
99	0xbf06ae18	-0.52609396
100	0xbd1adaeb	-0.037806433
101	0x3cb0564c	0.021525525
102	0xbe49ff04	-0.19726187
103	0x3c1e1c0a	0.00965024
104	0x3d931ce6	0.07183246
105	0xbe03f15e	-0.12885043
106	0xbe33caec	-0.17557877
107	0xbed16641	-0.40898326
108	0x3c535735	0.01289921
109	0xbe81eb2a	-0.25374728
110	0xbcf30af1	-0.029668303
111	0xbd73ac48	-0.059490472
112	0xbe46d5ff	-0.1941757
113	0xbe8fca2a	-0.28083926
114	0x3c5e2705	0.013559108
115	0xbe38802f	-0.18017648
116	0xbe7732d2	-0.2414048
117	0xbd72a859	-0.05924258
118	0x3e26e603	0.1629868
119	0x3ec201eb	0.37892088
120	0xbd7f243a	-0.062290408
121	0x3dad6c7f	0.084679596
122	0x3db84915	0.08998314
123	0x3d8210da	0.063508704
124	0x3dae2fba	0.08505197
125	0xbe4708b9	-0.19436921
126	0xbe74b225	-0.23896082
127	0x3e60704a	0.21917835
128	0x3e312157	0.17297874
129	0xbdeeab77	-0.11653798
130	0xbd45fd03	-0.048336994
131	0xbe83adcb	-0.2571853
132	0xbe66a04f	-0.2252209
133	0x3e8ab044	0.27087605
134	0xbe9137c5	-0.2836286
135	0xbd8e9c46	-0.069634005
136	0x3ee45e0a	0.44602996
137	0xbdb5b0d0	-0.08871615
138	0xbbc53089	-0.0060177487
139	0x3f0d0a45	0.55093795
140	0x3df36e80	0.118863106
141	0xbd03ea5f	-0.032205936
142	0xbe60393f	-0.21896838
143	0x3eb68bf3	0.35653648
144	0xbe588e58	-0.2114805
145	0xbe305211	-0.17218806
146	0xbcb283f2	-0.021791432
147	0xbe7ed05a	-0.24884167
148	0xbe854638	-0.26030135
149	0xbde24fb2	-0.11050357
150	0xbdabfec2	-0.083982006
151	0xbda6ceea	-0.081449345
152	0x3d94d40e	0.07267009
153	0xbe8e5ba7	-0.278043
154	0xbdeea45e	-0.11652444
155	0xbd76a3a3	-0.06021465
156	0x3f1e67c7	0.618771
157	0xbe1772ac	-0.14789838
158	0x3ea7648e	0.32693905
159	0xbead6a75	-0.33870283
160	0x3ea0e77d	0.31426612
161	0x3f1f5491	0.62238413
162	0xbce1f22a	-0.027581293
163	0xbeb5ed50	-0.35532618
164	0x3d7ab7f8	0.061210603
165	0xbdc79607	-0.09745412
166	0xbe3c1940	-0.18369007
167	0xbd0be62b	-0.034155052
168	0xbdccfc9f	-0.10009121
169	0xbdbf673c	-0.09345862
170	0xbdf22673	-0.1182374
171	0xbe86eead	-0.2635397
172	0xbdc37e49	-0.09545571
173	0xbe02ff72	-0.12792757
174	0x3c3f550d	0.0116779925
175	0x3b897be9	0.0041956794
176	0xbe4e5abc	-0.201518
177	0xbe4e5dbd	-0.20152946
178	0xbb015124	-0.0019732201
179	0xbe1d85d9	-0.1538309
180	0xbdd810e9	-0.105501
181	0xbe6221d3	-0.22083215
182	0x3e1e8cfb	0.15483467
183	0x3eca1bfe	0.3947448
184	0xbe0ab6d6	-0.13546309
185	0xbdad6feb	-0.08468612
186	0x3dc3ec58	0.09566563
187	0x3d4a6276	0.049410306
188	0x3dca326a	0.09872897
189	0xbe823d19	-0.2543724
190	0xbde6cec3	-0.112699054
191	0x3e1520f5	0.14563353
192	0x3e282c6d	0.16423197
193	0xbd110e97	-0.035414305
194	0x3da8089a	0.082047656
195	0xbe54db2c	-0.20786732
196	0xbe206b77	-0.15665995
197	0x3e6a014a	0.22852054
198	0xbea23e85	-0.31688324
199	0xbe624e83	-0.22100262
200	0x3f0399bb	0.5140645
201	0xbde87b59	-0.11351652
202	0x3ba5936b	0.005052974
203	0x3f15778d	0.58385545
204	0x3da29500	0.07938576
205	0x3d42cb35	0.047557075
206	0xbdd2a8d4	-0.10286108
207	0x3f11df68	0.56981516
208	0xbe7aee13	-0.2450488
209	0xbd0e5818	-0.03475198
210	0xbe9e874e	-0.30962604
211	0xbe881122	-0.2657557
212	0xbe374ebe	-0.17901132
213	0x3d7da956	0.06192907
214	0xbe708c24	-0.2349096
215	0xbd466ef6	-0.048445664
216	0xbd68fd23	-0.056882035
217	0xbdf80c33	-0.12111702
218	0xbe08b929	-0.13351883
219	0x3adb37df	0.0016725025
220	0x3f1e5c36	0.6185945
221	0xbe2ebe46	-0.17064771
222	0x3ec21505	0.37906662
223	0xbe3757b9	-0.17904557
224	0x3e073ede	0.13207576
225	0x3f1a7ccb	0.6034667
226	0x3db93a13	0.0904428
227	0xbe10a5bf	-0.14125727
228	0x3e01ae3d	0.12664123
229	0xb920677b	-0.00015297339
230	0xbe669c1f	-0.22520493
231	0x3e109862	0.1412063
232	0xbdad7e27	-0.08471327
233	0xbe2d1db2	-0.16905859
234	0xbe8c600c	-0.27417028
235	0xbec0dc7c	-0.37668216
236	0xbdb46c3c	-0.088097066
237	0xbebd52a1	-0.36977103
238	0xbd8e5ce9	-0.06951315
239	0xbdb7e505	-0.08979229
240	0xbe6fc92b	-0.23416583
241	0xbd978389	-0.07398135
242	0xbdf1f8cb	-0.118150316
243	0xbdc0b4d6	-0.09409492
244	0xbe65cc50	-0.2244122
245	0xbe5872d9	-0.21137561
246	0x3e295864	0.16537625
247	0x3f00e284	0.50345635
248	0x3e0238d5	0.12716992
249	0x3dd18fc1	0.10232497
250	0x3dbc0c8d	0.09182081
251	0x3de2134d	0.110388376
252	0x3d51b2e0	0.05119598
253	0xbe8ace66	-0.27110595
254	0xbe432f80	-0.19061089
255	0xbe9e19eb	-0.3087915

layer3.bias f4 [5]
0	0x3dcb182e	0.09916721
1	0x3e903b12	0.28170067
2	0x3e8c83d8	0.2744434
3	0x3eb9da71	0.3629947
4	0x3de32d66	0.110926434
