ch08/car_racing_dqn_550.pth (torch, 40850 bytes, 8 tensors)

layer1.weight f4 [64, 11]
-0.30702472 -0.013544807 -0.077951506 0.12720554 0.20445593 0.12180252 0.0059324857 0.33277777
0.35229054 0.24197775 0.13305016 -0.58297414 -0.28673312 0.20642228 0.30921116 0.3505431
0.20989738 -0.17071936 0.06540088 0.30538574 0.40890685 0.19006371 0.38103953 0.007676856
-0.253413 -0.018380743 0.010661405 -0.25292346 -0.19192757 0.16988915 -0.15596505 -0.24463977
0.15370904 -0.085911356 0.033078823 -0.06470444 0.090106435 -0.055612516 0.09002962 -0.12992662
0.019477192 -0.032734334 0.17779236 -0.15394576 -0.011768681 0.071337044 0.10348796 0.35465372
0.36343965 0.3049497 0.21903566 0.09572186 0.055316906 0.0893854 0.08083768 0.3144406
0.044496603 0.2571144 -0.08054094 -0.060079716 0.3109225 0.37508544 0.44967815 -0.17673115
-0.49482223 -0.54351217 -0.37010247 0.110281676 0.32983363 0.19491284 -0.0037764506 -0.25188616
0.07491129 0.31169423 0.094780594 0.06656302 0.11052022 -0.4710936 0.23392223 0.16328272
0.076567665 0.12851782 0.1651006 0.15849888 0.2133396 0.10492958 0.05345339 -0.48675504
0.43423516 -0.48548847 -0.050312135 0.02903845 -0.50406414 -0.42937374 0.003526193 0.096896
0.04181226 0.4610231 0.48908004 -0.06488404 0.21597761 0.06182452 -0.39626437 -0.07542335
0.24906647 0.060593158 0.18575537 0.11228308 0.08946966 0.199377 0.46501788 0.05206997
0.15238936 -0.35566372 -0.677681 -0.061969634 0.2571147 0.3659005 0.17906128 0.51265436
0.44146162 0.34387645 0.10950397 -0.32356343 -0.1003183 -0.0033815259 -0.3044727 -0.133804
0.0004124089 -0.23592737 -0.101445615 0.042882886 -0.19873345 -0.047807317 0.24895962 -0.16777453
-0.012709822 -0.122491434 -0.23925224 -0.12700377 -0.09380621 0.23478538 0.18242013 -0.10832585
0.13065177 -0.06664591 -0.29498065 -0.31645358 0.25278664 0.24704316 0.11904172 0.18613784
-0.08035476 -0.1133209 0.10155712 -0.16066478 0.13794564 -0.050922718 -0.037373148 0.056335595
-0.1626088 -0.02822196 -0.15991928 0.03489091 0.027306695 -0.0040655946 -0.02289079 0.0138873905
-0.17617893 -0.10041331 -0.030047571 0.07951856 -0.16102882 -0.0046382933 -0.13944526 -0.061395463
0.10533236 0.335026 0.05904584 0.13922296 0.14887652 0.3058254 0.25576988 0.17420173
0.016631166 0.18201238 0.07620666 -0.26808706 -0.087968685 0.35052413 0.1409818 0.3053964
0.010067204 -0.44542825 -0.52209496 -0.57751286 -0.19694005 -0.0034091293 -0.7093535 -1.0179064
-0.44579825 -1.0117733 -1.1456747 -1.6911736 -0.708665 -0.40983507 -0.22935902 -0.08998412
-0.40290764 0.6484822 -0.10614759 -0.31558514 0.0860508 0.025867207 -0.3537697 -0.04287992
-0.05544075 -0.1598702 0.062848546 0.11790688 -0.29591116 -0.160027 -0.41253117 0.1275527
0.24950318 0.25391683 0.2877805 0.46393254 0.2051887 0.33435926 0.04889788 0.13279471
-0.28630215 -0.081880204 -0.43675864 0.10760671 0.37095585 0.07752156 0.016368015 0.14268811
0.16053 0.056176584 0.29706833 0.17042789 -0.2991472 0.055990554 -0.03754634 -0.1888647
-0.11905147 0.088696025 -0.075850666 0.11605593 0.016864365 0.017891018 -0.15104726 -0.028358014
00000000: 5832 9dbe 0aeb 5dbc 0aa5 9fbd 2b42 023e
00000010: e55c 513e 9973 f93d 4c65 c23b d961 aa3e
00000020: 6d5f b43e 04c9 773e 4d3e 083e cb3d 15bf
00000030: afce 92be 5d60 533e ed50 9e3e 637a b33e
00000040: 57ef 563e 0ed1 2ebe e6f0 853d 855b 9c3e
00000050: 3d5c d13e 10a0 423e 9d17 c33e 238e fb3b
00000060: 59bf 81be 3693 96bc 2cad 2e3c 2f7f 81be
00000070: a988 44be 6cf7 2d3e 4db5 1fbe d982 7abe
00000080: e765 1d3e 4bf2 afbd a97d 073d c383 84bd
00000090: b989 b83d f3c9 63bd 7361 b83d 7c0b 05be
000000a0: a28e 9f3c 7014 06bd 330f 363e f5a3 1dbe
000000b0: 6dd1 40bc 2819 923d 7ff1 d33d 2c95 b53e
000000c0: c314 ba3e 5e22 9c3e e24a 603e d309 c43d
000000d0: fb93 623d b10f b73d 3a8e a53d 5cfe a03e
000000e0: 1242 363d 80a4 833e a6f2 a4bd 2616 76bd
000000f0: 3c31 9f3e 330b c03e 373c e63e 03f9 34be
00000100: 5759 fdbe 9d23 0bbf 127e bdbe 5cdb e13d
00000110: f4df a83e 3b97 473e 547e 77bb 39f7 80be
00000120: 176b 993d 6396 9f3e 541c c23d 3152 883d
00000130: 6d58 e23d 2e33 f1be 4f89 6f3e 9633 273e
00000140: 82cf 9c3d 2d9a 033e 2210 293e 884d 223e
00000150: b275 5a3e 52e5 d63d f1f1 5a3d f537 f9be
00000160: 1254 de3e f291 f8be 1914 4ebd 0be2 ed3c
00000170: 590a 01bf e0d6 dbbe b417 673b 6971 c63d
00000180: 5543 2b3d 380b ec3e b368 fa3e ece1 84bd
00000190: 3c29 5d3e b53b 7d3d 2ae3 cabe 8f77 9abd
000001a0: 480b 7f3e 8830 783d a836 3e3e acf4 e53d
000001b0: de3b b73d 7c29 4c3e d316 ee3e 5247 553d
000001c0: f50b 1c3e 8e19 b6be 817c 2dbf dfd3 7dbd
000001d0: 8aa4 833e 4f57 bb3e d75b 373e 513d 033f
000001e0: 4207 e23e 9310 b03e 9e43 e03d 1baa a5be
000001f0: ae73 cdbd 979c 5dbb d9e3 9bbe ea03 09be
00000200: 9638 d839 f296 71be b8c2 cfbd f7a5 2f3d
00000210: c880 4bbe 9bd1 43bd 45ef 7e3e 16cd 2bbe
00000220: db3c 50bc cadc fabd 8afe 74be 470d 02be
00000230: 781d c0bd 946b 703e 58cc 3a3e f1d9 ddbd
00000240: 94c9 053e a77d 88bd b407 97be 3406 a2be
00000250: 406d 813e e2f8 7c3e 25cc f33d eb9a 3e3e
00000260: 0991 a4bd ca14 e8bd 2efd cf3d 4f85 24be
00000270: 9f41 0d3e 5794 50bd 9614 19bd 27c0 663d
00000280: ec82 26be bd31 e7bc e1c1 23be c5e9 0e3d
00000290: 4ab2 df3c ae38 85bb 7785 bbbc f087 633c
000002a0: 4068 34be 7ea5 cdbd 5326 f6bc a0da a23d
000002b0: bde4 24be d3fc 97bb bdca 0ebe cf79 7bbd
000002c0: 7eb8 d73d 8788 ab3e 0dda 713d 7790 0e3e
000002d0: 1673 183e 2695 9c3e 45f4 823e f061 323e
000002e0: 153e 883c 7461 3a3e 3d12 9c3d b542 89be
000002f0: ed28 b4bd e677 b33e 885d 103e eb5c 9c3e
00000300: eaf0 243c 2c0f e4be 04a8 05bf e2d7 13bf
00000310: a7aa 49be b36b 5fbb 3198 35bf c24a 82bf
00000320: ab3f e4be ca81 81bf 78a5 92bf 6078 d8bf
00000330: 126b 35bf e7d5 d1be 17dd 6abe 9849 b8bd
00000340: e949 cebe ee02 263f e863 d9bd 6094 a1be
00000350: 673b b03d 77e7 d33c 4d21 b5be dba2 2fbd
00000360: d715 63bd 04b5 23be bdb6 803d 2a79 f13d
00000370: ab81 97be 1ede 23be 4937 d3be 2d9d 023e
00000380: c37d 7f3e 6301 823e f757 933e 9188 ed3e
00000390: fd1c 523e 2331 ab3e 2549 483d 56fb 073e
000003a0: 3296 92be cfb0 a7bd d49e dfbe e860 dc3d
000003b0: eded bd3e a0c3 9e3d 3716 863c d51c 123e
000003c0: fa61 243e 6b19 663d 5719 983e a684 2e3e
000003d0: d229 99be 5a56 653d 31ca 19bd bf65 41be
000003e0: 42d1 f3bd 43a6 b53d 9857 9bbd bbae ed3d
000003f0: 2327 8a3c 2f90 923c 22ac 1abe 114f e8bc

layer1.bias f4 [64]
-0.023559634 -0.42928717 0.19120729 -0.100231476 -0.17672448 0.20181377 0.13833407 -0.3064662
0.2185754 0.17614204 -0.24744691 0.26932114 0.120383896 0.1639085 -0.16666782 -0.13579553
-0.22249064 0.251333 0.57067734 0.21963407 0.08986738 0.17301556 0.13116595 -0.07322295
0.23579162 0.17612514 0.31575432 0.19395743 0.17810911 0.025959695 0.036916077 0.18637909
-0.12460816 0.20509222 0.31315497 -0.007119125 -0.30684558 -0.080620736 -0.012125209 0.03220623
0.22520569 -0.0076528704 0.10797727 0.22492526 -0.23119639 0.08944444 0.21461241 0.08462772
0.20847224 0.45107257 0.021591872 0.19347191 0.18615359 -0.07436792 -0.008976517 -0.030714283
-0.15784849 -0.17302968 0.03175193 0.21847846 -0.06691326 -0.17756636 -0.17093545 -0.14820589
00000000: 2200 c1bc 87cb dbbe d8cb 433e 2946 cdbd
00000010: 43f7 34be 45a8 4e3e 72a7 0d3e 23e9 9cbe
00000020: 3bd2 5f3e 945e 343e b962 7dbe 76e4 893e
00000030: d58b f63d a1d7 273e f8aa 2abe fc0d 0bbe
00000040: 96d4 63be b8ae 803e e917 123f c1e7 603e
00000050: 640c b83d fe2a 313e 5e50 063e eaf5 95bd
00000060: 5c73 713e 265a 343e 8daa a13e c79c 463e
00000070: 3c62 363e 6da9 d43c 5035 173d 29da 3e3e
00000080: 9032 ffbd b203 523e d955 a03e 8d47 e9bb
00000090: dd1a 9dbe 7c1c a5bd d0a8 46bc aeea 033d
000000a0: 529c 663e eec4 fabb 3023 dd3d cf52 663e
000000b0: bfbe 6cbe a62e b73d 5bc3 5b3e 4c51 ad3d
000000c0: bf79 553e fcf2 e63e 70e1 b03c 801d 463e
000000d0: 0c9f 3e3e 354e 98bd 3e12 13bc 859c fbbc
000000e0: 09a3 21be b12e 31be 500e 023d d1b8 5f3e
000000f0: d209 89bd f5d3 35be b409 2fbe 49c3 17be

layer2.weight_ih_l0 f4 [64, 64]
0.07002544 0.15554401 -0.45877764 -0.0013459377 -0.3214488 0.52924097 0.11381371 -0.43681908
-0.25892618 0.19033006 0.33254334 -0.43085644 0.24561433 0.26843745 0.070278674 0.072723985
-0.19782622 0.60310215 -0.8761517 -0.36240628 0.45095813 0.31276092 -0.44694167 -0.055984948
0.45245945 1.3006529 -0.45174533 -0.2694955 -0.21489224 0.53244066 -0.68872094 0.84323
-0.031450503 0.09500695 -0.7405981 0.11004773 -0.2746228 0.19335207 -0.027750645 0.011261639
-0.10666039 -0.1510625 0.16413787 0.4581879 -0.09165121 -0.16079682 0.34685946 -0.25031745
1.3831438 -0.8382641 0.94155574 -0.1848725 0.5464769 -0.1448245 0.914132 -0.0037183904
-0.01521179 -0.11319045 -0.12473177 -0.3702385 -0.09278992 0.015506491 0.50864816 -0.17285745
0.027665915 0.13048258 0.0950137 -0.0074819117 0.028589943 -0.1717039 -0.038211692 0.14568974
0.17632109 0.03346428 -1.0060571 0.1283207 -0.04157856 0.05838262 0.03633459 0.012835212
0.035081893 -0.19848347 0.30555058 0.023597628 0.053075105 -0.07133677 0.10571298 0.010877819
-0.008421615 -0.015273565 0.19672103 0.1583822 0.097830996 -0.18926537 -0.030549102 -0.043790065
-0.034437876 0.013285077 0.0023713594 0.0020997848 0.0346738 -0.0086583765 -0.12671706 0.03260206
-0.10112675 -0.078828625 -0.25590456 -0.04516203 0.115318 0.0818243 0.08747055 0.38328174
0.011965198 0.08585837 -0.1973803 0.10936167 0.012349576 0.14398246 -0.21514602 0.024532698
0.04524326 0.12584288 -0.009812815 0.06892704 -0.03206759 -0.034728847 -0.5426701 -0.045902792
0.031054847 0.22699487 -0.047589194 -0.067486435 -0.09478652 -0.007531148 -0.12092955 0.15147881
-0.23552208 -0.009387143 -0.28590035 -0.040259566 0.03640561 -0.10357734 0.028049808 -0.070851624
0.006640319 -0.0045674704 -0.32307604 -0.27586108 0.20752662 0.021994865 -0.3170404 -0.0025498173
0.17025892 0.14272323 -0.059962515 -0.12192594 -0.30669954 0.2786617 -0.12787099 0.0016771384
-0.028672138 0.021437045 -0.20402886 -0.06412659 0.12525532 -0.073795885 0.030100184 0.18818156
-0.14403065 -0.11911351 -0.1938864 0.25212422 0.04908648 -0.04526624 -0.03373618 -0.41934428
0.02036525 -0.31898138 0.44432762 -0.029959112 0.058437057 0.043907452 0.09624036 0.044203456
0.0067300824 -0.09329273 -0.10842898 -0.3050546 -0.0008236818 -0.045383245 -0.0360049 -0.119465105
0.041202646 0.05853575 0.13014473 0.027252689 0.026125249 -0.25928238 0.08273492 0.20049813
0.3390352 0.014760625 -0.7749136 0.2339327 0.0030667281 -0.07561515 -0.032974124 -0.056496177
0.16924617 -0.4654439 0.632757 0.23158617 -0.14039788 -0.18646726 0.2735621 0.037455637
-0.035864078 -0.2875361 0.2236968 0.23551087 0.18615162 -0.20195378 0.11368581 -0.27247813
0.013419168 -0.0058916435 0.051169682 0.03451728 0.026918566 -0.021301392 0.010551764 0.019511428
-0.027331617 0.084798716 -0.259099 -0.3365876 0.06070169 0.14143287 0.018538225 0.21033269
-0.23843162 0.2873751 -0.24396582 0.22336486 -0.28858688 0.069692954 -0.37939915 0.019141981
0.030609904 0.32392517 0.086816415 0.17351004 0.0073015285 -0.03806925 -0.87375575 0.2289702
00000000: 7f69 8f3d ee46 1f3e e7e4 eabe 2d6a b0ba
00000010: f094 a4be 567c 073f 2a17 e93d c0a6 dfbe
00000020: f991 84be e2e5 423e 1f43 aa3e 3799 dcbe
00000030: 5382 7b3e a270 893e 44ee 8f3d 50f0 943d
00000040: f592 4abe e764 1a3f 7a4b 60bf 518d b9be
00000050: fce3 e63e 3322 a03e 8ad5 e4be 7950 65bd
00000060: c4a8 e73e cb7b a63f 2a4b e7be 50fb 89be
00000070: b60c 5cbe 084e 083f 0450 30bf ecdd 573f
00000080: 3ed2 00bd 0193 c23d d697 3dbf b460 e13d
00000090: 5c9b 8cbe 16fe 453e 5255 e3bc bd82 383c
000000a0: c370 dabd 21b0 1abe c213 283e 9b97 ea3e
000000b0: a1b3 bbbd eca7 24be 9097 b13e 9c29 80be
000000c0: db0a b13f 7a98 56bf cc09 713f 374f 3dbe
000000d0: e9e5 0b3f e04c 14be 8e04 6a3f 3db0 73bb
000000e0: df3a 79bc 65d0 e7bd 5f73 ffbd e78f bdbe
000000f0: a408 bebd f00e 7e3c c436 023f 8b01 31be
00000100: a1a3 e23c 3a9d 053e 8b96 c23d d32a f5bb
00000110: 7535 ea3c 26d3 2fbe dd83 1cbd b12f 153e
00000120: 848d 343e d711 093d 7bc6 80bf 8066 033e
00000130: 484e 2abd 9d22 6f3d 94d3 143d c84a 523c
00000140: 08b2 0f3d 403f 4bbe 2071 9c3e d04f c13c
00000150: 4865 593d 0319 92bd 0c80 d83d e138 323c
00000160: d0fa 09bc fa3d 7abc 3d71 493e f22e 223e
00000170: 9e5b c83d c8ce 41be 1c42 fabc 365d 33bd
00000180: bb0e 0dbd a7a9 593c cf68 1b3b 8b9c 093b
00000190: 1d06 0e3d dddb 0dbc 1ec2 01be bd89 053d
000001a0: 8b1b cfbd e770 a1bd ec05 83be d2fb 38bd
000001b0: d82b ec3d 8093 a73d c223 b33d 813d c43e
000001c0: ae09 443c 83d6 af3d 101e 4abe 03f9 df3d
000001d0: e055 4a3c 2370 133e 3d4f 5cbe ccf8 c83c
000001e0: ff50 393d f5dc 003e eec5 20bc 9f29 8d3d
000001f0: 4e59 03bd d63f 0ebd 6dec 0abf 9104 3cbd
00000200: bc66 fe3c 5871 683e e3ec 42bd 5436 8abd
00000210: 6f1f c2bd d9c7 f6bb e9a9 f7bd 431d 1b3e
00000220: b32c 71be 88cc 19bc 8861 92be 37e7 24bd
00000230: 0d1e 153d 5b20 d4bd b6c8 e53c a81a 91bd
00000240: 0897 d93b b8aa 95bb 396a a5be aa3d 8dbe
00000250: dc81 543e 932e b43c 1f53 a2be d61a 27bb
00000260: 5b58 2e3e 0a26 123e 419b 75bd 4fb4 f9bd
00000270: b907 9dbe bfac 8e3e 9df0 02be 6dd3 db3a
00000280: d5e1 eabc be9c af3c f1ec 50be cd54 83bd
00000290: ee42 003e 4c22 97bd a994 f63c abb2 403e
000002a0: c57c 13be c9f1 f3bd 288a 46be 6d16 813e
000002b0: e80e 493d 1869 39bd f32e 0abd 4bb4 d6be
000002c0: 06d5 a63c 8751 a3be e97e e33e d06c f5bc
000002d0: b25b 6f3d 4dd8 333d aa19 c53d af0e 353d
000002e0: 0688 dc3b 4210 bfbd 0310 debd 1e30 9cbe
000002f0: 5aec 57ba c8e3 39bd e079 13bd 1faa f4bd
00000300: 1bc4 283d 2fc3 6f3d a944 053e 0841 df3c
00000310: 9e04 d63c a9c0 84be ed70 a93d 624f 4d3e
00000320: 0696 ad3e 8cd6 713c bd60 46bf 0e8c 6f3e
00000330: 29fb 483b 1edc 9abd e00f 07bd 8968 67bd
00000340: de4e 2d3e aa4e eebe 5dfc 213f ed24 6d3e
00000350: 76c4 0fbe 46f1 3ebe 5510 8c3e 156b 193d
00000360: 36e6 12bd ef37 93be c610 653e c329 713e
00000370: 889e 3e3e f9cc 4ebe 1bd4 e83d 4182 8bbe
00000380: 12dc 5b3c b00e c1bb 4d97 513d fe61 0d3d
00000390: 5384 dc3c 4280 aebc 4ee1 2c3c 6ed6 9f3c
000003a0: 8ee6 dfbc f3aa ad3d a0a8 84be 3655 acbe
000003b0: 56a2 783d c7d3 103e 7add 973c 7461 573e
000003c0: 6b27 74be d422 933e 2dd2 79be c2b9 643e
000003d0: a9c1 93be 2ebb 8e3d 9b40 c2be a5cf 9c3c
000003e0: 9fc1 fa3c 85d9 a53e cecc b13d 9eac 313e
000003f0: a941 ef3b 80ee 1bbd 75ae 5fbf 2a77 6a3e

layer2.weight_hh_l0 f4 [64, 64]
-0.017533155 -0.021955974 -0.0047858935 -0.056448214 -0.0036075767 -0.0037776723 0.026171215 -0.079773195
0.021745542 0.07961566 0.06406806 0.042701613 0.035875786 -0.046345383 0.0037752534 -0.024229998
0.10010929 -0.060403246 0.055421367 -0.0994988 0.042005207 -0.023135552 -0.063768305 -0.043669168
0.037527785 0.026779735 -0.052433733 -0.086277686 0.0109702535 0.06962166 -0.02213334 0.047356084
0.058457766 0.06995117 -0.05734502 -0.0053070937 -0.061689284 0.02945961 -0.09802421 0.00013664814
0.06935466 0.007869252 0.0153361345 0.029878523 -0.09592262 -0.007524734 0.030408733 0.040364638
-0.049548805 -0.059768293 0.059093818 0.009580909 -0.0035596797 0.12189406 -0.010768899 0.04043707
0.026182815 0.034879014 -0.08807275 -0.046904095 0.011911492 0.04023062 -0.037573747 0.0028935913
-0.045530338 0.060145274 0.048468404 -0.023775345 0.041693058 -0.08584906 0.031539224 0.027651235
-0.015725648 -0.058744147 0.07720177 -0.044155266 0.046129297 0.034473173 -0.03149515 0.015983349
0.028876068 0.015826369 -0.010866312 0.06679797 0.02439077 0.15685463 -0.02526469 0.022481445
0.100956894 -0.064752564 0.049814194 0.18631892 -0.02482735 0.016889183 -0.0729843 -0.06139676
-0.077491485 -0.049479898 0.15279661 0.029973295 0.024174936 0.025714125 -0.036204036 0.02992988
-0.05356607 0.12102019 0.0017378693 -0.006879425 -0.033898015 0.026658474 0.11224933 -0.0101121
-0.037460383 0.103851385 0.046020467 0.11047401 0.010566954 -0.028872134 0.036077112 0.017143264
0.055954218 0.11817782 0.11111571 0.0056709684 0.11379406 -0.053227637 0.047687333 0.004734396
-0.009217667 -0.046490066 -0.012974339 0.09924136 0.016295344 -0.009806302 -0.05345044 0.05584785
0.046955787 0.059741955 0.06026391 0.026867617 -0.07228492 -0.09164764 -0.027947629 0.009404439
0.09989037 0.13520014 0.033378456 0.11906989 -0.108187556 0.023123438 -0.02403967 -0.02993243
0.04835257 -0.025296273 0.059131972 -0.008859851 -0.11961875 0.055163767 0.03405295 -0.05977422
-0.025016267 0.046021413 -0.0013887961 -0.033549476 0.07126278 -0.09935736 -0.07312549 0.00049763155
0.11504733 -0.0038049037 -0.07858307 0.028210234 -0.19787227 0.08195997 0.055956542 0.16486977
-0.015741875 -0.05174476 -0.08079974 -0.045173276 0.0999645 -0.067800485 -0.01994941 0.010532829
-0.04051147 0.03607725 0.019262046 -0.029803714 -0.11093968 0.05545124 0.13035142 -0.09481142
0.018135479 0.09370202 -0.020293605 0.02945862 0.0670041 -0.00863889 0.10804153 -0.022957003
-0.11029696 -0.008677806 0.090307124 -0.09582269 0.074767 -0.022792775 -0.08255402 -0.061549958
-0.06949825 0.031270154 -0.108152255 0.06109752 0.033255678 0.06871617 -0.041942406 0.017035453
0.043083545 -0.018123545 0.11062445 0.028737912 -0.038778678 0.007332569 -0.047172397 -0.079039134
-0.05912567 -0.034881458 0.11699353 0.034347657 -0.041408457 0.023320874 -0.0006282508 -0.027900988
-0.07807399 0.020881554 0.06449559 -0.01109492 -0.08857837 0.015390926 -0.011098161 0.097224265
-0.006490666 0.099314585 0.018308047 0.009109454 -0.007881619 -0.020893302 0.053508047 0.015826149
-0.091774166 0.09176102 0.044248015 0.046749707 0.04875649 -0.107449464 0.031814914 -0.008839436
00000000: b1a1 8fbc 04dd b3bc fcd2 9cbb 3e36 67bd
00000010: 186d 6cbb d392 77bb 0465 d63c 2160 a3bd
00000020: b523 b23c 890d a33d 1d36 833d e3e7 2e3d
00000030: 7df2 123d a8d4 3dbd 3e6a 773b fd7d c6bc
00000040: 1906 cd3d 6569 77bd 8401 633d 07c6 cbbd
00000050: a70d 2c3d c586 bdbc f598 82bd 71de 32bd
00000060: bcb6 193d 2d61 db3c c1c4 56bd 5bb2 b0bd
00000070: 94bc 333c cd95 8e3d fa50 b5bc 74f8 413d
00000080: 6971 6f3d 8f42 8f3d 9de2 6abd 21e7 adbb
00000090: e7ad 7cbd 4855 f13c ebc0 c8bd 3549 0f39
000000a0: d109 8e3d 09ee 003c 6944 7b3c cec3 f43c
000000b0: 1473 c4bd 0b92 f6bb bc1b f93c 6455 253d
000000c0: b0f3 4abd 99cf 74bd 5c0c 723d 3ff9 1c3c
000000d0: 8449 69bb 98a3 f93d 0970 30bc 57a1 253d
000000e0: 587d d63c 4cdd 0e3d 7c5f b4bd 821e 40bd
000000f0: 6b28 433c ddc8 243d eee6 19bd 68a2 3d3b
00000100: 057e 3abd e45a 763d ce86 463d 83c4 c2bc
00000110: 57c6 2a3d a2d1 afbd 462f 013d d884 e23c
00000120: 13d3 80bc b49d 70bd f61b 9e3d 27dc 34bd
00000130: 13f2 3c3d be33 0d3d 0f01 01bd 83ef 823c
00000140: 818d ec3c 4da6 813c 9e08 32bc 60cd 883d
00000150: 27cf c73c 809e 203e e5f7 cebc 022b b83c
00000160: 7dc2 ce3d fe9c 84bd f809 4c3d 63ca 3e3e
00000170: ba62 cbbc 2f5b 8a3c cb78 95bd 2b7b 7bbd
00000180: dbb3 9ebd 6fab 4abd b776 1c3e 8e8a f53c
00000190: 840a c63c 6ea6 d23c af4a 14bd 822f f53c
000001a0: 1868 5bbd 6fd9 f73d 38c9 e33a cd6c e1bb
000001b0: a5d8 0abd df62 da3c fae2 e53d 39ad 25bc
000001c0: 0f70 19bd 09b0 d43d f57f 3c3d 3340 e23d
000001d0: 0421 2d3c 4185 ecbc 98c5 133d 0870 8c3c
000001e0: 4030 653d 3707 f23d a290 e33d 88d3 b93b
000001f0: dc0c e93d 3905 5abd cb53 433d fe22 9b3b
00000200: b305 17bc 5e6c 3ebd 5292 54bc 0e3f cb3d
00000210: d07d 853c 9daa 20bc d9ee 5abd b7c0 643d
00000220: b654 403d fbb3 743d 4ad7 763d 7a19 dc3c
00000230: 1e0a 94bd c2b1 bbbd 6df2 e4bc 1315 1a3c
00000240: 5393 cc3d e871 0a3e d9b7 083d eada f33d
00000250: 7091 ddbd 5d6d bd3c d8ee c4bc db34 f5bc
00000260: 580d 463d 213a cfbc 5e34 723d e928 11bc
00000270: adfa f4bd 67f3 613d 1b7b 0b3d d0d5 74bd
00000280: eaee ccbc f380 3c3d 4408 b6ba 2d6b 09bd
00000290: 38f2 913d df7b cbbd d1c2 95bd 7d73 023a
000002a0: ef9d eb3d b15b 79bb 29f0 a0bd 2619 e73c
000002b0: 079f 4abe a1da a73d b032 653d 9fd3 283e
000002c0: 1bf5 80bc 50f2 53bd 567a a5bd 9d07 39bd
000002d0: 30ba cc3d fbda 8abd f26c a3bc e391 2c3c
000002e0: 5bef 25bd bdc5 133d 70cb 9d3c eb26 f4bc
000002f0: 5834 e3bd d720 633d d87a 053e 7d2c c2bd
00000300: db90 943c d8e6 bf3d c63e a6bc 3453 f13c
00000310: 7239 893d 228a 0dbc e144 dd3d 5310 bcbc
00000320: 5fe3 e1bd 5b2d 0ebc f1f2 b83d b03e c4bd
00000330: 711f 993d eab7 babc 1512 a9bd cf1b 7cbd
00000340: 1955 8ebd 2215 003d ee7e ddbd 6541 7a3d
00000350: 1b37 083d 10bb 8c3d cdcb 2bbd ef8d 8b3c
00000360: 5f78 303d d477 94bc 128f e23d c56b eb3c
00000370: 64d6 1ebd 0c46 f03b d837 41bd 45df a1bd
00000380: c22d 72bd dcdf 0ebd 4e9a ef3d 21b0 0c3d
00000390: ea9b 29bd 6b0b bf3c 33b1 24ba 9d90 e4bc
000003a0: 42e5 9fbd cb0f ab3c 4416 843d 78c7 35bc
000003b0: 9468 b5bd 392a 7c3c 10d5 35bc 841d c73d
000003c0: a7af d4bb 7265 cb3d c2fa 953c d23f 153c
000003d0: e821 01bc 6e28 abbc 412b 5b3d d7a5 813c
000003e0: 18f4 bbbd 34ed bb3d 683d 353d 9f7c 3f3d
000003f0: e3b4 473d 770e dcbd 5b50 023d 48d3 10bc

layer2.bias_ih_l0 f4 [64]
-0.04177993 -0.055126958 -0.025815558 -0.012157895 -0.00476565 -0.0139004355 -0.045039788 -0.08022357
0.0873547 -0.037610844 -0.03707447 0.0371691 -0.1481037 -0.016044803 -0.031350862 0.07090102
-0.0864548 -0.0014333882 -0.026563015 0.0007283536 0.075676315 -0.12955123 -0.101685375 -0.0564893
-0.044611655 -0.07422372 0.015046387 -0.015661985 0.067415826 0.014167491 0.044134464 -0.028446242
0.01576898 0.0072215996 -0.1455515 0.06619211 0.06662032 -0.034520075 -0.013951632 -0.07000723
-0.019863943 -0.02690887 -0.104024954 0.0029910044 0.05428157 -0.10498174 -0.15234092 -0.064302765
0.21446456 -0.17368712 -0.099388555 -0.052603 0.03410546 -0.10617078 0.11522911 0.100257054
0.12699053 -0.059222333 -0.04507279 -0.0070735244 -0.10012252 0.008546516 -0.031003673 -0.019245304
00000000: 6f21 2bbd cecc 61bd 267b d3bc e831 47bc
00000010: 2b29 9cbb a7be 63bc a47b 38bd 414c a4bd
00000020: 05e7 b23d d40d 1abd 66db 17bd a03e 183d
00000030: 7fa8 17be 6470 83bc c369 00bd 8e34 913d
00000040: 370f b1bd 87e0 bbba ae9a d9bc fcee 3e3a
00000050: 2ffc 9a3d 14a9 04be 6c40 d0bd 5361 67bd
00000060: b6ba 36bd 9b02 98bd 1f85 763c 904d 80bc
00000070: 4f11 8a3d c41e 683c 57c6 343d 1808 e9bc
00000080: f32d 813c 2ba3 ec3b 740b 15be bb8f 873d
00000090: 3c70 883d ec64 0dbd 6395 64bc f35f 8fbd
000000a0: b5b9 a2bc fe6f dcbc 090b d5bd ba04 443b
000000b0: 5a56 5e3d ab00 d7bd 42ff 1bbe 2bb1 83bd
000000c0: 999c 5b3e 09db 31be 3a8c cbbd 3e76 57bd
000000d0: 2bb2 0b3d 1170 d9bd 3dfd eb3d 9253 cd3d
000000e0: ce09 023e 1e93 72bd 3f9e 38bd 06c9 e7bb
000000f0: 090d cdbd b006 0c3c 6afb fdbc 54a8 9dbc

layer2.bias_hh_l0 f4 [64]
0.030500395 -0.14641652 -0.03919711 -0.05590342 -0.09591275 0.0030615677 -0.07007446 0.012935395
0.06444165 -0.113800034 -0.005645643 0.028064677 -0.13258478 -0.035666946 -0.021476207 0.080278434
-0.09590783 -0.049363833 -0.026914608 0.042115618 0.053660195 -0.00271777 -0.086657345 -0.070624165
-0.011650368 -0.028564086 -0.103249446 -0.1273143 -0.015031552 -0.09646785 0.03114125 -0.017486159
0.034678537 0.09430907 -0.110632606 -0.038427394 0.019852446 -0.0020038595 0.01767489 0.012552504
-0.00027246575 -0.09767733 -0.088895 -0.058158983 0.06355276 -0.11108729 -0.049021322 0.035539206
0.15367387 -0.1394766 -0.034559984 -0.08656192 -0.104005225 -0.02803431 0.039718065 0.02582197
0.07018385 -0.14195889 -0.027123027 0.061165918 -0.032815717 -0.05992848 -0.037896138 -0.005229566
00000000: f7db f93c 36ee 15be 268d 20bd fcfa 64bd
00000010: e76d c4bd 95a4 483b 3383 8fbd fbee 533c
00000020: fcf9 833d fe0f e9bd 16ff b8bb e5e7 e53c
00000030: 4ec4 07be 8117 12bd dfee afbc 0569 a43d
00000040: 536b c4bd bb31 4abd 067c dcbc 6d81 2c3d
00000050: cbca 5b3d 9d1c 32bb 6879 b1bd 67a3 90bd
00000060: 2fe1 3ebc 3bff e9bc 7274 d3bd ae5e 02be
00000070: e646 76bc f090 c5bd ef1b ff3c 223f 8fbc
00000080: 150b 0e3d 1d25 c13d 5993 e2bd 0b66 1dbd
00000090: 99a1 a23c 2f53 03bb eeca 903c 05a9 4d3c
000000a0: bcd9 8eb9 0d0b c8bd 950e b6bd 1d38 6ebd
000000b0: f327 823d bc81 e3bd 95ca 48bd 8f91 113d
000000c0: af5c 1d3e f4d2 0ebe c58e 0dbd 6047 b1bd
000000d0: b100 d5bd 36a8 e5bc 69af 223d 9988 d33c
000000e0: 8dbc 8f3d ac5d 11be 1c31 debc 1d89 7a3d
000000f0: c669 06bd 9177 75bd fb38 1bbd c75c abbb

layer3.weight f4 [5, 64]
1.4150218 -0.35578555 1.0030409 -0.18022715 -0.5512084 1.2019358 -0.5729314 -0.60447246
1.5900769 -0.31361204 0.06894077 1.7075149 0.999683 0.8956757 -0.5049741 1.8291597
-0.7589643 -0.17979291 -0.19036362 -0.48362336 -0.6441776 -0.06507242 -0.6002798 -0.06695293
-0.06336147 -0.6282909 -0.3578251 -0.0022556256 1.8844266 -0.34227282 1.9245389 -0.46877864
1.2387482 1.5036789 0.045020785 -0.50151014 1.2129984 1.1566973 -0.4868679 0.12439501
0.84517753 -0.59890467 -0.30684522 -0.5707183 -0.037513867 -0.64072526 0.06995229 -0.36781797
-0.2514545 -0.2588316 0.04550515 -0.31894335 -0.40429673 -0.3640196 1.5750068 1.5094101
-0.5417696 0.021267561 -0.01938594 1.0326862 0.53468156 -0.5993352 -0.30777293 1.4928831
1.6912905 -0.3345114 0.9894249 -0.28111398 0.005109332 1.1448735 -0.53194284 -0.69120127
1.7117555 -0.3093533 0.038525674 1.718551 0.880192 0.5711258 -0.67093974 1.7829338
-0.6596957 -0.35777217 -0.4959828 -0.52244693 -0.7689539 0.024177661 -0.8525832 -0.041125335
-0.032992 -0.63168395 -0.33032468 -0.02225462 1.9736166 -0.4095897 1.8986992 -0.50761694
1.3217003 1.2914389 0.039545394 -0.6675302 1.0434694 0.79996675 -0.51788044 0.03511943
0.9276022 -0.6098185 -0.31760997 -0.6847191 0.51544523 -0.610566 -0.018578053 -0.29150683
-0.34194693 -0.4386268 0.080840215 -0.16470723 -0.43876928 -0.15897 1.3092437 1.7171917
-0.4922945 0.052968107 0.0027784726 1.0450168 0.5525415 -0.5928392 -0.4484484 1.3439924
1.5253286 -0.22094676 0.91843706 -0.49812043 -0.88915384 1.4031384 -0.8235843 -0.07487018
1.6315241 -0.4737417 -0.003788262 1.7977502 0.7824065 0.68731034 -1.0102487 1.8121831
-0.9541503 -0.32511604 0.9394475 -0.49125862 -0.6527252 -0.06914084 -0.45507768 -0.04303528
-0.02112159 -0.96017545 -0.44529325 -0.039288495 1.9369388 -0.3483475 1.8702458 -0.80162585
1.4223619 1.4780872 0.015592319 -0.54944587 1.2205858 0.7252326 -0.27292258 -0.10787728
0.89007795 -0.524173 -0.17296466 -0.613288 -0.24166538 -0.52347827 0.007303294 0.07748055
-0.3561718 -0.29616138 0.053625494 -0.16451214 -0.27704388 -0.41966516 1.2788192 1.5730865
-0.6027825 -0.052971914 -0.092267916 0.9415959 0.61791193 -0.53912187 -0.3434025 1.4347844
1.4884646 -0.1738392 1.0695165 -0.31574604 -0.5912992 1.3686825 -0.7424536 -0.53068876
1.7906457 -0.37047607 0.0034767627 1.6590667 0.7670731 0.5474099 -0.5853995 1.7405701
-0.8648421 -0.1403464 -0.26724505 -0.49445578 -0.78977966 0.038742486 -0.5904562 -0.019288432
-0.074656144 -0.53383535 -0.3204025 0.01059383 1.8635544 -0.3720965 1.7618072 -0.4513078
1.3430716 1.5459746 0.0664274 -0.3471307 1.2593453 0.6057087 -0.54939514 0.052209128
1.1109896 -0.6698203 -0.32932264 -0.7936653 0.058802437 -0.7773702 -0.043499395 -0.31054163
-0.5689909 -0.20540173 0.054499153 -0.2970809 -0.46203366 -0.37253448 1.2678114 1.5858309
-0.47088882 0.06404971 -0.01194456 1.3967513 0.5095051 -0.6239848 -0.42094487 1.2834084
00000000: 6f1f b53f 8629 b6be a563 803f 778d 38be
00000010: fe1b 0dbf 08d9 993f a2ab 12bf b5be 1abf
00000020: a487 cb3f c291 a0be d230 8d3d d98f da3f
00000030: 3aeb 7f3f 014b 653f fc45 01bf e821 ea3f
00000040: 7c4b 42bf a21b 38be aeee 42be 7b9d f7be
00000050: d3e8 24bf b044 85bd f0ab 19bf 9e1e 89bd
00000060: a9c3 81bd acd7 20bf da34 b7be 1ed3 13bb
00000070: e434 f13f 623e afbe 4a57 f63f c103 f0be
00000080: 4d8f 9e3f 8d78 c03f b767 383d f862 00bf
00000090: 8843 9b3f a80e 943f c046 f9be d0c2 fe3d
000000a0: 8e5d 583f d151 19bf d11a 9dbe 981a 12bf
000000b0: 24a8 19bd 9206 24bf 2543 8f3d a352 bcbe
000000c0: a5be 80be 9385 84be 9c63 3a3d 8b4c a3be
000000d0: fbff cebe c760 babe d399 c93f 5a34 c13f
000000e0: 6ab1 0abf 4f39 ae3c 43cf 9ebc 102f 843f
000000f0: e4e0 083f 086e 19bf 6a94 9dbe cb16 bf3f
00000100: 357c d83f 1445 abbe f34a 7d3f 2cee 8fbe
00000110: 2f6c a73b 378b 923f 682d 08bf 91f2 30bf
00000120: ce1a db3f 8e63 9ebe 19cd 1d3d 7bf9 db3f
00000130: 4354 613f 4d35 123f b5c2 2bbf 2d37 e43f
00000140: d1e1 28bf ea2d b7be 75f1 fdbe 15bf 05bf
00000150: 2ada 44bf 3b10 c63c e542 5abf 0a73 28bd
00000160: 9f22 07bd 0ab6 21bf 5120 a9be 524f b6bc
00000170: 789f fc3f beb5 d1be 9308 f33f 2ff3 01bf
00000180: 7a2d a93f df4d a53f 5afa 213d 42e3 2abf
00000190: 6890 853f 9fca 4c3f d093 04bf 64d9 0f3d
000001a0: 5677 6d3f 111d 1cbf c69d a2be c049 2fbf
000001b0: 38f4 033f 0e4e 1cbf 0031 98bc 6240 95be
000001c0: ab13 afbe b193 e0be 8e8f a53d 03a9 28be
000001d0: 5ea6 e0be 08c9 22be 4c95 a73f f0cc db3f
000001e0: 060e fcbe 16f5 583d 0917 363b 1cc3 853f
000001f0: 5c73 0d3f 4fc4 17bf 079b e5be f107 ac3f
00000200: f83d c33f de3f 62be b11e 6b3f a409 ffbe
00000210: 969f 63bf 0a9a b33f 6cd6 52bf 8955 99bd
00000220: c8d5 d03f 468e f2be 7d44 78bb ae1c e63f
00000230: cb4b 483f 92f3 2f3f d44f 81bf 9ef5 e73f
00000240: 3243 74bf 9c75 a6be a27f 703f 4086 fbbe
00000250: 0019 27bf b699 8dbd f1ff e8be c345 30bd
00000260: 2f07 adbc 0fce 75bf 7afd e3be f9ec 20bd
00000270: 9ced f73f 9b5a b2be 3764 ef3f 5a37 4dbf
00000280: f40f b63f f631 bd3f ed76 7f3c 7ca8 0cbf
00000290: 283c 9c3f d8a8 393f 82bc 8bbe c3ee dcbd
000002a0: 26dc 633f 3430 06bf a61d 31be 7100 1dbf
000002b0: 2177 77be ac02 06bf 7850 ef3b 1fae 9e3d
000002c0: 265c b6be 77a2 97be 68a6 5b3d df75 28be
000002d0: b2d8 8dbe 5ade d6be 59b0 a33f e65a c93f
000002e0: f44f 1abf 14f9 58bd f6f6 bcbd 6e0c 713f
000002f0: 7a2f 1e3f e403 0abf 74d2 afbe 04a7 b73f
00000300: 0286 be3f e702 32be ebe5 883f 77a9 a1be
00000310: 625f 17bf fd30 af3f 7011 3ebf 38db 07bf
00000320: e133 e53f 0aaf bdbe 66da 633b 4c5c d43f
00000330: e75e 443f 0e23 0c3f bedc 15bf 00cb de3f
00000340: 4b66 5dbf f7b6 0fbe 58d4 88be 4f29 fdbe
00000350: 002f 4abf 71b0 1e3d 2328 17bf c602 9ebc
00000360: 52e5 98bd 6fa9 08bf cc0b a4be be91 2d3c
00000370: f388 ee3f 6f83 bebe e682 e13f d111 e7be
00000380: c5e9 ab3f 7fe2 c53f 170b 883d 1dbb b1be
00000390: 3a32 a13f ba0f 1b3f 29a5 0cbf 3dd9 553d
000003a0: e834 8e3f 5879 2bbf fa9c a8be a62d 4bbf
000003b0: d3da 703d bc01 47bf 6c2c 32bd 50ff 9ebe
000003c0: 63a9 11bf d554 52be 813a 5f3d fd1a 98be
000003d0: ad8f ecbe d7bc bebe a547 a23f 82fc ca3f
000003e0: 5718 f1be 7f2c 833d 1eb3 43bc bfc8 b23f
000003f0: ed6e 023f 78bd 1fbf 1686 d7be ba46 a43f

layer3.bias f4 [5]
0.9138911 1.0058355 1.2496775 1.435689 0.81168616
00000000: c4f4 693f 38bf 803f 6ff5 9f3f a8c4 b73f
00000010: aaca 4f3f
