ch08/car_racing_dqn_100.pth (torch, 40850 bytes, 8 tensors)

layer1.weight f4 [64, 11]
0	0xbdd100ed	-0.10205255
1	0x3ea9b1cb	0.33143458
2	0x3e160231	0.14649273
3	0x3edd202f	0.43188617
4	0x3ed9d1db	0.4254292
5	0x3e9b012e	0.30274338
6	0xbd647cf5	-0.05578323
7	0x3e9d0c7f	0.30673596
8	0x3e8ee616	0.27909917
9	0x3e7475a8	0.23873007
10	0x3e95eb8c	0.2928127
11	0xbe6692d3	-0.22516946
12	0x3d364880	0.044502735
13	0x3ed650ed	0.41858616
14	0x3e6d7c59	0.23191966
15	0x3eb435e9	0.3519738
16	0x3e48b127	0.19598828
17	0xbe53c30c	-0.20679873
18	0x3d8ce166	0.06878929
19	0x3e056fa8	0.13030875
20	0x3edd50d6	0.43225735
21	0x3ef00e54	0.46885931
22	0x3ec2432a	0.37941867
23	0xbc2a789f	-0.010404735
24	0xbe182bd0	-0.14860463
25	0xbdb08a96	-0.08620183
26	0xbe177029	-0.1478888
27	0xbf0fcb99	-0.5617004
28	0xbecd8f3a	-0.40148336
29	0x3e3d1fbc	0.18469137
30	0xbe838752	-0.2568918
31	0xbe8705b4	-0.2637154
32	0x3e7611f0	0.2403028
33	0xbe06a617	-0.13149296
34	0x3d4ee01a	0.05050669
35	0xbdca5217	-0.09878939
36	0x3e0d17a9	0.13778557
37	0xbdae1c3c	-0.08501479
38	0x3e0cf975	0.13767035
39	0xbe4b1624	-0.19832665
40	0x3cf3dfba	0.029769767
41	0xbd4cae32	-0.049970813
42	0x3e8b3bc4	0.27194035
43	0xbe71043f	-0.23536776
44	0x3ea41d00	0.32053375
45	0xbc6aa7e9	-0.014322259
46	0x3db76692	0.089551106
47	0x3ee532b7	0.44765255
48	0x3ea14f95	0.3150603
49	0xbd15c27f	-0.03656244
50	0x3e910222	0.2832194
51	0x3e9c6a2d	0.30549756
52	0x3d440e90	0.04786545
53	0x3dbfb3a5	0.09360436
54	0x3e52fa0f	0.20603202
55	0x3e0ec08a	0.13940635
56	0xbe637a48	-0.22214615
57	0x3e7f02f6	0.24903473
58	0xbe643953	-0.22287492
59	0xbe043381	-0.12910272
60	0x3f171fd9	0.5903297
61	0x3e6deda1	0.2323518
62	0x3e8d8ff2	0.27648884
63	0x3df671bf	0.12033414
64	0xbcf8b9f4	-0.030362107
65	0xbe57c6d4	-0.2107194
66	0xbe9c882c	-0.3057264
67	0x3e8784df	0.2646856
68	0x3ee12077	0.4397008
69	0x3ebf0ae3	0.37312993
70	0x3ea98cf0	0.3311534
71	0x3e6ceb30	0.23136592
72	0x3e54c49e	0.20778129
73	0x3e50a032	0.2037361
74	0xbd3f46dd	-0.04669844
75	0x3d10f22e	0.03538721
76	0x3e4f34b7	0.20234953
77	0xbe46f67b	-0.19429962
78	0x3e225e21	0.1585622
79	0x3e21b9cd	0.15793534
80	0x3e24d8fc	0.16098398
81	0x3e010d83	0.1260281
82	0xbdca04f4	-0.09864226
83	0x3e4f7f87	0.20263492
84	0x3ef7dd0f	0.48410842
85	0x3d9023c9	0.070380755
86	0x3db79bba	0.08965249
87	0xbea20fc2	-0.31652647
88	0xbdbfc486	-0.09363656
89	0xbf3af596	-0.73030984
90	0xbe691ef3	-0.22765712
91	0xbf853d33	-1.0409302
92	0xbf83936c	-1.0279365
93	0xbf33d583	-0.7024767
94	0xbef89b66	-0.4855606
95	0xbf140dac	-0.5783336
96	0xbeb60cec	-0.35556734
97	0x3c686497	0.014184139
98	0xbdbc0e6c	-0.09182438
99	0xbdc45bb2	-0.09587802
100	0x3eb916ab	0.36150107
101	0x3dd8a6ea	0.10578711
102	0xbe49b40f	-0.19697593
103	0x3eb5dd58	0.35520434
104	0x3f3106da	0.6915108
105	0x3d238f37	0.039931502
106	0x3e89d951	0.26923612
107	0x3ddf2934	0.10896531
108	0x3ca2b625	0.019862244
109	0x3e349e0e	0.17638418
110	0x3bb11404	0.0054039974
111	0xbefdff54	-0.49608862
112	0xbec380d2	-0.3818422
113	0xbf178ca9	-0.59199005
114	0xbf0506a2	-0.51963246
115	0x3e9a4908	0.30133843
116	0x3e40d9ef	0.18833135
117	0x3c524593	0.012833971
118	0xbd02809e	-0.03186094
119	0x3f0b0c64	0.5431578
120	0x3ed1b88e	0.40961117
121	0x3edbe819	0.42950514
122	0x3e315289	0.17316641
123	0xbe45295a	-0.19254056
124	0xbe038a94	-0.12845832
125	0xbd05c91d	-0.0326625
126	0xbf250a60	-0.64468956
127	0xbed2061e	-0.41020292
128	0xbe06f475	-0.1317919
129	0xbecf3024	-0.40466416
130	0xbd418ac0	-0.047251463
131	0x3d708447	0.0587199
132	0xbdda0375	-0.106451906
133	0x3d979b1f	0.07402634
134	0x3e985111	0.2974935
135	0x3bb6dfe6	0.00558089
136	0x3ed4344f	0.41446158
137	0x3ebc77d3	0.3681017
138	0xbd55ea94	-0.052225664
139	0xbc8f07ab	-0.017459711
140	0xbe192b45	-0.14957912
141	0x3eb99e88	0.36253762
142	0x3edb1c00	0.427948
143	0xb92a589e	-0.00016245476
144	0x3eaeb1a8	0.34119916
145	0xbbed8ac0	-0.0072492063
146	0x3e4805f0	0.19533515
147	0x3cd4498a	0.025913972
148	0x3f1a7428	0.6033349
149	0x3e69da5e	0.22837207
150	0x3dc9e20e	0.0985757
151	0x3e92d09f	0.2867479
152	0xbd00d6e4	-0.031454936
153	0x3d4918d8	0.04909596
154	0x3e1ef83c	0.15524381
155	0xbe7b41f5	-0.2453688
156	0x3e57d80b	0.21078508
157	0xbd9f6f01	-0.07784844
158	0xbd69b875	-0.057060678
159	0x3db07acb	0.08617171
160	0xbe7e558a	-0.24837318
161	0xbd30d5aa	-0.043172516
162	0xbe7a13ed	-0.24421664
163	0x3d5a6d13	0.053326678
164	0x3d2b0806	0.0417557
165	0xbbcb585a	-0.0062056007
166	0xbd0f5c2e	-0.03500002
167	0x3cade76c	0.021228515
168	0xbe89fe8e	-0.26952022
169	0xbe1d380f	-0.15353416
170	0xbd3c297c	-0.045938
171	0x3df8ae89	0.12142665
172	0xbe7bd570	-0.24593139
173	0xbbe80fe0	-0.0070819706
174	0xbe5a3b8f	-0.21311782
175	0xbdc056fc	-0.09391591
176	0x3ecc06ba	0.39848882
177	0x3eaf6d55	0.342631
178	0x3d563a0c	0.05230145
179	0x3dd5ff66	0.10449104
180	0xbc4b6e9b	-0.012416507
181	0xbd12113c	-0.035660967
182	0x3eb0d347	0.34536192
183	0x3ee478f1	0.4462352
184	0x3b22318d	0.0024748773
185	0x3e7c8011	0.24658228
186	0x3e5408e0	0.2070651
187	0xbea10ff4	-0.31457484
188	0xbd1c9d2c	-0.03823583
189	0x3ea46ca2	0.3211413
190	0xbc50b202	-0.012737753
191	0x3e212ada	0.15739003
192	0x3f08bd8e	0.5341424
193	0xbdb4bb8d	-0.08824835
194	0xbea6c577	-0.3257253
195	0xbece273b	-0.40264305
196	0xbd094f79	-0.033523057
197	0x3e9a5d69	0.3014939
198	0xbe8fed31	-0.2811065
199	0xbf45a838	-0.77209806
200	0xbe627cbc	-0.22117895
201	0xbf6a3002	-0.91479504
202	0xbf611224	-0.87918305
203	0xbf837638	-1.0270452
204	0xbef2b6d8	-0.47405124
205	0xbf088c90	-0.5333948
206	0xbe8a821d	-0.27052394
207	0x3e270e38	0.16314018
208	0xbeb52b75	-0.35384718
209	0x3f197e8a	0.5995871
210	0xbe899a23	-0.2687541
211	0xbec2e519	-0.38065413
212	0xbe138887	-0.1440755
213	0xbe78c5f5	-0.24294265
214	0xbf30d971	-0.6908179
215	0xbe127183	-0.14301114
216	0xbe69c59a	-0.22829285
217	0xbe2422a7	-0.16028844
218	0x3e98fe9e	0.29881757
219	0x3e8cde14	0.27513182
220	0xbf1f44af	-0.6221418
221	0x3e2a4f3e	0.16631791
222	0xbdaf20f1	-0.08551205
223	0x3e81eff0	0.2537837
224	0x3e31f125	0.17377146
225	0x3ed26142	0.41089827
226	0x3e07d847	0.13266097
227	0x3ea61e9c	0.32445228
228	0x3de03173	0.10946932
229	0x3ec1b0ca	0.37830192
230	0xbd87f2ba	-0.06638093
231	0xba6320aa	-0.000866423
232	0xbe61b2cd	-0.22040863
233	0x3db29fa6	0.08721857
234	0xbe919f4a	-0.2844184
235	0x3e906c26	0.2820751
236	0x3f287045	0.6579631
237	0xbd37fbca	-0.04491786
238	0xbd812d93	-0.06307521
239	0x3e4b2184	0.19837004
240	0x3e54198f	0.20712875
241	0x3c207c68	0.009795286
242	0x3e8e38c5	0.27777687
243	0x3e070c58	0.13188303
244	0xbe908a4e	-0.28230518
245	0xbd6784fd	-0.056523312
246	0xbe35622c	-0.17713231
247	0xbf11187e	-0.56678
248	0xbedc37b6	-0.43011254
249	0xbd96abe2	-0.07357003
250	0xbea258ca	-0.31708366
251	0x3e23fb53	0.16013841
252	0xbcf69efd	-0.030105108
253	0x3cdfecea	0.02733465
254	0xbe6c4488	-0.23073018
255	0xbd31b9ed	-0.043390203

layer1.bias f4 [64]
0	0xbcc6c141	-0.024262073
1	0xbebf9268	-0.37416387
2	0x3ea17177	0.3153188
3	0xbe1cf3f6	-0.15327439
4	0xbdf466ac	-0.119336456
5	0x3df70611	0.12061704
6	0x3e3c34d6	0.1837953
7	0xbe6e5866	-0.23275909
8	0x3eb136ec	0.34612215
9	0x3e87f6ca	0.26555473
10	0xbd35f7c9	-0.04442576
11	0x3ed63fa8	0.4184544
12	0x3d9f2acb	0.07771834
13	0x3e334424	0.17506462
14	0xbe8284cf	-0.2549195
15	0xbe546b46	-0.20744047
16	0xbe0e30a0	-0.13885736
17	0x3e468e1a	0.19390145
18	0x3eba7ea9	0.3642476
19	0x3eb4fee0	0.35350704
20	0x3db10668	0.086438
21	0x3e2aa05f	0.16662739
22	0x3e607ea9	0.21923317
23	0xbde50583	-0.11182692
24	0x3e0f277c	0.13979906
25	0xbb8fbfa2	-0.004386858
26	0x3eddd737	0.43328258
27	0x3e7e0cee	0.2480962
28	0x3de37ba1	0.11107565
29	0xbe7c5508	-0.24641812
30	0x3e24e7d9	0.16104068
31	0xbc4fca57	-0.012682519
32	0xbe432f90	-0.19061112
33	0x3e958917	0.29206154
34	0x3e7ee3ba	0.24891558
35	0xbcc11565	-0.023569772
36	0xbdd8117e	-0.10550211
37	0xbcebc6f4	-0.028781392
38	0xbbefa112	-0.0073129022
39	0x3cb62ab3	0.022237157
40	0x3eb45a02	0.3522492
41	0x3da9d3da	0.082923606
42	0x3e5d23d4	0.21595699
43	0x3ea02b73	0.3128315
44	0xbea07857	-0.31341812
45	0x3e7c9983	0.24667935
46	0x3e8c5cc8	0.27414536
47	0xbdfceaf2	-0.123495
48	0xbce44361	-0.02786416
49	0x3e913c6d	0.28366414
50	0xbd8de47e	-0.06928347
51	0x3e8f94be	0.2804317
52	0xbbb21ee6	-0.0054358123
53	0x3d9c763f	0.07639741
54	0xbdec79b0	-0.115466475
55	0xbd407187	-0.046983268
56	0xbe76e621	-0.24111225
57	0xbdafdf3e	-0.08587502
58	0x3e423a1b	0.18967478
59	0x3e96d699	0.294606
60	0x3d9c804e	0.0764166
61	0xbe8b0f56	-0.27160138
62	0x3d12cb88	0.035838634
63	0xbcaaacf3	-0.020834422

layer2.weight_ih_l0 f4 [64, 64]
0	0x3e24bd95	0.16087945
1	0xbdb6b633	-0.089214705
2	0xbdf59c3a	-0.119926885
3	0xbb070000	-0.0020599365
4	0x3ce01665	0.027354429
5	0x3e461a79	0.19346036
6	0x3e50bc56	0.20384344
7	0x3e1bbfca	0.1520988
8	0xbd398f72	-0.045302816
9	0x3e80b247	0.25136015
10	0x3d15f207	0.03660777
11	0xbe6715ad	-0.22566862
12	0x3e986ce0	0.29770565
13	0x3e306437	0.17225729
14	0x3ddbfa08	0.10741049
15	0x3de37d1c	0.11107847
16	0x3df61f7d	0.12017725
17	0x3e796ea9	0.2435862
18	0xbdaba2da	-0.08380671
19	0xbc553d65	-0.013015126
20	0x3e4f2bfd	0.20231624
21	0x3e1c8c10	0.15287805
22	0xbe93eec4	-0.288931
23	0xbdaf54a6	-0.08561067
24	0x3d9c503b	0.0763249
25	0x3ee1134a	0.4396003
26	0xbe1f6d5a	-0.15569058
27	0xbda0f63a	-0.07859464
28	0x3c9d5bdb	0.01920884
29	0xbd9241d4	-0.07141462
30	0xbe1c5896	-0.15268168
31	0x3dfea9f5	0.124347605
32	0xbd44fc58	-0.048092216
33	0x3d90b834	0.07066384
34	0xbe12961d	-0.14315076
35	0x3e7ab153	0.24481706
36	0x3c4befed	0.0124473395
37	0x3e06b742	0.13155845
38	0x3e0600cd	0.13086243
39	0x3e5431be	0.207221
40	0x3d8c0b35	0.06838075
41	0xbda92b7e	-0.082602486
42	0x3cf8b28c	0.030358575
43	0x3ce60e4f	0.028082995
44	0xbe06a32f	-0.13148187
45	0xbdd32101	-0.10309029
46	0x3e252e1d	0.16130872
47	0xbce39dd8	-0.027785227
48	0x3eb0921d	0.34486476
49	0xbdcaa27e	-0.09894274
50	0x3e0b316c	0.13593072
51	0xbded698f	-0.11592399
52	0x3eaca9fe	0.33723444
53	0xbd87f728	-0.06638938
54	0x3df20351	0.11817039
55	0xbbba50ec	-0.005685916
56	0xbcbe9f53	-0.023269331
57	0x3e5ebae1	0.21750976
58	0xbd80ba3a	-0.0628552
59	0xbdf2a215	-0.11847321
60	0x3d7647b3	0.06012697
61	0x3cc2508d	0.02372005
62	0x3e224dd2	0.15849999
63	0x3bea7799	0.0071553704
64	0x3d9a48d7	0.07533424
65	0x3dd2f6a6	0.10300951
66	0x3e78964d	0.24276085
67	0xbc3b6cdc	-0.011439528
68	0x3dcc0311	0.09961522
69	0xbcf9ffc1	-0.03051746
70	0x3cd8d117	0.02646689
71	0x3e2d3071	0.1691301
72	0x3ea75a05	0.32685867
73	0x3da04fa8	0.07827693
74	0xbf367f36	-0.7128786
75	0x3e9fe9c7	0.31233045
76	0xbc2551b9	-0.010090285
77	0x3dfc6232	0.12323417
78	0x3d635201	0.055498127
79	0x3ca0c780	0.019626379
80	0x3df194eb	0.11795982
81	0xbdf0580a	-0.11735542
82	0x3efbec33	0.49203643
83	0x3e456276	0.19275841
84	0x3d83431d	0.06409285
85	0xbd9d86c8	-0.07691723
86	0x3eb2ce5a	0.3492306
87	0x3c885b07	0.016644968
88	0xbcc9ed6d	-0.024649346
89	0xbd4f8159	-0.050660465
90	0x3ec14f2a	0.3775571
91	0xbdf973a5	-0.121802606
92	0x3e1712ca	0.14753261
93	0xbdea8b08	-0.11452299
94	0xbd2cda5e	-0.04220044
95	0xbd1e5c12	-0.038662024
96	0xbd5788e1	-0.052620772
97	0x3d424ece	0.047438435
98	0x3d89235c	0.066961974
99	0x3d150d0f	0.036389407
100	0x3daf2f1b	0.085539065
101	0x3c7a4e1e	0.015277414
102	0xbdf4529c	-0.11929819
103	0x3d036a9f	0.032084104
104	0xbe16597c	-0.14682573
105	0x3d22aa17	0.03971299
106	0x3d630080	0.0554204
107	0x3d1b8652	0.037969895
108	0x3e263ecd	0.16234894
109	0x3e98c080	0.29834366
110	0x3de598b7	0.11210769
111	0x3e16a530	0.14711452
112	0xbd67107b	-0.0564122
113	0x3e36235e	0.17786929
114	0xbd98322a	-0.07431443
115	0x3d87a1ff	0.06622695
116	0xbe0485a3	-0.12941603
117	0x3e8ecbd4	0.27889884
118	0xbe6bb60b	-0.23018663
119	0x3d19c09d	0.037537206
120	0x3d8dad1d	0.06917784
121	0x3e64012c	0.22266072
122	0x3cf6785e	0.030086692
123	0x3e173df6	0.1476973
124	0xbd25c357	-0.040469494
125	0xbd59637d	-0.053073395
126	0xbe0a7633	-0.13521652
127	0xbc868e08	-0.016425148
128	0x3d273e49	0.040830884
129	0x3d2c7911	0.042107645
130	0xbd1e8b9d	-0.038707364
131	0xbdd31bce	-0.10308038
132	0xb9b46260	-0.0003440557
133	0xbcaa9af7	-0.020825846
134	0xbd1a5438	-0.037677974
135	0x3e49c2e3	0.1970325
136	0x3d8eb45f	0.06967997
137	0x3d805855	0.06266848
138	0x3e735b3d	0.23765273
139	0xbe058f33	-0.13042907
140	0x3bf8264f	0.007572926
141	0x3d3f08f5	0.0466394
142	0x3d2fb4d7	0.04289707
143	0xbdddbc9e	-0.108269915
144	0x3e418586	0.18898591
145	0xbe2880cf	-0.16455387
146	0xbd130906	-0.035897277
147	0xbe002704	-0.12514883
148	0x3de58349	0.11206681
149	0x3cdb973f	0.026805518
150	0xbd63cbdb	-0.055614334
151	0xbb7f4051	-0.0038948248
152	0x3d7df69f	0.062002774
153	0xbc47e1ae	-0.012199802
154	0xbda0ce1c	-0.07851812
155	0x3d0f86b7	0.035040583
156	0xbdf82bf0	-0.121177554
157	0x3d56fdc4	0.052488104
158	0x3df43bfb	0.11925503
159	0xbbeb214a	-0.007175599
160	0xbd33b61e	-0.043874852
161	0x3decd90d	0.11564837
162	0xbd8d3c35	-0.06896249
163	0xbbd4c666	-0.0064933775
164	0x3e163fbe	0.14672753
165	0x3d80ad0e	0.062830076
166	0x3e0e99a9	0.13925804
167	0x3e4c0694	0.19924384
168	0xbe2540ed	-0.16138048
169	0x3d3e6d8f	0.046491202
170	0xbd92d7bd	-0.07170055
171	0x3d867f2f	0.06567227
172	0x3d8a5160	0.06753802
173	0x3e4198ec	0.18905991
174	0xbda6d0b5	-0.081452765
175	0xbcf77e25	-0.030211518
176	0x3d0d067d	0.034430016
177	0xbe090fa0	-0.13384867
178	0x3c96fa5a	0.018429924
179	0x3d811037	0.06301921
180	0xbe0a8d74	-0.13530523
181	0x3e7e767b	0.24849884
182	0xbddfbe39	-0.10924954
183	0x3d8a7b61	0.06761814
184	0x3c28b5d4	0.010297257
185	0x3d860a9e	0.06544994
186	0xb9fd428a	-0.00048305496
187	0xbe0cf664	-0.13765866
188	0x3d23f0c1	0.040024523
189	0xbd8e1b34	-0.06938782
190	0x3e1ce0f3	0.15320186
191	0x3d34ed45	0.04417159
192	0x3d3e0b9b	0.046397787
193	0x3e29d64d	0.16585656
194	0x3e8b984d	0.27264634
195	0x3d2ab4f9	0.041676495
196	0x39025dbe	0.00012432688
197	0xbe221ea0	-0.15831995
198	0x3d9c1430	0.07621038
199	0x3e07bc61	0.13255455
200	0x3edb658c	0.42850912
201	0xbd9a6de1	-0.07540489
202	0xbf0ef8dc	-0.5584848
203	0x3ed4b32b	0.41542944
204	0xbbf4be69	-0.0074689877
205	0xbe1bd5d2	-0.15218285
206	0xbd4e3553	-0.050343823
207	0xbdb10180	-0.08642864
208	0x3e73fd1f	0.23827027
209	0xbe055fe8	-0.13024867
210	0x3f47cc40	0.78046036
211	0x3f0485ff	0.5176696
212	0xbc38855a	-0.011262262
213	0xbd36797f	-0.04454946
214	0x3eebc544	0.4604894
215	0x3d6a42d9	0.057192657
216	0xbd120263	-0.035646807
217	0xbdf456f0	-0.119306445
218	0x3eb1dde4	0.34739602
219	0x3ed1c95e	0.40973943
220	0x3d7630a5	0.060104985
221	0x3dcd8737	0.10035556
222	0x3e7f64ca	0.24940792
223	0xbde97499	-0.11399192
224	0x3ca837bb	0.020534387
225	0xbc121bd5	-0.0089177685
226	0x3dfc4cbc	0.123193234
227	0xbd4ce96b	-0.050027292
228	0x3c22cb48	0.009936161
229	0xbd4ea433	-0.05044956
230	0xbd1221e9	-0.03567687
231	0x3d1260c2	0.035736807
232	0xbd24467c	-0.04010628
233	0x3ea434ec	0.32071626
234	0xbe10f7a9	-0.14156975
235	0xbe2acf49	-0.16680636
236	0x3dbeed31	0.093225844
237	0x3eb1d94c	0.34736097
238	0xbcc8f990	-0.024533063
239	0x3e040743	0.12893395
240	0xbdc9f501	-0.09861184
241	0x3ebd8d05	0.37021652
242	0xbe128146	-0.14307126
243	0x3dab0abf	0.08351659
244	0xbed04c56	-0.4068324
245	0x3e2d4897	0.16922222
246	0xbe8cbb04	-0.27486432
247	0x3cefb08d	0.02925899
248	0x3d3fca22	0.04682363
249	0x3eee92b0	0.4659629
250	0x3e4ef10b	0.20209138
251	0x3e78ec32	0.24308851
252	0xbcbcad85	-0.02303196
253	0xbd6e4851	-0.058174435
254	0xbee3a8c4	-0.44464695
255	0x3ebe2ee7	0.3714516

layer2.weight_hh_l0 f4 [64, 64]
0	0xbd9fa8b1	-0.07795847
1	0x3c3422a8	0.010994591
2	0x3d265adc	0.040613994
3	0xbdf3a7a5	-0.1189721
4	0x3d9355b0	0.07194078
5	0x3d5b7fe3	0.05358876
6	0x3d89320a	0.06698997
7	0xbe351334	-0.17683107
8	0x3d4ee5bb	0.050512057
9	0xbce9c823	-0.028537815
10	0x3d5d7c77	0.054073777
11	0xbd04ab3d	-0.032389868
12	0x3d60c3fc	0.054874405
13	0xbd7d8a9f	-0.061899778
14	0xbdb9de53	-0.09075608
15	0xbd5489e8	-0.05188933
16	0x3db2e09c	0.08734247
17	0xbd3d4d48	-0.04621628
18	0x3da59178	0.080843866
19	0xbe0b6a9f	-0.13614891
20	0x3ddb58cb	0.10710295
21	0xbda6eb7c	-0.08150384
22	0xbe0c37a3	-0.13693099
23	0xbdc46b2a	-0.095907524
24	0x3d4e61a4	0.050386086
25	0x3d876336	0.0661072
26	0xbd743b07	-0.059626605
27	0xbe0b3d9d	-0.13597722
28	0x3c3bee90	0.011470452
29	0x3d93eefc	0.07223317
30	0x3bef0a71	0.007294946
31	0x3d059800	0.03261566
32	0x3d345c99	0.04403362
33	0x3dcf334d	0.10117207
34	0xbe029e66	-0.12755737
35	0xbd81be35	-0.06335107
36	0xbdede3d9	-0.11615724
37	0x3d146c3a	0.036236025
38	0xbe049f93	-0.12951498
39	0xbd9a054c	-0.075205415
40	0x3dbf328d	0.09335814
41	0xbd1bce38	-0.038038462
42	0xbc902cc5	-0.017599473
43	0x3d05c47f	0.032658096
44	0x3dd66766	0.104689404
45	0x3d074455	0.03302415
46	0x3bd64960	0.0065395087
47	0x3da74f82	0.08169462
48	0xbce29d64	-0.02766294
49	0xbd222745	-0.03958823
50	0x3d2017e4	0.039085284
51	0x3d74d21d	0.059770692
52	0x3cafbb8d	0.021451736
53	0x3dfaf3d5	0.122535385
54	0xbdc0a65d	-0.09406731
55	0xbcab6467	-0.020921899
56	0x3d90bd8b	0.070674025
57	0x3c87648f	0.016527442
58	0xbe0b1095	-0.13580544
59	0xbc8c1ca5	-0.017103503
60	0xbd10d3c8	-0.03535822
61	0x3c8151dd	0.015786106
62	0xbce50de0	-0.027960718
63	0x3baf2720	0.0053452402
64	0xbce22f7b	-0.027610531
65	0x3c06a1c7	0.008217282
66	0x3e0f8b2a	0.1401793
67	0xbda7d090	-0.08194077
68	0x3dbacdde	0.09121297
69	0xbdb7cd62	-0.089747205
70	0xb9a59328	-0.00031580892
71	0x3d9adbb8	0.07561439
72	0x3d9fb117	0.07797449
73	0xbd8b3b59	-0.06798429
74	0x3d0bcf18	0.034133047
75	0xbdf6d2ac	-0.12051901
76	0x3d21e590	0.03952557
77	0x3c960443	0.018312579
78	0xbd76d403	-0.060260784
79	0x3b669ed8	0.0035189893
80	0x3d28376a	0.041068472
81	0x3cbc97ee	0.023021664
82	0x3d03c662	0.032171614
83	0xbb7dd7d7	-0.0038733387
84	0x3cb626e3	0.02223534
85	0x3e325b33	0.17417602
86	0xbc236441	-0.009972633
87	0xbd199328	-0.037493855
88	0x3d2ae710	0.041724265
89	0xbdfd48d3	-0.12367406
90	0x3c87ec83	0.01659227
91	0x3e4d74f2	0.20064142
92	0xbcb3e58a	-0.021960039
93	0x3cb79a5f	0.022412477
94	0xbd488a3b	-0.04895995
95	0xbd8e6c7d	-0.06954286
96	0xbd813b8a	-0.06310184
97	0xbdddeb54	-0.10835901
98	0x3e2b56a8	0.16732275
99	0x3ba5bc4a	0.005057846
100	0x3dcb45c7	0.09925418
101	0x3c07f1b7	0.008297375
102	0xbc94c612	-0.018160854
103	0xbc8e5cf5	-0.01737831
104	0xbb5061bd	-0.0031796538
105	0x3dc8d857	0.098068886
106	0xbd9af7f8	-0.075668275
107	0xbc9e87c0	-0.01935184
108	0x3dfbd41a	0.122963145
109	0x3d0d1245	0.03444125
110	0x3dd14787	0.10218721
111	0xbd1fa093	-0.038971495
112	0xbaa6cd0f	-0.0012725907
113	0x3ca302b7	0.019898755
114	0x3c0f24df	0.008736818
115	0x3da372db	0.07980891
116	0xbcb58421	-0.02215773
117	0xbd94bad0	-0.07262194
118	0x3d8329ee	0.06404482
119	0x3d5c67b5	0.05380984
120	0x3dcce399	0.10004348
121	0x3de68059	0.11254949
122	0x3d847ad7	0.06468742
123	0x3d86ab5f	0.06575655
124	0x3e0989e0	0.13431501
125	0xbd8bb49e	-0.06821559
126	0xbb728539	-0.0037005676
127	0x3d6732bf	0.05644488
128	0xbd44c1f5	-0.048036534
129	0xbddccfe6	-0.10781841
130	0x3c804c5e	0.015661415
131	0x3d19cc22	0.03754819
132	0x3cc96687	0.024585022
133	0x3c7c2149	0.015388795
134	0xbd8306e8	-0.06397802
135	0x3cc67c20	0.02422911
136	0x3c64a6ad	0.013955754
137	0xbaf36ba2	-0.0018571506
138	0x3dda74eb	0.106668316
139	0xbd0b6988	-0.03403619
140	0xbd231d16	-0.03982266
141	0x3d2fb406	0.042896293
142	0xbdd5727b	-0.10422226
143	0x3d18e1aa	0.037324585
144	0x3e049082	0.1294575
145	0x3da08f29	0.07839806
146	0xbd2ff8a5	-0.042961735
147	0x3d2812cc	0.04103355
148	0xbd9b5472	-0.07584466
149	0x3d328e60	0.04359281
150	0x3acd7987	0.0015676477
151	0xbd19460a	-0.03742031
152	0x3d97b640	0.07407808
153	0xbd043990	-0.03228146
154	0xbd38e6f8	-0.045142144
155	0x3c8ca0fb	0.017166605
156	0xbe045a45	-0.1292506
157	0x3d264a0b	0.040597957
158	0x3db53d95	0.088496365
159	0xbd97259c	-0.0738022
160	0xbd6a3a3f	-0.057184454
161	0x3db5de31	0.0888027
162	0xbb2e288a	-0.0026574456
163	0xbd748e1e	-0.059705846
164	0x3e0a2d3d	0.1349382
165	0x3d130590	0.035893977
166	0xbd369460	-0.044575095
167	0x3ca60fae	0.020271149
168	0x3da56e91	0.080777295
169	0xbd973396	-0.07382886
170	0xbe1bcdef	-0.15215276
171	0xbc7923b3	-0.015206265
172	0xbb80ab02	-0.0039266357
173	0x3e0f8603	0.14015965
174	0x3dc3289a	0.095292285
175	0x3df6427f	0.12024402
176	0x3d2ac175	0.0416884
177	0xbdb580b0	-0.08862436
178	0xbdd4a89c	-0.10383722
179	0xbdbd2ef5	-0.09237472
180	0x3d862604	0.0655022
181	0xbca62adb	-0.020284107
182	0xbd5278a0	-0.05138457
183	0x3d019f47	0.03164604
184	0x3db6c15a	0.08923598
185	0x3d7aa415	0.061191637
186	0x3d0227d0	0.03177625
187	0x3bf9a741	0.007618815
188	0xbdaefb73	-0.08544054
189	0x3e0258fb	0.12729256
190	0x3da5a253	0.080876015
191	0x3ca7af93	0.020469462
192	0x3d6b53fc	0.05745314
193	0x3d239dcc	0.03994541
194	0xbc9ba096	-0.018997472
195	0x3d8aff86	0.067870185
196	0x3c974c2c	0.018468939
197	0x3d57a5ca	0.052648343
198	0x3dd4b1f3	0.103855036
199	0x3bbec368	0.005821634
200	0xbdaef35b	-0.0854251
201	0xbd4b88b2	-0.04969091
202	0x3db22956	0.086992905
203	0xbdb350d9	-0.08755655
204	0x3e02e419	0.12782325
205	0xbc3c368f	-0.011487617
206	0xbd841e7f	-0.06451129
207	0xbca3e878	-0.02000831
208	0xbd4beb1a	-0.049784757
209	0xbd2c653d	-0.042088736
210	0xbdb3d06d	-0.087799884
211	0xbc46807a	-0.012115592
212	0xbd66aea5	-0.056318898
213	0x3d73b9e3	0.059503447
214	0xbcac18de	-0.021007951
215	0xbcc0555c	-0.023478203
216	0x3cb077b9	0.021541463
217	0x3d14b7a6	0.036307953
218	0x3dc7e037	0.097595625
219	0xbd04b270	-0.032396734
220	0x3cbe8ebc	0.02326142
221	0xbdd049d0	-0.101703286
222	0xbdd6293d	-0.10457084
223	0xbd765ba4	-0.06014599
224	0xbcf832ef	-0.030297725
225	0xbcf879c4	-0.0303315
226	0x3e0b304e	0.13592646
227	0x3da7d822	0.08195521
228	0xbd0be07c	-0.03414963
229	0x3d891b7c	0.06694695
230	0x3cf7f686	0.030268919
231	0xbdbdad16	-0.09261529
232	0xbd3b03fd	-0.0456581
233	0x3d7bd523	0.06148256
234	0x3da21956	0.07914989
235	0x3c6ead20	0.014567643
236	0xbd40cb1c	-0.0470687
237	0x3dacbcd4	0.084344536
238	0xbd8313e6	-0.0640028
239	0x3d357b9e	0.044307344
240	0x3baf195d	0.0053435997
241	0x3d8e86fd	0.06959341
242	0xbc9f5675	-0.019450406
243	0xbd2bffac	-0.041991875
244	0xbda882ff	-0.082281105
245	0xbdb338d4	-0.087510735
246	0x3d9c4c93	0.07631793
247	0x3d9050af	0.07046639
248	0xbdd32dc1	-0.10311461
249	0x3dc02037	0.093811445
250	0x3d30fabc	0.04320787
251	0x3c114c52	0.008868294
252	0x3dd6b0fe	0.10482977
253	0xbdd3282d	-0.10310397
254	0xbc40a794	-0.011758704
255	0xbd368345	-0.044558782

layer2.bias_ih_l0 f4 [64]
0	0xbd529aaa	-0.05141703
1	0x3c2c28f1	0.010507808
2	0x3d836b69	0.06416971
3	0x3d42a81b	0.0475236
4	0x3d3d2d1f	0.04618561
5	0xbcf9d169	-0.030495362
6	0x39ddba17	0.00042291053
7	0xbdcbb729	-0.099470444
8	0xbc5cd7dc	-0.013479199
9	0xbc825cb8	-0.015913352
10	0xbd26862f	-0.04065531
11	0xbc1c5e52	-0.009543972
12	0xbe1d08c3	-0.15335374
13	0x3cb695c7	0.022288216
14	0x3ca2fab7	0.01989494
15	0x3d53378f	0.051566657
16	0xbd0d4eb3	-0.03449888
17	0x3d8917ab	0.066939674
18	0xbd904e34	-0.07046166
19	0x3cf0a63f	0.029376147
20	0x3c689432	0.014195489
21	0xbe184c56	-0.1487287
22	0xbd8cbfb6	-0.068725035
23	0xbd3fb384	-0.04680206
24	0xbd233dc1	-0.039853815
25	0xbc378562	-0.011201235
26	0x3dd2d82e	0.10295139
27	0x3d0df0cc	0.03465347
28	0x3d8678d5	0.06566016
29	0x3d37625d	0.04477154
30	0xbcab760c	-0.020930313
31	0x3cbc2f72	0.022971842
32	0x3ccaa9d9	0.024739193
33	0xbc8e068b	-0.017337104
34	0xbe19bebc	-0.15014166
35	0x3de88579	0.11353583
36	0x3dbeb2bb	0.09311434
37	0xbdd9639a	-0.106147006
38	0x3c361369	0.011113026
39	0xbe1a8710	-0.15090585
40	0x3d85a8b6	0.0652632
41	0x3d8532fd	0.06503866
42	0xbdaf91b5	-0.08572713
43	0x3dcc70c0	0.09982443
44	0x3d9baf74	0.076018244
45	0xbc0cd1a8	-0.008594908
46	0xbe2cdc27	-0.16880856
47	0xbd9d8e0a	-0.076931074
48	0x3e60b4a4	0.21943909
49	0xbe4488d9	-0.19192828
50	0xbe3dfba6	-0.18553028
51	0xbc7320bf	-0.01483935
52	0x3df197d2	0.117965356
53	0xbcf27030	-0.02959451
54	0x3dea0aad	0.114278175
55	0x3db14bc9	0.08657033
56	0x3d96ff33	0.07372894
57	0x3c0467e5	0.008081411
58	0xbd1a453e	-0.03766369
59	0xbd794275	-0.060854394
60	0xbdf84428	-0.12122375
61	0x3da8bc0c	0.08238992
62	0x3d6d5782	0.057944782
63	0xbdeba17f	-0.11505412

layer2.bias_hh_l0 f4 [64]
0	0x3d7256fe	0.059164993
1	0xbe04880d	-0.12942524
2	0x3d31d8e8	0.04341975
3	0xbc9f1015	-0.019416848
4	0xbdbf1084	-0.09329322
5	0xbb95a454	-0.0045667086
6	0xbd1a0264	-0.037599936
7	0x3d2f933a	0.042865016
8	0xbd472101	-0.04861546
9	0xbe07afc4	-0.13250643
10	0x3bf0c480	0.0073476434
11	0xbcc08d7d	-0.023504967
12	0xbe04bf94	-0.12963706
13	0xbbfc3e28	-0.0076978393
14	0x3d0f9427	0.0350534
15	0x3d8657e7	0.06559735
16	0xbd482f1c	-0.048873052
17	0xbbcf1e8c	-0.00632078
18	0xbd9178a3	-0.07103088
19	0x3dbd6c00	0.09249115
20	0xbc9f6eb7	-0.019461973
21	0x3d36e797	0.044654455
22	0xbd3b3199	-0.045701597
23	0xbd8c247e	-0.06842898
24	0x3c30e622	0.010797055
25	0x3d703015	0.058639605
26	0xbda03b72	-0.07823838
27	0xbe0ae178	-0.13562572
28	0xbd76fc0b	-0.06029896
29	0xbe000e5a	-0.12505475
30	0xbd26db5a	-0.040736534
31	0x3d2299dc	0.039697513
32	0x3d5bdf08	0.053679496
33	0x3ded7a9e	0.11595653
34	0xbdc6e5e5	-0.09711818
35	0xbd3e0785	-0.04639389
36	0x3cafa5f9	0.021441447
37	0xbd6627d0	-0.056190312
38	0x3d738747	0.059455182
39	0xbcc892e0	-0.024484098
40	0x3dc2eb62	0.09517552
41	0xbd30ddd0	-0.043180287
42	0xbd7fe898	-0.062477678
43	0x3bcf0d89	0.006318752
44	0x3db8985d	0.09013436
45	0xbc90fa38	-0.017697439
46	0xbc3918fa	-0.011297459
47	0x3d9b4837	0.07582133
48	0x3e010b28	0.12601912
49	0xbe0fbc7f	-0.1403675
50	0xbdb0f9cd	-0.08641396
51	0xbd8822e2	-0.06647278
52	0xbdbf16a5	-0.09330491
53	0x3db82c12	0.08992781
54	0xba829f8c	-0.0009965762
55	0xbcdf5541	-0.027262332
56	0xbc57582d	-0.013143581
57	0xbdf2e01e	-0.11859153
58	0xbc287fe1	-0.010284395
59	0x3d328580	0.043584347
60	0xbc96f741	-0.018428447
61	0xbcb73c7d	-0.02236771
62	0x3d423669	0.04741517
63	0xbdbf87a1	-0.09352041

layer3.weight f4 [5, 64]
0	0x3f677420	0.9041157
1	0xbe10074c	-0.14065284
2	0x3e90ad83	0.2825738
3	0xbd53eed8	-0.05174145
4	0xbe6bbb68	-0.23020709
5	0x3f426193	0.75930136
6	0xbe4c7200	-0.19965363
7	0xbec086db	-0.37602887
8	0x3f4a0d79	0.7892681
9	0x3a3e8ced	0.00072689244
10	0x3dd88e1a	0.10573979
11	0x3f463001	0.77417
12	0xbdbee82e	-0.093216285
13	0xbdd8a166	-0.10577659
14	0xbdd0382b	-0.10166963
15	0x3f5db7e7	0.8660874
16	0xbeb357bc	-0.35027874
17	0xbd82501c	-0.06362936
18	0xbd5df350	-0.05418712
19	0xbeac8d92	-0.3370176
20	0xbe90ab91	-0.28255895
21	0xbdcb6b09	-0.09932525
22	0xbe3520b4	-0.17688257
23	0xbdc01464	-0.09378889
24	0xbdcaff5c	-0.09911987
25	0xbe82c0ad	-0.25537625
26	0xbe47cf0f	-0.1951258
27	0x3d6f39b8	0.058404654
28	0x3f71cdea	0.94454825
29	0xbd813e15	-0.06310669
30	0x3f605b26	0.8763908
31	0xbef33694	-0.47502577
32	0x3f6a38d1	0.91492945
33	0x3f8af92e	1.0857294
34	0x3d45147f	0.04811525
35	0xbecf4b8c	-0.40487325
36	0x3f25cfc8	0.64770174
37	0x3db385dc	0.08765766
38	0xbe6fa9ca	-0.23404613
39	0xbcb6588d	-0.022259021
40	0x3e0b8b41	0.1362734
41	0xbe753694	-0.23946601
42	0xbe23f6db	-0.16012137
43	0xbe86ce14	-0.263291
44	0xbe002759	-0.1251501
45	0xbe5dc64d	-0.21657677
46	0x3ddaf95b	0.10692092
47	0xbe1642c8	-0.14673913
48	0xbe762d5f	-0.24040745
49	0xbdb8c3bf	-0.090217106
50	0x3d378cb4	0.04481192
51	0xbe14eb84	-0.14542967
52	0xbe6c225b	-0.2305998
53	0xbe3e1598	-0.18562925
54	0x3f582e69	0.84445816
55	0x3f34868d	0.7051781
56	0xbe4519cb	-0.1924812
57	0x3d055b59	0.03255782
58	0xbd680178	-0.056642026
59	0x3d8aaea2	0.0677159
60	0xbd9e07b6	-0.077163145
61	0xbeae3523	-0.34024915
62	0xbe03a296	-0.1285499
63	0x3f1bcae6	0.60856473
64	0x3f4d140b	0.8010871
65	0xbe2f4c2c	-0.17118901
66	0x3e5bc33d	0.21461196
67	0xbe5eb2be	-0.21747872
68	0xbc36df21	-0.0111615965
69	0x3f1d0bd2	0.6134616
70	0xbe3b5a6d	-0.18296213
71	0xbebfa7dd	-0.37432757
72	0x3f6a12d6	0.9143499
73	0x3dbf829f	0.09351086
74	0x3d6f04bf	0.058354136
75	0x3f588b9d	0.8458803
76	0x3d93518d	0.07193289
77	0xbd8ae60a	-0.06782158
78	0xbe16fa19	-0.14743842
79	0x3f67b4f5	0.90510494
80	0xbdb2d5e2	-0.08732201
81	0xbe1afc91	-0.15135409
82	0xbde4f8b1	-0.111802466
83	0xbeb5042a	-0.3535474
84	0xbebbabce	-0.36654514
85	0x3d1783df	0.036990996
86	0xbe87f49d	-0.26553813
87	0xbd5f0111	-0.054444376
88	0x3db32be7	0.08748608
89	0xbdf4d504	-0.11954692
90	0xbe1b39e9	-0.1515881
91	0x3dc49a7d	0.09599779
92	0x3f7c7665	0.98618156
93	0xbde27a00	-0.11058426
94	0x3f4f13c3	0.8088953
95	0xbeb15e16	-0.34642094
96	0x3f58e68e	0.847268
97	0x3f8eecc0	1.1166
98	0xbd0bc1ec	-0.034120485
99	0xbf18b59d	-0.5965212
100	0x3eb4704f	0.35241935
101	0x3c391b30	0.011297986
102	0xbe80cd07	-0.25156423
103	0x3c1764e6	0.009240365
104	0x3eb0a486	0.3450052
105	0xbe3c7c33	-0.18406753
106	0xbe51e7ed	-0.20498629
107	0xbed69a9d	-0.41914836
108	0x3cb90a87	0.022588028
109	0xbe9612ee	-0.29311317
110	0xbce85e22	-0.028365199
111	0xbdd580d1	-0.104249604
112	0xbe20061b	-0.15627329
113	0xbeb0a261	-0.34498885
114	0x3c549ee8	0.012977339
115	0xbe4da5df	-0.20082806
116	0xbe8e3603	-0.27775583
117	0xbbcc72b2	-0.0062392587
118	0x3f1e12d6	0.6174749
119	0x3f5cea35	0.8629487
120	0xbcc50104	-0.024048336
121	0x3da6042a	0.08106263
122	0x3db03e67	0.08605652
123	0x3e57f46c	0.21089333
124	0x3dac6e28	0.08419448
125	0xbe93081b	-0.2871712
126	0xbe9aeb5c	-0.3025769
127	0x3f414e85	0.75510436
128	0x3f2ee4e3	0.68318003
129	0xbeb9ec7b	-0.36313233
130	0x3d538444	0.05163981
131	0xbeaab108	-0.3333819
132	0xbea62645	-0.32451072
133	0x3f3f2bed	0.746764
134	0xbebf7317	-0.37392494
135	0xbd0851e7	-0.033281233
136	0x3f6a5525	0.9153617
137	0xbe2d0dd4	-0.16899806
138	0xbbbc75a7	-0.00575133
139	0x3f7c41c7	0.9853787
140	0x3de8bb78	0.11363882
141	0xbd8fad05	-0.07015423
142	0xbea0bfbc	-0.31396282
143	0x3f51c0f4	0.8193505
144	0xbe990809	-0.29888943
145	0xbe5a22fe	-0.21302411
146	0xbb9e5ac4	-0.0048325974
147	0xbe64da8c	-0.22348994
148	0xbeb6621a	-0.3562172
149	0xbdd86113	-0.105653904
150	0xbde0cf3d	-0.109770276
151	0xbd9f6bdc	-0.077842444
152	0x3d8e3520	0.069437265
153	0xbeb4075e	-0.3516187
154	0xbe361e16	-0.17784914
155	0xbd6be503	-0.05759145
156	0x3f8ecd1e	1.1156347
157	0xbe9967b1	-0.29961923
158	0x3f4ebb66	0.807547
159	0xbedfaafa	-0.43685132
160	0x3f4ea98f	0.80727476
161	0x3f91035d	1.1329151
162	0xbcd809c7	-0.02637185
163	0xbe7f07b0	-0.24905276
164	0x3f080da8	0.5314584
165	0xbdbf97af	-0.09355103
166	0xbde46081	-0.11151219
167	0xbd05daf1	-0.032679502
168	0xbd192b2a	-0.03739468
169	0xbe413708	-0.18868649
170	0xbe723f75	-0.2365702
171	0xbea66cdc	-0.32504928
172	0xbdf561e1	-0.119815595
173	0xbe2d8ed5	-0.16949017
174	0x3c370918	0.011171602
175	0xbca6a51c	-0.020342402
176	0xbea8b665	-0.32951656
177	0xbed531a2	-0.4163943
178	0xbaf73447	-0.0018860184
179	0xbe9cf939	-0.30658892
180	0xbe2e4bf7	-0.17021166
181	0xbeb19bcd	-0.3468918
182	0x3f26f819	0.65222317
183	0x3f534978	0.8253398
184	0xbe6927b6	-0.22769055
185	0xbda6074d	-0.08106861
186	0x3dbb44e0	0.09143996
187	0x3ea7fb6c	0.32809007
188	0x3db41ecf	0.08794939
189	0xbe5a8b5f	-0.21342228
190	0xbe368148	-0.17822754
191	0x3f4f1c9a	0.8090302
192	0x3f23c4b5	0.63972026
193	0xbd9eb0f2	-0.077485934
194	0x3e86b348	0.26308656
195	0xbe71b067	-0.23602448
196	0xbe2b4d9e	-0.16728827
197	0x3f3aa257	0.7290396
198	0xbec486ae	-0.38384002
199	0xbe7b3bfc	-0.24534601
200	0x3f766258	0.9624381
201	0xbdce9f77	-0.10089009
202	0x3b9e305d	0.0048275427
203	0x3f8080a0	1.0039253
204	0x3d9b75f6	0.07590859
205	0x3d8ab82b	0.067734085
206	0xbdf845dc	-0.121226996
207	0x3f7d9729	0.9905878
208	0xbe8a2099	-0.26977995
209	0xbcf56d30	-0.029959291
210	0xbeabe647	-0.33574125
211	0xbe8b2beb	-0.27181944
212	0xbe695612	-0.2278674
213	0x3d729c8a	0.05923132
214	0xbe814acc	-0.25252378
215	0xbd3db414	-0.046314314
216	0xbd5efc48	-0.054439813
217	0xbe0475f2	-0.12935618
218	0xbe234017	-0.15942417
219	0x3ad3e837	0.0016167228
220	0x3f849695	1.0358454
221	0xbe4bbe72	-0.19896868
222	0x3f569f27	0.838366
223	0xbe78d043	-0.24298196
224	0x3f1c0b2b	0.6095454
225	0x3f83ca6f	1.0296153
226	0x3db12b1b	0.086508
227	0xbda93718	-0.082624614
228	0x3f138bdf	0.576353
229	0xbc6c966d	-0.014440161
230	0xbe962bc5	-0.29330269
231	0x3e0a65d2	0.13515404
232	0x3e81296d	0.25226918
233	0xbe6a84cc	-0.2290222
234	0xbe93e889	-0.28888348
235	0xbebcc04e	-0.36865467
236	0xbdb2ccb6	-0.08730452
237	0xbed1c11f	-0.40967652
238	0xbd8851af	-0.06656205
239	0xbe3673f1	-0.17817666
240	0xbefe9b24	-0.49727738
241	0xbddaef26	-0.10690145
242	0xbde715e4	-0.11283472
243	0xbe042561	-0.12904884
244	0xbe7a345d	-0.24434038
245	0xbe28caf7	-0.16483675
246	0x3f207a2a	0.6268641
247	0x3f6ba142	0.92042935
248	0x3e3697b7	0.17831312
249	0x3dc86244	0.09784368
250	0x3db4aeec	0.08822426
251	0x3eef3c13	0.4672552
252	0x3d5ce7ce	0.053932004
253	0xbe8bccc8	-0.27304673
254	0xbe5e29bc	-0.21695608
255	0x3e73bf2b	0.23803394

layer3.bias f4 [5]
0	0x3edaf071	0.42761567
1	0x3f32131a	0.69560397
2	0x3f303657	0.68832916
3	0x3f46fbd7	0.7772803
4	0x3eae6f5c	0.34069335
