ch08/car_racing_dqn_500.pth (torch, 40850 bytes, 8 tensors)

layer1.weight f4 [64, 11]
0	0xbea8e63f	-0.32988164
1	0xbc873908	-0.016506687
2	0xbdbf9ec4	-0.09356454
3	0x3dc76ef4	0.097379595
4	0x3e4eef1e	0.20208403
5	0x3e30438b	0.17213266
6	0x3c3f32a4	0.0116697885
7	0x3eab969f	0.33513352
8	0x3ea05f66	0.31322783
9	0x3e282609	0.1642076
10	0x3ddddc81	0.108330734
11	0xbf0e7d3c	-0.5565984
12	0xbe71cf5b	-0.23614256
13	0x3e673fc1	0.22582914
14	0x3e868dd8	0.26280093
15	0x3eaf0775	0.34185377
16	0x3e6f51c9	0.23371042
17	0xbe3b6cec	-0.18303269
18	0x3d63805f	0.055542346
19	0x3e9b0c91	0.30283025
20	0x3ed15144	0.40882313
21	0x3e377d87	0.17918979
22	0x3ea1a3f9	0.31570414
23	0xbd47c7a0	-0.04877436
24	0xbe8b0c4f	-0.27157828
25	0xbd572bad	-0.052531887
26	0xbd17a888	-0.03702596
27	0xbe9c547f	-0.30533215
28	0xbe80e222	-0.25172526
29	0x3e18125f	0.14850758
30	0xbe0fcb6d	-0.14042445
31	0xbe5c77e0	-0.21530104
32	0x3e40c49b	0.18824999
33	0xbdb8f98f	-0.090319745
34	0x3d0e431c	0.03473197
35	0xbd8b4936	-0.06801073
36	0x3dc202b8	0.09473175
37	0xbd6f73ad	-0.058459926
38	0x3dc1d717	0.09464853
39	0xbe0bd0ef	-0.1365392
40	0x3ca7d54b	0.020487448
41	0xbd0cd9e3	-0.03438748
42	0x3e3f5352	0.18684128
43	0xbe25de67	-0.16198121
44	0xbd6ec15b	-0.058289867
45	0x3cefde79	0.029280888
46	0x3dbc0417	0.091804676
47	0x3eb3b02e	0.35095352
48	0x3ebc4567	0.367717
49	0x3e93972e	0.28826278
50	0x3e6e5b6f	0.23277067
51	0x3df19e38	0.11797756
52	0x3d8efc3f	0.06981706
53	0x3de6f36a	0.11276896
54	0x3d4876dd	0.04894148
55	0x3eac9e8b	0.3371471
56	0x3d21961f	0.039449807
57	0x3e73bcc6	0.2380248
58	0xbd9f37dc	-0.07774326
59	0xbd7a93a0	-0.061175942
60	0x3eafad78	0.34312034
61	0x3ec4b633	0.38420257
62	0x3ee85a88	0.4538157
63	0xbe4624b2	-0.19349936
64	0xbf08842d	-0.53326684
65	0xbf088d82	-0.53340924
66	0xbeb037ad	-0.34417477
67	0x3e06f59e	0.13179633
68	0x3ea37e8b	0.31932482
69	0x3e36db3f	0.17857073
70	0xbc5882d3	-0.013214785
71	0xbe5da231	-0.21643902
72	0x3da43e14	0.08019653
73	0x3e9a8335	0.30178228
74	0x3d821a51	0.06352676
75	0x3c8d96d1	0.017283829
76	0x3db6f58b	0.08933552
77	0xbee66972	-0.45002323
78	0x3e8eae1e	0.27867216
79	0x3e4f5f1e	0.20251128
80	0x3db03ec3	0.08605721
81	0x3e139aa9	0.14414467
82	0x3e2c6dcf	0.16838764
83	0x3e43d4fd	0.19124217
84	0x3e82ffad	0.2558569
85	0x3dff13be	0.124549374
86	0x3d9786fc	0.07398793
87	0xbf097a7a	-0.5370251
88	0x3eddc4df	0.43314263
89	0xbf033402	-0.5125123
90	0xbca7d611	-0.020487817
91	0x3d2eebab	0.04270522
92	0xbf0618f0	-0.523818
93	0xbedd9ba2	-0.432828
94	0x3cccb4b8	0.024988517
95	0x3e0d0bf2	0.13774088
96	0x3dd8a514	0.10578361
97	0x3f0c484e	0.5479783
98	0x3f0795fe	0.52963245
99	0xbd34b562	-0.044118293
100	0x3e78d679	0.24300565
101	0x3da6320a	0.08115013
102	0xbecc7aa3	-0.39937314
103	0xbd9d2221	-0.07672525
104	0x3e820e94	0.25401747
105	0x3d23e6ab	0.040014904
106	0x3e306737	0.17226873
107	0x3dc7e76c	0.09760937
108	0x3d9e53e9	0.07730848
109	0x3e544fb9	0.20733537
110	0x3ef8e6f8	0.48613715
111	0x3d16832f	0.0367462
112	0x3dc43f2a	0.0958236
113	0xbed10409	-0.4082339
114	0xbf37e94b	-0.7184035
115	0xbdacefd3	-0.0844418
116	0x3e70da1f	0.23520707
117	0x3ea0433c	0.31301296
118	0x3dcb9477	0.09940427
119	0x3ee5ff90	0.4492154
120	0x3ee2505c	0.44201934
121	0x3e947ec0	0.29002953
122	0x3d91651e	0.07099365
123	0xbeb62726	-0.35576743
124	0xbe22a206	-0.1588212
125	0xbd1c829a	-0.03821049
126	0xbeac805a	-0.33691674
127	0xbe1c9e3a	-0.15294734
128	0xbc26aec8	-0.010173507
129	0xbe4fade7	-0.20281182
130	0xbd96c634	-0.07362023
131	0x3d97a83b	0.07405134
132	0xbe4fcbdb	-0.20292608
133	0xbd8beafe	-0.068319306
134	0x3e64b902	0.223362
135	0xbe2bded0	-0.16784215
136	0xbb6e8f86	-0.0036401465
137	0xbdea7a30	-0.11449087
138	0xbe491d85	-0.19640167
139	0xbd8a9176	-0.06766026
140	0xbd86a114	-0.06573692
141	0x3e920fe8	0.2852776
142	0x3e7fd1a1	0.24982311
143	0xbe1e4afd	-0.15458293
144	0x3d9e9598	0.077433765
145	0xbe0bdec9	-0.13659205
146	0xbe91e2b3	-0.2849327
147	0xbeb4e05e	-0.3532743
148	0x3e6fc1fe	0.23413846
149	0x3e627b3a	0.2211732
150	0x3ddabeb1	0.10680903
151	0x3e2ba9a7	0.16763936
152	0xbe008eed	-0.12554522
153	0xbdf10bf1	-0.11769856
154	0x3dda88c0	0.10670614
155	0xbe2ccbf8	-0.16874683
156	0x3e149468	0.14509737
157	0xbd5b2ab5	-0.053507525
158	0xbd20da4b	-0.03927068
159	0x3d729c6d	0.05923121
160	0xbe2eef13	-0.17083387
161	0xbcf31595	-0.029673377
162	0xbe2c088a	-0.16800132
163	0x3d166baf	0.03672379
164	0x3ceb162c	0.028697096
165	0xbb8bfe21	-0.004272238
166	0xbcc53e1b	-0.024077466
167	0x3c6f2d43	0.014598194
168	0xbe3d8920	-0.1850934
169	0xbdd82df8	-0.10555643
170	0xbd017ac9	-0.031611238
171	0x3dab2149	0.08355958
172	0xbe2d2b66	-0.16911086
173	0xbb9fa68f	-0.0048721503
174	0xbe164934	-0.14676362
175	0xbd84604a	-0.06463678
176	0x3d9f4f49	0.07778794
177	0x3ea40871	0.3203769
178	0x3d9ae03a	0.07562299
179	0x3dfde267	0.123966984
180	0x3e10cb4a	0.14140049
181	0x3e9112fe	0.28334802
182	0x3e8b5b0c	0.272179
183	0x3e528736	0.20559391
184	0x3d0b0323	0.03393854
185	0x3e65c330	0.2243774
186	0x3d55b1a6	0.052171372
187	0xbe479806	-0.19491586
188	0xbcb265a6	-0.021776985
189	0x3eccc912	0.39997154
190	0x3e437fd3	0.1909173
191	0x3eb73a91	0.3578687
192	0x3dca8a27	0.09889632
193	0xbed174ef	-0.40909526
194	0xbf011468	-0.5042176
195	0xbf11141f	-0.5667133
196	0xbe197adf	-0.14988278
197	0x3d85d7ae	0.06535278
198	0xbf1e499f	-0.61831087
199	0xbf7b6163	-0.98195475
200	0xbece58eb	-0.40302214
201	0xbf886bab	-1.0657858
202	0xbf9d9134	-1.2309937
203	0xbfdac09e	-1.7090032
204	0xbf45ba12	-0.77237046
205	0xbefd5dbb	-0.49485573
206	0xbe7ab9ef	-0.2448499
207	0xbde2c0dd	-0.11071942
208	0xbee4d2a5	-0.4469196
209	0x3f1f27f1	0.6217032
210	0xbe12f945	-0.14352901
211	0xbe9ea62e	-0.3098616
212	0x3db2537a	0.08707328
213	0x3d149c0d	0.036281634
214	0xbeb3300a	-0.34997588
215	0xbd21b672	-0.039480634
216	0xbd66f249	-0.056383405
217	0xbe094248	-0.1340419
218	0x3e10c58a	0.14137855
219	0x3e169479	0.14705075
220	0xbeb0239c	-0.34402168
221	0xbe339617	-0.17537723
222	0xbee4136f	-0.44546077
223	0x3dfb576c	0.12272534
224	0x3e800888	0.2500651
225	0x3e8fbcf5	0.2807385
226	0x3e93b688	0.28850198
227	0x3ee9323d	0.4554614
228	0x3e187700	0.14889145
229	0x3e84178b	0.25799212
230	0x3d0254a6	0.03181901
231	0x3e2ec36a	0.17066732
232	0xbe8ad64b	-0.27116618
233	0xbdb01fc2	-0.08599807
234	0xbed8756d	-0.4227709
235	0x3e057d65	0.13036115
236	0x3ed34007	0.41259786
237	0x3da649a1	0.08119512
238	0x3c56449d	0.013077882
239	0x3e050107	0.12988673
240	0x3e0da408	0.13832104
241	0x3db5064d	0.088390924
242	0x3e8c9b99	0.27462462
243	0x3e09e07a	0.13464537
244	0xbe9c1bc8	-0.30489945
245	0x3d2232a3	0.039599072
246	0xbd0d9c60	-0.03457296
247	0xbe36689a	-0.1781334
248	0xbdc367eb	-0.09541305
249	0x3dfb647d	0.12275026
250	0xbd14bd3d	-0.036313284
251	0x3e3dd354	0.18537647
252	0x3d0c8ac7	0.034312036
253	0x3c9a163d	0.018809432
254	0xbe229a99	-0.15879287
255	0xbcf445ef	-0.029818503

layer1.bias f4 [64]
0	0xbc691615	-0.014226456
1	0xbee81cb9	-0.45334414
2	0x3e4fe8c4	0.20303637
3	0xbdd7cea3	-0.1053746
4	0xbe52fd38	-0.20604408
5	0x3e7f3118	0.24921072
6	0x3e17dcbe	0.148303
7	0xbea5b76b	-0.323665
8	0x3e8959a7	0.26826212
9	0x3e48fe2b	0.19628207
10	0xbe9ee91c	-0.31037223
11	0x3e8c2761	0.27373794
12	0x3d9247ee	0.07142626
13	0x3deae311	0.11469091
14	0xbe3377db	-0.1752619
15	0xbe122225	-0.14270838
16	0xbe6ac819	-0.22927894
17	0x3ea5cc5c	0.32382476
18	0x3efa48f0	0.48883772
19	0x3e8a43f5	0.27004972
20	0x3db20295	0.08691899
21	0x3e47c869	0.19510044
22	0x3e2e5d92	0.17027882
23	0xbd9d7bf8	-0.07689661
24	0x3e82ed23	0.25571546
25	0x3e5d927c	0.2163791
26	0x3eaffbde	0.34371847
27	0x3e524c88	0.20537007
28	0x3e38d4c2	0.1804991
29	0x3c8e25f9	0.017352091
30	0x3d2a9be6	0.041652583
31	0x3e8ac0db	0.27100262
32	0xbe0658b0	-0.13119769
33	0x3e44997e	0.19199178
34	0x3ea786a0	0.32719898
35	0xbc0ecc7e	-0.008715747
36	0xbea2e946	-0.31818599
37	0xbdb22d69	-0.087000675
38	0x3a1b33c8	0.0005920497
39	0x3d853146	0.06503539
40	0x3e723983	0.23654751
41	0xbc2ae88c	-0.01043142
42	0x3e04e1ee	0.1297681
43	0x3e75d1d0	0.24005818
44	0xbe78cd6f	-0.24297117
45	0x3dbdee5d	0.0927398
46	0x3e6cdf12	0.2313197
47	0x3d749aba	0.05971787
48	0x3e66036b	0.22462241
49	0x3ec0e311	0.37673238
50	0x3d2d71df	0.042344924
51	0x3e35e0a4	0.17761475
52	0x3e6f38b8	0.2336148
53	0xbca3b1fe	-0.019982334
54	0xbc1c9b97	-0.00955858
55	0xbd0472aa	-0.032335915
56	0xbe29e9b2	-0.16593054
57	0xbe5643c7	-0.20924293
58	0x3ce3ac8a	0.027792234
59	0x3e877153	0.26453647
60	0xbd62cce7	-0.05537119
61	0xbe3f1324	-0.18659645
62	0xbe5916c8	-0.21200097
63	0xbe0e067c	-0.13869661

layer2.weight_ih_l0 f4 [64, 64]
0	0x3cfd49cc	0.030918978
1	0x3e1c1cbc	0.15245336
2	0xbee1ee6e	-0.4412722
3	0xbab97171	-0.0014148188
4	0xbe9b3d46	-0.30320185
5	0x3f0eb620	0.5574665
6	0x3dc2571d	0.09489272
7	0xbeeb186a	-0.45917064
8	0xbea48d2c	-0.32138956
9	0x3e351402	0.17683414
10	0x3e9d7027	0.30749628
11	0xbed69f95	-0.41918626
12	0x3e1e9952	0.15488175
13	0x3e5f1d07	0.21788417
14	0x3d977452	0.07395233
15	0x3d9c765e	0.07639764
16	0xbe24acc0	-0.16081524
17	0x3f254bd8	0.64568853
18	0xbf499fc2	-0.78759396
19	0xbea902e9	-0.33010033
20	0x3ed6edc8	0.41978288
21	0x3e9018e9	0.28144005
22	0xbedd38c3	-0.43207368
23	0xbd71143c	-0.058857188
24	0x3ed9b6b3	0.425222
25	0x3fade086	1.3584144
26	0xbef450ab	-0.47717795
27	0xbe75fd47	-0.24022399
28	0xbe78a544	-0.24281794
29	0x3f09a86d	0.5377262
30	0xbf15ad4c	-0.58467555
31	0x3f6f3033	0.9343292
32	0xbd0797b1	-0.03310365
33	0x3d0e354f	0.034718808
34	0xbf34fa7b	-0.706947
35	0x3dee93c5	0.116492786
36	0xbe8b3d82	-0.27195364
37	0x3df5700a	0.119842604
38	0xbcec50fb	-0.028847208
39	0xb917b358	-0.00014467293
40	0xbdb95059	-0.09048528
41	0xbe2305b3	-0.15920143
42	0x3e1fa96f	0.15591978
43	0x3ee83c46	0.45358485
44	0xbdc5701e	-0.09640525
45	0xbe29795f	-0.16550206
46	0x3e9f9e02	0.31175238
47	0xbe8ae094	-0.27124465
48	0x3fb2e870	1.3977184
49	0xbf41907e	-0.756111
50	0x3f450806	0.7696537
51	0xbe030473	-0.12794666
52	0x3f1e84b7	0.61921257
53	0xbe0a0a9b	-0.13480608
54	0x3f770275	0.96488124
55	0xbb80185d	-0.0039091543
56	0xbc832fe9	-0.016014056
57	0xbdb01c96	-0.08599202
58	0xbdf285b4	-0.11841908
59	0xbee36873	-0.44415626
60	0xbdb1668e	-0.08662139
61	0x3c85be4c	0.016326092
62	0x3ef1eb69	0.47249916
63	0xbe14cdb7	-0.14531599
64	0x3ce93961	0.028469743
65	0x3e0ec2ab	0.13941447
66	0x3d9e327b	0.07724472
67	0xbc00ed51	-0.007869081
68	0x3cfac18d	0.03060987
69	0xbe4c3f88	-0.1994611
70	0xbd2f6063	-0.04281653
71	0x3e1c9aed	0.15293474
72	0x3e310715	0.17287858
73	0x3cf5de26	0.030013155
74	0xbf888582	-1.0665743
75	0x3deeaf85	0.116545714
76	0xbd3c401d	-0.04595958
77	0x3d6ce736	0.057837687
78	0x3d1c59a2	0.038171418
79	0x3c5d0078	0.013488881
80	0x3d16877c	0.0367503
81	0xbe64568e	-0.22298643
82	0x3e9c61d1	0.30543378
83	0xbb0ef553	-0.0021813705
84	0x3d5cdc38	0.053920954
85	0xbda51ee5	-0.08062533
86	0x3dafc7ec	0.08583054
87	0x3c3b4025	0.0114288675
88	0xbc905188	-0.017617002
89	0xbc8e38e4	-0.017361112
90	0x3e3b35fe	0.18282315
91	0x3e1a4618	0.15065801
92	0x3da1f0f2	0.07907285
93	0xbe5142a1	-0.20435573
94	0xbd385948	-0.04500702
95	0xbd7a9012	-0.061172552
96	0xbd145bdd	-0.03622042
97	0x3c270206	0.0101933535
98	0xbcd7741f	-0.026300488
99	0x3ab175cd	0.0013539136
100	0x3d16bfb1	0.036803905
101	0xbc1c3e88	-0.009536393
102	0xbe09d422	-0.13459828
103	0x3d082c1f	0.033245202
104	0xbdddd564	-0.10831717
105	0xbdaae785	-0.0834494
106	0xbe8cfbc3	-0.2753583
107	0xbd5025a7	-0.050817158
108	0x3df83588	0.12119585
109	0x3daa3c4a	0.083122805
110	0x3db5f43c	0.08884475
111	0x3ecc9329	0.39956024
112	0xb9b8a973	-0.00035221464
113	0x3d9b0a92	0.075703755
114	0xbe6dba01	-0.23215486
115	0x3dddbc98	0.10826987
116	0x3bc3234d	0.005955136
117	0x3e1a935f	0.1509528
118	0xbe70c929	-0.23514237
119	0x3cd3538c	0.025796674
120	0x3d42da99	0.047571752
121	0x3e07e826	0.13272151
122	0xbc302e35	-0.010753204
123	0x3d75aa1a	0.059976675
124	0xbd098560	-0.033574462
125	0xbd15aede	-0.03654372
126	0xbf18bcbe	-0.59663
127	0xbd469f9b	-0.048492055
128	0x3d25dce7	0.040493872
129	0x3e7777fe	0.24166867
130	0xbd467881	-0.048454765
131	0xbd913287	-0.070897155
132	0xbdc2fe00	-0.09521103
133	0xbb3161c0	-0.002706632
134	0xbdf98c5e	-0.12184976
135	0x3e24d413	0.16096525
136	0xbe7ae445	-0.2450114
137	0x38fedbfa	0.00012152638
138	0xbe98ce90	-0.29845095
139	0xbd26cebc	-0.0407245
140	0x3d20a80d	0.039222766
141	0xbdb10da1	-0.08645178
142	0x3cf1947d	0.02948975
143	0xbd98a0b6	-0.07452528
144	0x3c404578	0.011735313
145	0xbaa11078	-0.0012288233
146	0xbeac1518	-0.33609843
147	0xbe939308	-0.28823113
148	0x3e699139	0.22809304
149	0x3d12b6a4	0.03581871
150	0xbea88923	-0.32917127
151	0xbb2f94cd	-0.0026791573
152	0x3e427484	0.1898976
153	0x3e1dbccd	0.15404053
154	0xbd759989	-0.059960876
155	0xbdd489f0	-0.10377872
156	0xbea17afd	-0.31539145
157	0x3e96ac20	0.29428196
158	0xbe0939a7	-0.13400899
159	0x3b7abb8c	0.003825876
160	0xbcf6eb85	-0.030141601
161	0x3d05b66e	0.03264468
162	0xbe596828	-0.21231139
163	0xbd7ed711	-0.062216822
164	0x3e0958bf	0.1341276
165	0xbd982dd3	-0.07430615
166	0x3d221dd1	0.039579216
167	0x3e51d645	0.20491894
168	0xbe148438	-0.14503562
169	0xbdf544a6	-0.11975984
170	0xbe4f7afe	-0.20261762
171	0x3e8c2b7d	0.2737693
172	0x3d536b5b	0.051616054
173	0xbd329004	-0.043594375
174	0xbc918cd6	-0.017767351
175	0xbedc901a	-0.4307869
176	0x3d031eff	0.032011982
177	0xbea9f6b3	-0.3319603
178	0x3efc0cb0	0.4922843
179	0xbce93cf8	-0.028471455
180	0x3d853d60	0.06505847
181	0x3d4c7419	0.049915407
182	0x3dd1030c	0.10205659
183	0x3d3e3d6d	0.0464453
184	0x3be7d11b	0.007074488
185	0xbdbefb8c	-0.093253225
186	0xbddf7b73	-0.10912218
187	0xbea17537	-0.3153474
188	0x3b748438	0.0037310254
189	0xbd43799e	-0.047723405
190	0xbce830c1	-0.02834356
191	0xbdf633ea	-0.120216206
192	0x3d2eec86	0.042706035
193	0x3d76bb68	0.06023732
194	0x3e007447	0.12544356
195	0x3cea9d5d	0.02863949
196	0x3cd84ff3	0.02640531
197	0xbe8f35d6	-0.2797076
198	0x3dacd37f	0.08438777
199	0x3e57d11e	0.21075866
200	0x3eb29d43	0.34885606
201	0x3c3987c2	0.011323871
202	0xbf50f9f2	-0.81631386
203	0x3e72d70c	0.23714846
204	0x3ac4117b	0.0014958823
205	0xbda6d5f8	-0.0814628
206	0xbd0dd553	-0.03462727
207	0xbd735008	-0.059402496
208	0x3e34bda1	0.17650463
209	0xbefeeb1e	-0.49788755
210	0x3f28a76a	0.65880454
211	0x3e681511	0.22664286
212	0xbe1873c4	-0.14887911
213	0xbe4b244d	-0.19838066
214	0x3e8c7b94	0.27438033
215	0x3d213971	0.03936142
216	0xbd22df68	-0.039763838
217	0xbe9bdd96	-0.30442494
218	0x3e6331ce	0.22186968
219	0x3e739ea8	0.23790991
220	0x3e3f39cd	0.18674393
221	0xbe5a8484	-0.21339613
222	0x3de6c061	0.11267162
223	0xbe97a5c0	-0.29618645
224	0x3c672527	0.014107979
225	0xbc078e94	-0.008273739
226	0x3d14dc9f	0.036343213
227	0x3d1335d2	0.03594
228	0x3ce6f572	0.02819321
229	0xbcb92a80	-0.022603273
230	0x3c29fc85	0.010375147
231	0x3ca037df	0.019557891
232	0xbd05b32c	-0.032641575
233	0x3db0d889	0.08635051
234	0xbe8d3343	-0.27578172
235	0xbeb6becf	-0.3569245
236	0x3d82df28	0.0639022
237	0x3e136fd1	0.14398123
238	0x3c8ff9ee	0.01757523
239	0x3e61e8d2	0.2206147
240	0xbe82d6c2	-0.25554472
241	0x3e976df4	0.29576075
242	0xbe8372ae	-0.2567343
243	0x3e65d13e	0.22443101
244	0xbe9e0846	-0.30865687
245	0x3d93880c	0.07203683
246	0xbecfaec0	-0.4056301
247	0x3ca4f4dc	0.02013629
248	0x3d03fec7	0.032225396
249	0x3eadccb5	0.33945242
250	0x3db4df39	0.08831639
251	0x3e34001d	0.17578168
252	0x3bdecb7f	0.006799161
253	0xbd23fd33	-0.04003639
254	0xbf6b3cf6	-0.91889894
255	0x3e748306	0.23878106

layer2.weight_hh_l0 f4 [64, 64]
0	0xbd4569e2	-0.04819668
1	0xbc548c5a	-0.012972916
2	0x3c131442	0.008976998
3	0xbd33aa06	-0.04386332
4	0xbd15fc2f	-0.036617454
5	0x3b0e0bc5	0.0021674496
6	0x3c3b3444	0.011426035
7	0xbdd39e19	-0.10332889
8	0x3c5f34a9	0.013623395
9	0x3dbb4b76	0.091452524
10	0x3d9bb953	0.07603707
11	0x3cacc520	0.02109009
12	0x3d5ddebb	0.05416749
13	0xbd4c78c8	-0.049919873
14	0xbcbb90ba	-0.02289616
15	0xbd67bf15	-0.056578714
16	0x3db02bd1	0.08602107
17	0xbd5fa798	-0.05460319
18	0x3d111ca2	0.035427697
19	0xbdc44bae	-0.09584747
20	0x3d079eb4	0.033110335
21	0xbc849ecf	-0.016189007
22	0xbdb09796	-0.08622663
23	0xbd1c9a39	-0.038233016
24	0x3d55e79d	0.052222837
25	0x3c81a3a3	0.015825098
26	0xbd65595f	-0.055993434
27	0xbda0e914	-0.07856956
28	0xbc7670ed	-0.015041572
29	0x3dad63e4	0.08466318
30	0xbc97258b	-0.01845052
31	0x3c8d3229	0.017235832
32	0x3d521cac	0.051296875
33	0x3d8f5573	0.0699872
34	0xbd4b6c97	-0.049664106
35	0xba80e74a	-0.0009834555
36	0xbdba6eac	-0.0910314
37	0x3cffa18c	0.031204961
38	0xbdbe84a3	-0.09302642
39	0xbc8a4d90	-0.016882688
40	0x3db217ad	0.08695922
41	0x3cd5f3b4	0.026117183
42	0x3c50eb8b	0.01275147
43	0x3d2140c6	0.039368413
44	0xbdf80e6a	-0.12112124
45	0x3be5987d	0.0070067034
46	0x3d2532c0	0.040331602
47	0x3d51d667	0.05122986
48	0xbd780409	-0.060550723
49	0xbd4f974d	-0.0506814
50	0x3d837ea3	0.064206384
51	0x3cab66bd	0.020923013
52	0x3adf6527	0.0017043696
53	0x3e0d2a10	0.13785577
54	0xbcde18e5	-0.02711148
55	0x3ccc7b59	0.02496116
56	0x3d64dd7b	0.055875283
57	0x3d3ff39b	0.04686318
58	0xbda81768	-0.082075894
59	0xbd9c24ba	-0.076241925
60	0x3b6ed64b	0.0036443647
61	0x3d540395	0.05176123
62	0xbcd88887	-0.026432289
63	0xbcd8d37d	-0.026468033
64	0xbd502955	-0.050820667
65	0x3d71b0ee	0.059006624
66	0x3d48686e	0.048927717
67	0xbd04b220	-0.032396436
68	0x3d535dce	0.05160313
69	0xbdbd2702	-0.09235956
70	0x3d297295	0.04136904
71	0x3d05dcd6	0.03268131
72	0xbc848042	-0.01617444
73	0xbd802566	-0.06257133
74	0x3da66991	0.08125604
75	0xbd45264a	-0.04813222
76	0x3d44d650	0.048055947
77	0x3d15dff4	0.03659053
78	0xbccb7b96	-0.024839204
79	0x3c605252	0.013691502
80	0x3d21b568	0.039479643
81	0x3c2ddd0a	0.010611782
82	0xbba1ceb9	-0.0049379733
83	0x3d8002ac	0.062505096
84	0x3ce74b01	0.028234007
85	0x3e2940f2	0.16528681
86	0xbca6f1ff	-0.020379065
87	0x3cd42e95	0.025901118
88	0x3dd66ec5	0.10470346
89	0xbd73ed96	-0.05955275
90	0x3d4081f8	0.046998948
91	0x3e47758c	0.19478434
92	0xbcf2fcea	-0.029661614
93	0x3c62c11f	0.013839989
94	0xbda7a300	-0.08185387
95	0xbd8b7090	-0.06808579
96	0xbdaf7faf	-0.085692756
97	0xbd44ca8e	-0.048044734
98	0x3e24daab	0.1609904
99	0x3cd9e6a0	0.026599228
100	0x3ca638a7	0.020290686
101	0x3cbc2fa0	0.022971928
102	0xbd28a152	-0.041169472
103	0x3d122fe5	0.035690207
104	0xbd6e8294	-0.058229998
105	0x3dfae16c	0.12250027
106	0x3b6bbaf0	0.0035969578
107	0xbc61f66d	-0.013791663
108	0xbd0aeae3	-0.03391541
109	0x3ca50ae0	0.020146787
110	0x3df504ed	0.1196383
111	0xbc7545bf	-0.014970242
112	0xbd101c8b	-0.03518347
113	0x3dde8bac	0.10866484
114	0x3d58fc0e	0.052974753
115	0x3de65003	0.1124573
116	0x3b622b7c	0.0034510782
117	0xbd098323	-0.033572327
118	0x3d337fdc	0.043823108
119	0x3c8411e3	0.01612181
120	0x3d858b74	0.06520739
121	0x3dffc9a6	0.12489633
122	0x3deb7887	0.11497598
123	0x3ae6ec62	0.0017618055
124	0x3df635a2	0.120219484
125	0xbd75f87c	-0.060051426
126	0x3d1a81ec	0.03772156
127	0x3b8ecb8a	0.00435776
128	0xbc1dd60c	-0.009633552
129	0xbd613cfe	-0.054989807
130	0xbcc080bd	-0.023498887
131	0x3dc9f224	0.09860638
132	0x3cc377e1	0.023860874
133	0xbbd51c07	-0.0065035853
134	0xbd49ff6d	-0.04931586
135	0x3d86dfe3	0.06585672
136	0x3d65357b	0.055959206
137	0x3d649388	0.05580476
138	0x3d6b84b1	0.05749959
139	0x3ce65ac1	0.028119447
140	0xbdafbe97	-0.08581274
141	0xbdccface	-0.10008775
142	0xbcb4a211	-0.022049936
143	0x3c228355	0.009919007
144	0x3de4a52e	0.11164318
145	0x3e0b807a	0.13623229
146	0x3d31765a	0.04332576
147	0x3df49cae	0.11943947
148	0xbdd2d5fa	-0.10294719
149	0x3c9476e9	0.018123107
150	0xbc965fb7	-0.018356187
151	0xbd191ad3	-0.037379097
152	0x3d35f10f	0.044419345
153	0xbc963298	-0.018334672
154	0x3d6b077b	0.05738018
155	0xbc8326d3	-0.016009724
156	0xbe0146e6	-0.12624702
157	0x3d52718e	0.051377825
158	0x3d1789ac	0.03699653
159	0xbd84aa28	-0.06477767
160	0xbca87207	-0.020562185
161	0x3d5c8e0f	0.053846415
162	0xbc0566e7	-0.00814221
163	0xbd1a0d2b	-0.037610214
164	0x3d9fc453	0.07801118
165	0xbdced767	-0.100996785
166	0xbda5a13e	-0.08087395
167	0xbaed52ee	-0.001810638
168	0x3df756b1	0.12077082
169	0xbbe24eba	-0.0069063576
170	0xbdb50e48	-0.088406146
171	0x3cdc00ae	0.026855793
172	0xbe4f0389	-0.20216192
173	0x3daa5a2e	0.08317982
174	0x3d575fdd	0.052581657
175	0x3e2c338f	0.16816543
176	0xbbe183d9	-0.0068821725
177	0xbd7a7370	-0.061145246
178	0xbdb65e68	-0.08904725
179	0xbd5a3130	-0.053269565
180	0x3dcda7e3	0.100417875
181	0xbd9f4271	-0.077763446
182	0xbc7285c8	-0.014802404
183	0x3c50e2f3	0.012749421
184	0xbd10fbbf	-0.035396334
185	0x3cff4f92	0.031165872
186	0x3c67a9ab	0.014139573
187	0xbcf63e1f	-0.030058919
188	0xbdf6009b	-0.12011834
189	0x3d645482	0.055744655
190	0x3e067d6b	0.1313378
191	0xbdcbcd91	-0.09951318
192	0x3c9d1c57	0.019178553
193	0x3dd0179d	0.10160754
194	0xbca5d580	-0.020243406
195	0x3d0a8f64	0.033828154
196	0x3d894d8e	0.067042455
197	0xbc085576	-0.008321157
198	0x3de1fe82	0.11034872
199	0xbcf05bf5	-0.029340724
200	0xbdf1a192	-0.11798395
201	0xbbef4b83	-0.007302703
202	0x3dc49b1a	0.09599896
203	0xbdcc5468	-0.09977037
204	0x3da4db32	0.08049621
205	0xbca8c94d	-0.0206038
206	0xbdb6f386	-0.08933167
207	0xbd8322d1	-0.06403125
208	0xbd9b8fa7	-0.07595759
209	0x3d0fb470	0.035084188
210	0xbdeef443	-0.11667683
211	0x3d87da5e	0.06633447
212	0x3ce8d544	0.028422005
213	0x3d956b0a	0.07295807
214	0xbd41262f	-0.047155555
215	0x3c99ae1a	0.018759776
216	0x3d3fee95	0.04685839
217	0xbcb0e4da	-0.0215935
218	0x3defc428	0.11707336
219	0x3d025fb7	0.031829562
220	0xbd1d102e	-0.03834551
221	0x3c1e58c2	0.009664716
222	0xbd4bf9df	-0.049798843
223	0xbdab2aab	-0.08357748
224	0xbd81a0cc	-0.06329498
225	0xbd1b399c	-0.037896737
226	0x3dfe6e66	0.124234006
227	0x3d153551	0.0364278
228	0xbd34412e	-0.044007473
229	0x3cd6457a	0.026156176
230	0x3a8d6e31	0.0010790286
231	0xbd033695	-0.032034475
232	0xbda72213	-0.08160796
233	0x3cbbd953	0.022930777
234	0x3d8d444b	0.068977915
235	0xbc28bab3	-0.010298419
236	0xbdc443c3	-0.09583237
237	0x3c8fe905	0.017567167
238	0xbc34f03f	-0.011043607
239	0x3dd382bc	0.1032767
240	0xbc3d1ae4	-0.011542056
241	0x3dd9f377	0.1064214
242	0x3c953137	0.018211944
243	0x3c4ed44e	0.01262386
244	0xbbdaa0ba	-0.006671992
245	0xbca41b50	-0.020032555
246	0x3d5ab777	0.053397622
247	0x3ca12278	0.019669756
248	0xbdd70752	-0.10499443
249	0x3dc7cf6c	0.097563595
250	0x3d467a4c	0.048456475
251	0x3d49053e	0.049077265
252	0x3d663be7	0.05620947
253	0xbde5e39c	-0.11225054
254	0x3d13a7bd	0.03604864
255	0xbc21989c	-0.009863045

layer2.bias_ih_l0 f4 [64]
0	0xbd550c03	-0.05201341
1	0xbd88eabf	-0.06685399
2	0xbc8db35b	-0.017297437
3	0xbcbb4e1b	-0.022864392
4	0xbc65b069	-0.01401911
5	0x3c900248	0.017579213
6	0xbd4bd4c9	-0.049763475
7	0xbdc9da0f	-0.098560445
8	0x3dda7e5a	0.10668631
9	0xbd1b34ec	-0.037892267
10	0xbd553296	-0.052050196
11	0x3d0a030e	0.03369432
12	0xbe201791	-0.1563399
13	0xbc212160	-0.009834617
14	0xbd02b176	-0.03190752
15	0x3d86266d	0.06550298
16	0xbdbd0d03	-0.092309974
17	0x3bc01f67	0.0058631185
18	0xbd405d62	-0.046964057
19	0xbb3371cd	-0.0027381063
20	0x3dcce00b	0.1000367
21	0xbe2a75ef	-0.1664655
22	0xbddef674	-0.10886851
23	0xbdb394f7	-0.08768647
24	0xbd696afa	-0.056986786
25	0xbda2def5	-0.07952682
26	0x3b75c2d5	0.0037500162
27	0xbcfd81d6	-0.0309457
28	0x3d906362	0.07050206
29	0x3c50c498	0.012742184
30	0x3d8460f7	0.06463807
31	0xbd34872d	-0.044074226
32	0x3d4c0572	0.04980988
33	0x3d5a603d	0.053314436
34	0xbe2932a3	-0.16523223
35	0x3d83da66	0.064381406
36	0x3da68c9a	0.08132286
37	0xba0ae488	-0.0005298336
38	0xbc6b369b	-0.014356281
39	0xbe0a9756	-0.13534293
40	0x3cb8be15	0.022551576
41	0xbcfff964	-0.031246848
42	0xbdec0d0c	-0.11525926
43	0xbc2dc234	-0.010605384
44	0x3d7bc81d	0.06147014
45	0xbdd64546	-0.104624316
46	0xbe36d0e7	-0.17853127
47	0xbd7683db	-0.06018434
48	0x3e633bd0	0.22190785
49	0xbe40d7fc	-0.18832392
50	0xbe1f0583	-0.15529446
51	0xbd86a2be	-0.06574009
52	0x3cda4799	0.026645469
53	0xbdb7a578	-0.089671075
54	0x3e0f960d	0.14022084
55	0x3de4710b	0.11154374
56	0x3de9da68	0.11418611
57	0xbda545f5	-0.08069984
58	0xbd62793e	-0.055291407
59	0xbbe80d43	-0.007081659
60	0xbde23087	-0.11044412
61	0x3b05b99f	0.0020404828
62	0xbd0c57e0	-0.03426349
63	0xbd02aa30	-0.031900585

layer2.bias_hh_l0 f4 [64]
0	0x3cc478cd	0.023983384
1	0xbe26a10b	-0.1627237
2	0xbd0079b0	-0.03136605
3	0xbd8d06c9	-0.0688606
4	0xbde0fee3	-0.10986116
5	0x3d110f73	0.035415124
6	0xbd9baa99	-0.07600898
7	0xba254fd9	-0.0006306149
8	0x3da93b14	0.082632214
9	0xbdf1877b	-0.11793419
10	0xbc9bbceb	-0.019010982
11	0x3cc58ead	0.024115885
12	0xbe0f6971	-0.14005066
13	0xbcf997da	-0.030467916
14	0xbcb04ac0	-0.021520019
15	0x3d9a4321	0.07532335
16	0xbdd160b9	-0.102235265
17	0xbd3651cf	-0.044511613
18	0xbd41e6c7	-0.047339227
19	0x3d26df9d	0.040740598
20	0x3d9d7fc3	0.07690384
21	0xbd08170c	-0.033225104
22	0xbdbe9f46	-0.09307723
23	0xbdd20677	-0.10255139
24	0xbcb73642	-0.02236474
25	0xbd014916	-0.03156384
26	0xbdf6e772	-0.120558634
27	0xbe17df5d	-0.148313
28	0xbc849f40	-0.016189218
29	0xbdd43136	-0.10360949
30	0x3d50d750	0.050986588
31	0xbd0561c6	-0.032563947
32	0x3d8ebfc6	0.06970172
33	0x3e145da3	0.14488845
34	0xbe039b6a	-0.12852255
35	0xbd3ae4fe	-0.04562854
36	0x3d03bcc1	0.03216243
37	0x3d09cd84	0.03364326
38	0x3c9ad5a4	0.0189007
39	0xbd46e834	-0.04856129
40	0x3d30b961	0.04314554
41	0xbdd863cd	-0.105659105
42	0xbdcb8144	-0.09936765
43	0xbd99519d	-0.074862696
44	0x3d91de1d	0.07122443
45	0xbde33a71	-0.11095131
46	0xbd8f47d8	-0.06996125
47	0x3d3776bb	0.044790965
48	0x3e21ebf7	0.1581267
49	0xbe1c131f	-0.15241669
50	0xbdb296f5	-0.08720199
51	0xbdcfc658	-0.10145253
52	0xbdf2c5ff	-0.11854171
53	0xbbf5d277	-0.007501896
54	0x3d78cbd7	0.06074127
55	0x3d086ace	0.033304982
56	0x3d5ea224	0.054353848
57	0xbe2bc2d3	-0.16773538
58	0xbd153a63	-0.036432635
59	0x3d846fe8	0.06466657
60	0xbd22470c	-0.039618537
61	0xbd8f3e32	-0.06994285
62	0xbd29f205	-0.041490573
63	0xbc8ca1af	-0.01716694

layer3.weight f4 [5, 64]
0	0x3fbb3065	1.4624144
1	0xbebf7df9	-0.37400797
2	0x3f8711ce	1.0552309
3	0xbe4272c8	-0.18989098
4	0xbf03c56f	-0.51473135
5	0x3fa41aba	1.2820656
6	0xbf0a1ce3	-0.5395033
7	0xbf13a0be	-0.5766715
8	0x3fdbd3cf	1.7174014
9	0xbea8de1e	-0.32981962
10	0x3d9481bd	0.07251308
11	0x3fe22143	1.7666401
12	0x3f86af7a	1.0522301
13	0x3f71a873	0.9439766
14	0xbeea4a99	-0.45760038
15	0x3ff2c75f	1.8967093
16	0xbf3ab0b2	-0.72925866
17	0xbe41c1e8	-0.18921626
18	0xbe0fc34a	-0.1403934
19	0xbf025deb	-0.5092456
20	0xbf17143c	-0.5901525
21	0xbd8c0a23	-0.06837871
22	0xbf0cde22	-0.5502645
23	0xbd8fde5f	-0.07024836
24	0xbd88891c	-0.066667765
25	0xbf18a30d	-0.59623796
26	0xbebfba2d	-0.37446728
27	0xbb1b592c	-0.0023704274
28	0x3ffbb87e	1.9665678
29	0xbeb9b8e6	-0.3627388
30	0x3ffe8489	1.9884197
31	0xbef84f81	-0.48498157
32	0x3fab08e2	1.3362086
33	0x3fd21ab5	1.64144
34	0x3d41dde1	0.04733074
35	0xbf073218	-0.5281081
36	0x3fa368ac	1.2766318
37	0x3f9ecca8	1.2406206
38	0xbf0383eb	-0.51373166
39	0x3b2bfca0	0.0026243106
40	0x3f63e62d	0.89023095
41	0xbf2109a8	-0.6290536
42	0xbea3de75	-0.3200566
43	0xbf19a380	-0.60015106
44	0x3bfb5aa1	0.007670716
45	0xbf2c9090	-0.67408085
46	0x3d96c933	0.073625945
47	0xbec61a82	-0.386921
48	0xbe595d21	-0.21226932
49	0xbe8b4b06	-0.27205676
50	0x3d077419	0.033069704
51	0xbeaba082	-0.33520895
52	0xbed9d16d	-0.42542592
53	0xbec838ce	-0.3910584
54	0x3fdcc9b1	1.7249051
55	0x3fca0042	1.5781329
56	0xbee71745	-0.4513494
57	0x3cb74093	0.022369659
58	0xbca844e2	-0.020540658
59	0x3f891ad0	1.0711308
60	0x3f0dfba8	0.5546212
61	0xbf20c39c	-0.62798476
62	0xbea63014	-0.32458556
63	0x3fc625cd	1.5480286
64	0x3fddfd05	1.734284
65	0xbeb4488e	-0.35211605
66	0x3f855d56	1.0419109
67	0xbe979534	-0.2960602
68	0x3d69a6bf	0.057043787
69	0x3f9ac23e	1.2090528
70	0xbee5d3e8	-0.44888234
71	0xbf2ad010	-0.6672373
72	0x3fedc115	1.8574549
73	0xbea69fea	-0.3254388
74	0x3d260ba8	0.04053846
75	0x3fe7ad35	1.8099734
76	0x3f6cfabe	0.925701
77	0x3f0f1cf9	0.55903584
78	0xbf12529b	-0.57157296
79	0x3feee3e7	1.86633
80	0xbf0880db	-0.5332162
81	0xbec0ae33	-0.37632903
82	0xbed6e37d	-0.41970435
83	0xbf0ca1a0	-0.5493412
84	0xbf2e7bb2	-0.68157494
85	0x3cd031b4	0.025414325
86	0xbf3ebbcb	-0.745053
87	0xbd3ae1a9	-0.045625363
88	0xbd0de812	-0.034645148
89	0xbf0e810a	-0.5566565
90	0xbeaa0e77	-0.3321416
91	0xbcbf98c9	-0.023388283
92	0x4002f413	2.046147
93	0xbedc422f	-0.43019244
94	0x3ffd7b5d	1.9803272
95	0xbf062073	-0.52393264
96	0x3fb66f72	1.425276
97	0x3fb3eb53	1.405619
98	0x3d2a4103	0.041565906
99	0xbf3409bf	-0.7032737
100	0x3f887932	1.0661986
101	0x3f5cbe7c	0.86228156
102	0xbf0b8ff9	-0.5451656
103	0x3c838d08	0.01605846
104	0x3f779b57	0.96721405
105	0xbf24faad	-0.64445
106	0xbea5aa45	-0.32356468
107	0xbf389dd9	-0.72115856
108	0x3f18efec	0.5974109
109	0xbf24c08f	-0.6435632
110	0xbc9fdff3	-0.019515967
111	0xbe9cc670	-0.30620146
112	0xbea4e178	-0.3220327
113	0xbeec0699	-0.46098784
114	0x3ce9786c	0.028499804
115	0xbe3192b6	-0.17341122
116	0xbeec805b	-0.46191677
117	0xbe1b7dd4	-0.15184718
118	0x3fb51996	1.4148433
119	0x3fe88361	1.8165094
120	0xbed0ec17	-0.40805122
121	0x3d6424a7	0.055699017
122	0x3b416474	0.0029509338
123	0x3f884dc2	1.064873
124	0x3f0a13d3	0.539365
125	0xbf1f4ccf	-0.62226576
126	0xbef1d7a0	-0.4723482
127	0x3fb14985	1.3850561
128	0x3fc8de2c	1.5692801
129	0xbe6dc395	-0.2321914
130	0x3f777e1b	0.96676797
131	0xbf05fed6	-0.52341974
132	0xbf46a484	-0.7759478
133	0x3fc183cb	1.5118345
134	0xbf36d7b3	-0.7142288
135	0xbb377198	-0.002799129
136	0x3fe08359	1.7540084
137	0xbefef966	-0.4979965
138	0xbb82abc1	-0.00398776
139	0x3fed7896	1.8552425
140	0x3f528b89	0.82244164
141	0x3f3a9fad	0.72899896
142	0xbf687cbf	-0.9081535
143	0x3fef2758	1.8683882
144	0xbf5a4bf5	-0.8527215
145	0xbeaed7aa	-0.34148914
146	0x3f6ca5c8	0.9244046
147	0xbf04416d	-0.5166233
148	0xbf1762db	-0.59135216
149	0xbd94f649	-0.07273538
150	0xbeb71f33	-0.3576599
151	0xbd42f46e	-0.047596388
152	0xbcb60aff	-0.02222204
153	0xbf5e2bc4	-0.8678553
154	0xbeeee3ff	-0.46658322
155	0xbd2933a2	-0.041309007
156	0x3fff1f4b	1.9931425
157	0xbeb83501	-0.3597794
158	0x3ff8ae4e	1.9428194
159	0xbf567802	-0.8377687
160	0x3fc4c829	1.5373584
161	0x3fcb4ea5	1.5883375
162	0x3c867ce1	0.016416969
163	0xbf1414db	-0.5784432
164	0x3fb235e7	1.39227
165	0x3f4c7d0e	0.7987832
166	0xbe91ed12	-0.28501183
167	0xbcd29322	-0.025704924
168	0x3f6d60e9	0.92726
169	0xbf0cacb8	-0.5495105
170	0xbe3ae00e	-0.18249533
171	0xbf24e60a	-0.6441351
172	0xbe51376e	-0.20431301
173	0xbf0c2789	-0.54747826
174	0x3bfb8844	0.0076761562
175	0x3da6ee2d	0.08150897
176	0xbe9a8df4	-0.30186427
177	0xbe9f4329	-0.31105927
178	0x3cb344b1	0.02188334
179	0xbe311be3	-0.17295794
180	0xbe94761c	-0.2899636
181	0xbee5b645	-0.44865623
182	0x3fb020aa	1.3759968
183	0x3fd2c26a	1.646558
184	0xbf134250	-0.5752306
185	0xbd6428ee	-0.055703096
186	0xbdc72dd4	-0.09725538
187	0x3f809e79	1.0048362
188	0x3f254bf1	0.64569
189	0xbf119347	-0.5686535
190	0xbeb725e3	-0.35771093
191	0x3fbfe3ac	1.4991355
192	0x3fc494c6	1.5357902
193	0xbe3b2a4b	-0.18277852
194	0x3f8fcd5a	1.1234543
195	0xbeaa3042	-0.33239943
196	0xbef0f8a7	-0.47064707
197	0x3fb80f3b	1.4379648
198	0xbf2b8e2b	-0.67013806
199	0xbf04f3a8	-0.5193429
200	0x3ff16485	1.8858801
201	0xbec76696	-0.38945454
202	0x3b6f8538	0.003654791
203	0x3fdbc81a	1.7170441
204	0x3f4e53dc	0.8059671
205	0x3f139489	0.5764852
206	0xbee24e6c	-0.44200456
207	0x3fe62468	1.797986
208	0xbf309c62	-0.6898862
209	0xbe1782f1	-0.14796044
210	0xbebfb16c	-0.3744005
211	0xbf055da8	-0.52096033
212	0xbf46348a	-0.7742392
213	0x3d26f71a	0.040763
214	0xbf00a278	-0.5024791
215	0xbd068bfd	-0.032848347
216	0xbda0a64e	-0.0784422
217	0xbed3afb0	-0.41344976
218	0xbeaca9cf	-0.33723304
219	0x3c369902	0.011144878
220	0x3ff31797	1.8991574
221	0xbec8689a	-0.39142305
222	0x3fecc791	1.8498403
223	0xbeee6d53	-0.46567783
224	0x3fb54fe4	1.4165006
225	0x3fcdbd1b	1.6073335
226	0x3d8ed08a	0.069733694
227	0xbebac504	-0.36478436
228	0x3faa9d28	1.332921
229	0x3f22578a	0.63414824
230	0xbf1413a8	-0.57842493
231	0x3dccfd08	0.100091994
232	0x3f998f41	1.1996843
233	0xbf349e55	-0.70554096
234	0xbeb31279	-0.3497503
235	0xbf5608d9	-0.8360725
236	0x3d8a3bab	0.06749662
237	0xbf519e47	-0.8188214
238	0xbd3b33b0	-0.04570359
239	0xbea745f9	-0.32670572
240	0xbeeb2d7c	-0.4593314
241	0xbe5d0b3c	-0.21586317
242	0xbd468342	-0.04846502
243	0xbe9fe7f1	-0.31231645
244	0xbef93066	-0.48669738
245	0xbecdade0	-0.4017172
246	0x3fab635f	1.3389701
247	0x3fd1dc8b	1.6395429
248	0xbed4c196	-0.41553944
249	0x3d89f1f2	0.067356005
250	0xbc4f3155	-0.012646039
251	0x3fb918b5	1.4460665
252	0x3f0408b6	0.5157579
253	0xbf27e49a	-0.65583193
254	0xbee35147	-0.44397947
255	0x3fa8f07b	1.3198389

layer3.bias f4 [5]
0	0x3f80a96f	1.0051707
1	0x3f8e00a2	1.1093943
2	0x3fad7458	1.355113
3	0x3fc16d38	1.5111456
4	0x3f65999d	0.8968752
