ch08/car_racing_dqn_200.pth (torch, 40850 bytes, 8 tensors)

layer1.weight f4 [64, 11]
-0.25277585 0.22722973 0.13672647 0.21699171 0.21590331 0.22793885 0.048958607 0.3341173
0.33095956 0.24788798 0.24219318 -0.6950635 -0.09023719 0.28969052 0.07035979 0.25752112
0.21217307 -0.15375641 0.07386238 0.25070596 0.52899903 0.5220853 0.46054247 0.045467965
-0.2553677 -0.068771526 -0.010767532 -0.32901156 -0.24739668 0.2279141 -0.28159562 -0.3447174
0.18033558 -0.11919186 0.045837704 -0.089737795 0.12500176 -0.077168226 0.124892846 -0.18016593
0.027026651 -0.045378383 0.24657425 -0.21359724 0.24298215 0.09892658 0.09036771 0.5474185
0.53264713 0.21252096 0.28848886 0.23546576 0.011650189 0.0853298 0.16808046 0.1073496
-0.18027648 0.2662057 -0.37767863 -0.45196855 0.3239553 0.25433594 0.32658663 0.050244827
-0.2186516 -0.45755997 -0.44821241 0.15709436 0.39169395 0.11620787 -0.0397847 0.013071406
0.19486257 0.2121655 0.006447001 0.027234314 0.13709074 -0.37735906 0.30722782 0.24154316
0.24463312 0.25449884 0.07071951 0.20684142 0.3883635 0.055623 0.12748842 -0.31001356
0.3291823 -0.7120493 -0.28296748 -0.93323046 -0.965457 -0.91154605 -0.25067446 -0.15334462
-0.12916023 0.30186456 0.35696104 -0.14806873 0.24619287 0.09222345 -0.42051652 0.007271842
0.37723193 0.04057302 0.29418072 0.16371942 0.03329225 0.15742816 0.5879222 0.069087714
0.07128624 -0.5708515 -0.70520556 0.15713294 0.37802705 0.4058674 0.3062061 0.7211429
0.538886 0.50041324 0.222309 -0.30466598 -0.14006446 0.019654987 -0.44614434 -0.23729391
-0.04149237 -0.37037882 -0.1515361 0.040697534 -0.20280793 -0.021458523 0.27314854 -0.20661743
0.123595305 0.17745419 0.017162917 0.0434298 -0.06640367 0.35367155 0.3812413 -0.09151877
0.2206202 -0.0006740305 0.040200096 -0.17013457 0.39213836 0.24283299 0.14693217 0.31275874
-0.03027393 -0.0005072317 0.14096393 -0.2228231 0.19144416 -0.070687905 -0.051834673 0.07822497
-0.22547403 -0.039191924 -0.2218065 0.048445314 0.037918024 -0.0056373687 -0.03179671 0.01927107
-0.24428858 -0.13936752 -0.04172695 0.11030177 -0.2233195 -0.006432644 -0.19361028 -0.0852392
0.3319592 0.4348591 0.06409421 0.24838956 0.2282636 0.18488476 0.3250597 0.35307762
-0.022796141 0.2398693 0.17750609 -0.35678905 -0.119426824 0.37816998 -0.069984406 0.10782137
0.31861454 -0.35594076 -0.64536375 -0.77774364 -0.35867137 -0.09687146 -0.3626144 -0.744308
-0.17129572 -1.016565 -1.097228 -1.3956152 -0.6215575 -0.46538273 -0.27804682 0.115431696
-0.2617868 0.73978937 -0.15948424 -0.3962942 -0.04393737 -0.0994291 -0.617041 -0.2056625
-0.2620995 -0.28463176 0.08956455 0.14157186 -0.5643705 -0.07956084 -0.33403483 0.24508528
0.25562748 0.46320266 0.3047153 0.4522405 0.23044926 0.4121332 -0.021548938 0.118654124
-0.33805808 -0.01854646 -0.45796755 0.15969442 0.602481 0.09982861 0.07764266 0.288869
0.23831226 0.02472547 0.39330396 0.19083121 -0.35864472 0.012817547 0.011134378 -0.29354337
-0.21403767 0.045627203 -0.2855825 0.06749741 -0.024250768 0.024804458 -0.20951523 -0.039391473
00000000: d66b 81be e9ae 683e 0602 0c3e 1333 5e3e
00000010: c215 5d3e cd68 693e d288 483d 6c11 ab3e
00000020: 8873 a93e 59d6 7d3e 7d01 783e aeef 31bf
00000030: 47ce b8bd 5152 943e cb18 903d cfd9 833e
00000040: e643 593e 5272 1dbe 2945 973d 885c 803e
00000050: 7b6c 073f 62a7 053f 39cc eb3e 9e3c 3a3d
00000060: 8ebf 82be 16d8 8cbd 4d6a 30bc 3474 a8be
00000070: 8e55 7dbe 5062 693e 4d2d 90be cd7e b0be
00000080: e4a9 383e dd1a f4bd 51c0 3b3d 73c8 b7bd
00000090: 7600 003e 600a 9ebd d2c7 ff3d 6b7d 38be
000000a0: ff66 dd3c afde 39bd f67d 7c3e 3cb9 5abe
000000b0: 50d0 783e 059a ca3d b512 b93d 9e23 0c3f
000000c0: 905b 083f 189f 593e d0b4 933e f01d 713e
000000d0: 6fe0 3e3c 64c1 ae3d 491d 2c3e 1bda db3d
000000e0: 669a 38be 1d4c 883e 185f c1be 6c68 e7be
000000f0: 78dd a53e 5238 823e 5d36 a73e 85cd 4d3d
00000100: 34e6 5fbe 4d45 eabe 197c e5be 58dd 203e
00000110: 1c8c c83e 64fe ed3d 48f5 22bd 7329 563c
00000120: 0e8a 473e ea41 593e 5d41 d33b 7f1a df3c
00000130: 8461 0c3e 3535 c1be f74c 9d3e 1757 773e
00000140: 1b81 7a3e ac4d 823e 64d5 903d 3dce 533e
00000150: 95d7 c63e f1d4 633d 538c 023e 19ba 9ebe
00000160: 958a a83e dd48 36bf 1de1 90be 31e8 6ebf
00000170: 3128 77bf 155b 69bf 6758 80be 5f06 1dbe
00000180: 9442 04be fe8d 9a3e 99c3 b63e 549f 17be
00000190: fc19 7c3e a6df bc3d f14d d7be a248 ee3b
000001a0: 8b24 c13e e52f 263d db9e 963e 10a6 273e
000001b0: 745d 083d d934 213e 1282 163f dc7d 8d3d
000001c0: 85fe 913d 5323 12bf 5a88 34bf 75e7 203e
000001d0: c38c c13e dacd cf3e 0cc7 9c3e d29c 383f
000001e0: 6ff4 093f 151b 003f f8a4 633e 2efd 9bbe
000001f0: 0f6d 0fbe 7f03 a13c 086d e4be 2dfd 72be
00000200: e7f3 29bd 4ba2 bdbe 482c 1bbe 75b2 263d
00000210: e2ac 4fbe c9c9 afbc 20da 8b3e 8593 53be
00000220: 891f fd3d 8db6 353e 3f99 8c3c 72e3 313d
00000230: a6fe 87bd 7014 b53e 0f32 c33e 316e bbbd
00000240: 43ea 613e 6cb1 30ba dba8 243d c237 2ebe
00000250: 5cc6 c83e 36a9 783e 6375 163e ea21 a03e
00000260: 0801 f8bc bef7 04ba d958 103e bd2b 64be
00000270: f009 443e d2c4 90bd 9850 54bd 6a34 a03d
00000280: aae2 66be b687 20bd 3e21 63be 986e 463d
00000290: ee4f 1b3d adb9 b8bb 443d 02bd 5dde 9d3c
000002a0: c926 7abe 5cb6 0ebe e1e9 2abd e5e5 e13d
000002b0: dead 64be eec8 d2bb c641 46be e491 aebd
000002c0: 8ef6 a93e daa5 de3e d343 833d d559 7e3e
000002d0: efbd 693e 6e52 3d3e 3a6e a63e 97c6 b43e
000002e0: f9be babc 4ca0 753e 28c4 353e 0ead b6be
000002f0: 0d96 f4bd 7f9f c13e fc53 8fbd 73d1 dc3d
00000300: 7221 a33e de3d b6be 8f36 25bf 351a 47bf
00000310: c6a3 b7be 8b64 c6bd 98a8 b9be f88a 3ebf
00000320: 2568 2fbe cd1e 82bf f871 8cbf 85a3 b2bf
00000330: 641e 1fbf a546 eebe 275c 8ebe 7467 ec3d
00000340: eb08 86be d662 3d3f d64f 23be 13e7 cabe
00000350: acf7 33bd 7ca1 cbbd 66f6 1dbf 3199 52be
00000360: e831 86be 41bb 91be 9e6d b73d 37f8 103e
00000370: 967a 10bf cbf0 a2bd 9d06 abbe a3f7 7a3e
00000380: 9be1 823e e628 ed3e a503 9c3e 118c e73e
00000390: e4fa 6b3e 1f03 d33e 6687 b0bc ef00 f33d
000003a0: f315 adbe bfee 97bc b97a eabe ef86 233e
000003b0: 323c 1a3f f172 cc3d 1d03 9f3d a3e6 933e
000003c0: 2108 743e 128d ca3c 235f c93e 4269 433e
000003d0: 48a0 b7be b000 523c f76c 363c 514b 96be
000003e0: b12c 5bbe 97e3 3a3d df37 92be 153c 8a3d
000003f0: 8ca9 c6bc b832 cb3c 298b 56be f458 21bd

layer1.bias f4 [64]
-0.020929283 -0.52939814 0.29362112 -0.13913372 -0.16094455 0.105900966 0.17667231 -0.26892537
0.48014075 0.26272863 -0.12952738 0.37796056 0.07923366 0.18283474 -0.23121358 -0.18833844
-0.15921034 0.21060257 0.43438864 0.31620675 0.13984366 0.21080914 0.21052387 -0.10153667
0.1449428 0.19224264 0.3630718 0.22467417 0.2092956 -0.086965665 0.058996048 0.13388875
-0.1730439 0.2766988 0.3390721 -0.008400039 -0.15448157 -0.040414978 0.015539444 -0.017668203
0.30988568 0.046365056 0.24305001 0.37555853 -0.3208497 0.19521093 0.27023274 -0.16044779
0.1919746 0.3825668 -0.041171394 0.25525507 0.17370033 0.04858413 -0.08273419 -0.042642966
-0.2189827 -0.09695333 0.13964398 0.42299914 0.055963878 -0.24625412 -0.14195216 -0.074013405
00000000: e373 abbc a386 07bf 8255 963e 1279 0ebe
00000010: a6ce 24be 9be2 d83d 96e9 343e 96b0 89be
00000020: 02d5 f53e 5e84 863e d3a2 04be 0c84 c13e
00000030: 4245 a23d 0839 3b3e 41c3 6cbe cbdb 40be
00000040: 0908 23be 33a8 573e 3068 de3e dae5 a13e
00000050: 2d33 0f3e 5ade 573e 9293 573e 75f2 cfbd
00000060: e36b 143e 41db 443e 8ce4 b93e fc10 663e
00000070: 9651 563e 0e1b b2bd d7a5 713d 221a 093e
00000080: 6c32 31be 77ab 8d3e dc9a ad3e 51a0 09bc
00000090: 6b30 1ebe 2d8a 25bd 2799 7e3c e8bc 90bc
000000a0: 56a9 9e3e 49e9 3d3d 1ae2 783e 3549 c03e
000000b0: 6946 a4be 60e5 473e f25b 8a3e 6d4c 24be
000000c0: fd94 443e ccdf c33e 56a3 28bd cbb0 823e
000000d0: 80de 313e 2700 473d 8b70 a9bd 64aa 2ebd
000000e0: 003d 60be 788f c6bd d5fe 0e3e 5893 d83e
000000f0: 613a 653d 0a2a 7cbe e85b 11be 5794 97bd

layer2.weight_ih_l0 f4 [64, 64]
0.1447279 0.2839096 -0.29202798 -0.0018671366 -0.22869116 0.29931042 0.2572447 0.06906721
-0.29059765 0.2218727 0.22085415 -0.35127577 0.33240825 0.14928423 0.09754681 0.10083812
-0.09153647 0.53808796 -0.38322946 -0.18561906 0.7394936 0.3797467 -0.42957428 -0.07771069
0.076755196 1.2050806 -0.2472899 -0.20376399 -0.23548247 0.30924493 -0.43314475 0.6333352
-0.043666612 0.18278494 -0.39279026 0.18984887 -0.17924535 0.1940453 0.06018499 0.17745039
-0.05904595 -0.20172298 0.037976023 0.3062622 -0.12731892 -0.21980858 0.09841614 -0.12117767
1.6317266 -0.36325267 0.18510705 -0.2620489 0.43733826 -0.16372265 0.12323814 -0.00516423
-0.021118233 0.0070770574 -0.17262928 -0.33958817 -0.04521872 0.021532329 0.4938246 -0.15290567
0.09717045 0.26259467 0.13021615 -0.010390514 0.08041444 -0.15043381 0.04487132 0.23428021
0.27944198 0.05293202 -1.0160127 0.22526373 0.015084515 0.098618604 0.05038069 0.017821312
0.11146405 -0.18994991 0.48028624 -0.0016272659 0.055806503 -0.17064622 0.18786605 0.015084182
-0.034455873 -0.05181239 0.296677 -0.013422219 0.1637638 -0.13328996 -0.09882401 -0.03714619
-0.047790937 0.045875784 0.074443944 0.06087807 0.11153378 0.031248253 -0.12729833 0.11111359
-0.12036458 -0.037350457 -0.2542134 -0.13109833 0.16020842 0.26680666 0.07952843 0.48715216
-0.029111205 0.18827312 -0.097467385 0.22281267 -0.0058050524 0.31314006 -0.21221583 0.034080178
0.06278594 0.21623161 0.05459868 0.14593206 0.016509924 -0.048211228 -0.6236721 -0.012502264
0.082419485 0.10972035 -0.010157496 -0.093575075 0.04550188 0.009371326 0.015558335 0.21560597
0.035845075 0.09764729 0.2062106 -0.08466969 0.049783323 0.084715985 0.038939435 -0.09829164
0.21014741 -0.09498115 -0.070995696 -0.116177686 0.15117048 0.05820858 -0.031240486 -0.0035353794
0.10466213 0.077531226 -0.030273495 0.061396025 -0.16177993 0.082955435 0.12048932 0.03772116
-0.039835732 0.14870769 -0.081185795 0.041898753 0.20495212 0.09467956 0.16583885 0.24076094
-0.060274873 0.052314684 -0.036153074 0.10871079 0.06818955 0.19221726 -0.021396501 0.027054794
0.090790935 -0.1571651 0.05177415 0.092461444 0.0017097428 0.24746235 -0.027255733 0.061297
0.009350718 0.09550206 0.06122339 -0.15589914 0.09916593 -0.06299592 0.14726493 0.066353925
0.09483957 0.20726712 0.28313357 0.03784602 0.03845562 -0.27652764 0.09857599 0.25617883
0.61413723 -0.013909458 -0.91094047 0.36430624 0.056253266 -0.095973246 -0.045698106 -0.07846049
0.22020607 -0.49465403 0.8775096 0.592943 -0.15094607 -0.18373212 0.44314077 0.051950157
-0.049263075 -0.34092963 0.38590795 0.5469546 0.19846539 -0.23099655 0.35103464 -0.33886856
0.018646773 0.0037287986 0.27113816 0.00843482 0.0046612592 -0.017653039 0.02316453 0.063441426
0.0074929534 0.22146381 -0.2599802 -0.3926665 0.08428468 0.23404701 0.04245243 0.4414045
-0.32227877 0.50699365 -0.1345382 0.22102684 -0.4223936 0.063167274 -0.59309876 0.026554905
0.04249561 0.44417027 0.13095361 0.4065627 0.00781878 -0.05280921 -0.9601123 0.3025947
00000000: 8d33 143e 995c 913e b184 95be b5ba f4ba
00000010: 042e 6abe 373f 993e 94b5 833e 1c73 8d3d
00000020: 37c9 94be 9932 633e 9727 623e 6bda b3be
00000030: 6a31 aa3e f7dd 183e 9fc6 c73d 3784 ce3d
00000040: 7977 bbbd 22c0 093f a736 c4be ec12 3ebe
00000050: 744f 3d3f 296e c23e 29f1 dbbe c826 9fbd
00000060: d431 9d3d 1540 9a3f 9039 7dbe 82a7 50be
00000070: 5122 71be 5a55 9e3e 26c5 ddbe 4122 223f
00000080: c3db 32bd fa2b 3b3e ce1b c9be be67 423e
00000090: 188c 37be d0b3 463e 8984 763d 8eb5 353e
000000a0: 2bda 71bd 7890 4ebe bf8c 1b3d 66ce 9c3e
000000b0: e45f 02be 8015 61be 678e c93d 002c f8bd
000000c0: 6bdc d03f 41fc b9be b48c 3d3e 462b 86be
000000d0: cdea df3e e9a6 27be 4764 fc3d b338 a9bb
000000e0: 2500 adbc a9e6 e73b bbc5 30be 80de adbe
000000f0: 4437 39bd 9164 b03c 94d6 fc3e 4e93 1cbe
00000100: 4d01 c73d cf72 863e 6257 053e f93c 2abc
00000110: 53b0 a43d 520b 1abe fdca 373d 27e7 6f3e
00000120: 0513 8f3e 3fcf 583d b40c 82bf 89ab 663e
00000130: 0b25 773c 8df8 c93d fb5b 4e3d 00fe 913c
00000140: 4447 e43d 3b82 42be 14e8 f53e fc49 d5ba
00000150: 5c95 643d e2bd 2ebe f55f 403e a523 773c
00000160: 9a21 0dbd 3b39 54bd 0ce6 973e dee8 5bbc
00000170: b3b1 273e 2a7d 08be 3e64 cabd 9a26 18bd
00000180: 6ec0 43bd 3fe8 3b3d 1176 983d 485b 793d
00000190: d36b e43d 56fc ff3c 7e5a 02be 868f e33d
000001a0: b481 f6bd cbfc 18bd 4228 82be a43e 06be
000001b0: ad0d 243e e29a 883e cddf a23d 026c f93e
000001c0: 9f7a eebc abca 403e fb9c c7bd 0129 643e
000001d0: 4f38 bebb e553 a03e 1b4f 59be a897 0b3d
000001e0: ea95 803d d26b 5d3e dea2 5f3d 376f 153e
000001f0: d23f 873c 2379 45bd faa8 1fbf 4cd6 4cbc
00000200: 8ccb a83d 10b5 e03d a06b 26bc 4aa4 bfbd
00000210: 2e60 3a3d 318a 193c 63e8 7e3c d0c7 5c3e
00000220: 49d2 123d 4dfb c73d df28 533e 4d67 adbd
00000230: 99e9 4b3d 937f ad3d f57e 1f3d 214d c9bd
00000240: e230 573e 7a85 c2bd 3166 91bd 91ee edbd
00000250: 6fcc 1a3e 1f6c 6e3d 0cec ffbc d3b1 67bb
00000260: 1959 d63d b1c8 9e3d 1f00 f8bc 667a 7b3d
00000270: a3a9 25be 8ae4 a93d 1bc3 f63d 8181 1a3d
00000280: cb2a 23bd d446 183e bd44 a6bd 079e 2b3d
00000290: f8de 513e 5be7 c13d a9d1 293e 098a 763e
000002a0: c9e2 76bd ec47 563d 3f15 14bd c3a3 de3d
000002b0: f6a6 8b3d 9ad4 443e b747 afbc 04a2 dd3c
000002c0: 99f0 b93d e3ef 20be 2211 543d 6d5c bd3d
000002d0: 7319 e03a c566 7d3e 6a47 dfbc 9012 7b3d
000002e0: c133 193c 9696 c33d 61c5 7a3d 06a4 1fbe
000002f0: 8217 cb3d 0104 81bd 9ecc 163e 91e4 873d
00000300: 403b c23d d53d 543e e2f6 903e 6e04 1b3d
00000310: a483 1d3d 0895 8dbe 35e2 c93d df29 833e
00000320: 1938 1d3f 7fe4 63bc 6533 69bf 5986 ba3e
00000330: d369 663d 9f8d c4bd f02d 3bbd e5af a0bd
00000340: b37d 613e 4b43 fdbe 78a4 603f 1dcb 173f
00000350: 9b91 1abe 4624 3cbe 59e3 e23e b0c9 543d
00000360: 14c8 49bd 548e aebe ba95 c53e 3705 0c3f
00000370: 833a 4b3e 5c8a 6cbe d0ba b33e 2e80 adbe
00000380: 1ec1 983c dc5e 743b 9fd2 8a3e 3332 0a3c
00000390: 7abd 983b 1b9d 90bc 8ac3 bd3c 94ed 813d
000003a0: 7387 f53b 69c7 623e 201c 85be 950b c9be
000003b0: 729d ac3d 05aa 6f3e 99e2 2d3d c5ff e13e
000003c0: b901 a5be 56ca 013f 62c4 09be dc54 623e
000003d0: f943 d8be d85d 813d 52d5 17bf ac89 d93c
000003e0: e00f 2e3d 496a e33e b418 063e fc28 d03e
000003f0: 571a 003c 784e 58bd ebc9 75bf b1ed 9a3e

layer2.weight_hh_l0 f4 [64, 64]
-0.050596643 0.025992693 0.013452419 -0.113356136 0.06401023 0.044724308 0.07909704 -0.12960584
0.031795725 0.030840859 0.07424775 -0.04111195 0.071116954 -0.034150496 -0.057140496 -0.052338496
0.075505026 -0.020020956 0.060393747 -0.079170465 0.115243055 -0.054425005 -0.11807885 -0.083189614
0.07307114 0.059737984 -0.0387673 -0.103758246 -0.008100705 0.065692134 0.011803139 0.019714564
0.053023085 0.08691017 -0.10014799 -0.02403712 -0.091283195 0.0531882 -0.09800555 -0.05314655
0.06314585 -0.03029974 -0.019719684 0.03650939 0.07710829 0.020878404 0.021207113 0.070236884
0.02084177 -0.050684705 0.04868343 0.047883593 0.017037643 0.178555 -0.085615434 -0.028290283
0.09506152 0.03119912 -0.09942456 -0.019728288 -0.028344898 0.020544043 -0.008309417 0.013566074
0.0012886055 0.014167163 0.1271836 -0.07584706 0.074134335 -0.064671986 0.0011428919 0.06096044
0.055205338 -0.053311944 0.03025609 -0.099981904 0.039096996 0.020980055 -0.0543125 -0.0022960843
0.037051562 0.02290458 0.025655841 -0.0014461154 0.016456082 0.16186436 -0.013431511 -0.024392147
0.04450844 -0.10652578 0.013740257 0.18510127 -0.0007140609 0.042522706 -0.060312506 -0.085144736
-0.015872825 -0.070420265 0.15847054 0.001389029 0.08321955 0.011022679 -0.03372636 -0.01063438
-0.00365687 0.088644065 -0.02910831 -0.016068825 0.10257611 0.023845002 0.098532185 -0.049243104
-0.03743903 0.05744601 0.01469376 0.093653075 -0.015745146 -0.08583871 0.058848035 0.041346934
0.06761467 0.10814681 0.06974166 0.06438523 0.12674713 -0.06459698 0.0024406104 0.05228416
0.017871283 -0.12718005 0.10427487 0.056412783 0.07198338 0.072416306 -0.018832998 0.052497793
0.07692777 -0.055602293 0.025208691 0.0046451306 -0.110727705 -0.033176884 -0.0585717 0.067671075
0.14814243 0.14764318 0.014189628 0.07004534 -0.05088892 -0.03289158 0.034416154 -0.10937746
-0.005551987 0.012955385 0.006967735 -0.0539247 -0.091497384 -0.010328515 0.14133376 -0.0746642
0.00024925917 0.11576774 -0.073973775 -0.021292323 0.18869844 -0.038377628 -0.009074317 -0.055237174
0.14239249 -0.024119247 -0.17494881 0.026558153 0.008696446 0.16441606 0.014977438 0.12958398
0.05169977 -0.13487118 -0.16754882 -0.118029445 0.092056096 -0.051903877 -0.0083756205 0.062843055
0.022892497 -0.015981574 -0.046876937 0.026770206 -0.14407913 0.13836166 0.11146215 0.04073868
0.061480775 0.02162206 -0.0035231537 0.05261561 0.02734593 0.027679177 0.087905675 0.0093371
-0.048897855 -0.039262895 0.07015242 -0.06454961 0.10500605 -0.026290111 -0.07381244 -0.0055108014
-0.04474885 -0.050724506 -0.081230395 -0.010620631 -0.036193356 0.043611396 -0.017891657 -0.031369407
0.0055196765 0.029067311 0.082838394 -0.03911834 0.039046895 -0.06778074 -0.07990487 -0.06317353
-0.0067107324 -0.0027219562 0.11516264 0.06544298 -0.029130971 0.047592722 0.03873415 -0.094382055
-0.032315116 0.051162064 0.055076722 0.0059930882 -0.0063883015 0.07260193 -0.0663628 0.028029503
0.018251987 0.05470434 -0.025451252 -0.03563799 -0.076949194 -0.055886023 0.06840908 0.06938361
-0.12114027 0.07692731 0.031417772 0.018189477 0.077875346 -0.09727976 -0.02620429 -0.038577102
00000000: 6d3e 4fbd a1ee d43c 8967 5c3c 4327 e8bd
00000010: cc17 833d d630 373d a1fd a13d 65b7 04be
00000020: 3c3c 023d f8a5 fc3c 340f 983d 0165 28bd
00000030: c4a5 913d 64e1 0bbd 270c 6abd e460 56bd
00000040: 61a2 9a3d fd02 a4bc 6f5f 773d 2024 a2bd
00000050: 8d04 ec3d c1ec 5ebd 53d3 f1bd 515f aabd
00000060: 52a6 953d d1af 743d 76ca 1ebd 347f d4bd
00000070: d2b8 04bc 9989 863d f461 413c 7080 a13c
00000080: bc2e 593d f6fd b13d 641a cdbd 7fe9 c4bc
00000090: aff2 babd dfdb 593d 22b7 c8bd 32b0 59bd
000000a0: 9d52 813d 2937 f8bc 2d8b a1bc df8a 153d
000000b0: f3ea 9d3d 3009 ab3c 8aba ad3c 5bd8 8f3d
000000c0: 5cbc aa3c c49a 4fbd 4768 473d 9621 443d
000000d0: 8792 8b3c 1fd7 363e 2557 afbd 06c1 e7bc
000000e0: 9daf c23d 4c95 ff3c 1b9f cbbd 389d a1bc
000000f0: 8f33 e8bc fb4b a83c 3924 08bc 3d44 5e3c
00000100: 6de6 a83a 631d 683c 6b3c 023e b455 9bbd
00000110: bed3 973d bf72 84bd 17cd 953a a8b1 793d
00000120: fe1e 623d a05d 5abd 9fdb f73c 50c3 ccbd
00000130: 2c24 203d 5dde ab3c c976 5ebd e779 16bb
00000140: 61c3 173d 63a2 bb3c 332c d23c 958b bdba
00000150: e8ce 863c c5bf 253e d70f 5cbc 0ad2 c7bc
00000160: 7b4e 363d 302a dabd d11e 613c 308b 3d3e
00000170: d12f 3bba 4a2c 2e3d 3f0a 77bd 5d60 aebd
00000180: ba07 82bc 8038 90bd 1a46 223e 1410 b63a
00000190: 036f aa3d 7798 343c a724 0abd d33b 2ebc
000001a0: 19a8 6fbb 058b b53d 8d74 eebc c5a2 83bc
000001b0: 6c13 d23d 9856 c33c 3ecb c93d 23b3 49bd
000001c0: ab59 19bd 824c 6b3d 19be 703c 2fcd bf3d
000001d0: f7fb 80bc 35cc afbd a30a 713d 675b 293d
000001e0: 8f79 8a3d 137c dd3d b7d4 8e3d 67dc 833d
000001f0: 00ca 013e 6c4b 84bd a6f2 1f3b ea27 563d
00000200: cc66 923c 7d3b 02be 108e d53d 1711 673d
00000210: 066c 933d 004f 943d a947 9abc ed07 573d
00000220: 4f8c 9d3d 3bbf 63bd 7582 ce3c 2e36 983b
00000230: 35c5 e2bd 7ce4 07bd e1e8 6fbd 2297 8a3d
00000240: a6b2 173e c62f 173e 9d7b 683c ee73 8f3d
00000250: e670 50bd 52b9 06bd f4f7 0c3d 4a01 e0bd
00000260: 71ed b5bb d342 543c 9951 e43b 25e0 5cbd
00000270: fb62 bbbd ef38 29bc ccb9 103e 8be9 98bd
00000280: 00af 8239 a317 ed3d 907f 97bd 3d6d aebc
00000290: 2a3a 413e dc31 1dbd 72ac 14bc 6040 62bd
000002a0: 56cf 113e ba95 c5bc c825 33be 7c90 d93c
000002b0: 8a7b 0e3c af5c 283e ee63 753c aab1 043e
000002c0: 23c3 533d ac1b 0abe eb91 2bbe 6cb9 f1bd
000002d0: e887 bc3d 2999 54bd e639 09bc dcb3 803d
000002e0: 0c89 bb3c caeb 82bc 0802 40bd 314d db3c
000002f0: 7b89 13be aeae 0d3e 4546 e43d 9add 263d
00000300: 44d3 7b3d bf20 b13c b6e4 66bb 7783 573d
00000310: 9204 e03c 71bf e23c e407 b43d a3fa 183c
00000320: 1e49 48bd 21d2 20bd 12ac 8f3d 9632 84bd
00000330: 690d d73d 5c5e d7bc fa2a 97bd f493 b4bb
00000340: 924a 37bd 80c4 4fbd 1f5c a6bd 2802 2ebc
00000350: 7c3f 14bd dda1 323d 8691 92bc 357d 00bd
00000360: 67de b43b 921e ee3c 2da7 a93d 8d3a 20bd
00000370: a3ef 1f3d a1d0 8abd 2aa5 a3bd 2061 81bd
00000380: b4e5 dbbb d962 32bb 64da eb3d f806 863d
00000390: 13a4 eebc 96f0 423d b3a7 1e3d 614b c1bd
000003a0: db5c 04bd 508f 513d 2198 613d ab61 c43b
000003b0: f554 d1bb 52b0 943d 38e9 87bd 219e e53c
000003c0: 3185 953c a811 603d 257f d0bc 24f9 11bd
000003d0: 8a97 9dbd bee8 64bd 0f1a 8c3d fe18 8e3d
000003e0: 6418 f8bd 118c 9d3d ecaf 003d 1902 953c
000003f0: 1c7d 9f3d 9c3a c7bd 61aa d6bc 0603 1ebd

layer2.bias_ih_l0 f4 [64]
-0.06175036 -0.04411781 0.12567475 0.011826644 0.028473927 -0.0067769852 -0.033116087 -0.09663624
0.0045721945 -0.019175377 -0.060369622 0.0028659478 -0.18051003 -0.017395798 -0.014316859 0.066181004
-0.061045226 0.056974232 -0.055677384 0.022480236 -0.018729227 -0.16314892 -0.08417858 -0.08481057
-0.057309553 -0.055635814 0.06095078 -0.03719094 0.08355466 0.03342171 0.006732424 -0.01176162
0.01045586 -0.008713764 -0.19529769 0.09175986 0.11139453 -0.12979224 -0.00025135797 -0.17317154
0.105824694 0.032474656 -0.10620846 0.069554634 0.0701315 -0.030086858 -0.20112792 -0.050320838
0.25729227 -0.21494737 -0.21386014 -0.050006762 0.09202146 -0.085022874 0.13435146 0.09015834
0.0611417 -0.059197973 -0.06154401 -0.03508877 -0.1711443 0.061762553 0.019850256 -0.079365276
00000000: f2ed 7cbd e0b4 34bd e2b0 003e 8ac4 413c
00000010: 2742 e93c 7911 debb bca4 07bd 39e9 c5bd
00000020: 59d2 953b ae15 9dbc 2346 77bd a0d2 3b3b
00000030: 9fd7 38be a281 8ebc 4291 6abc e889 873d
00000040: 8f0a 7abd d05d 693d f80d 64bd 7928 b83c
00000050: 096e 99bc 8310 27be d265 acbd 2ab1 adbd
00000060: 6cbd 6abd 61e2 63bd 86a7 793d 8755 18bd
00000070: b51e ab3d 34e5 083d aa9b dc3b cfb3 40bc
00000080: 0e4f 2b3c 2dc4 0ebc 1efc 47be 98ec bb3d
00000090: d122 e43d 42e8 04be b2c8 83b9 e153 31be
000000a0: 9eba d83d 2504 053d d283 d9bd a972 8e3d
000000b0: 1ba1 8f3d b778 f6bc 7af4 4dbe 391d 4ebd
000000c0: d0bb 833e 2a1b 5cbe 27fe 5abe e4d3 4cbd
000000d0: bf75 bc3d 7920 aebd 6e93 093e f0a4 b83d
000000e0: b86f 7a3d 9379 72bd 9215 7cbd 3eb9 0fbd
000000f0: 7440 2fbe bbfa 7c3d 019d a23c 438a a2bd

layer2.bias_hh_l0 f4 [64]
0.038604103 -0.1711577 0.106918104 -0.04895094 -0.098155394 0.016760923 -0.067614235 0.032587335
-0.027332054 -0.12504777 -0.016834075 -0.009807981 -0.15869728 -0.044615217 -0.000552732 0.07889245
-0.07407204 -0.009518232 -0.056193862 0.07984876 -0.049291987 0.01249742 -0.06325047 -0.104417495
-0.0113803875 0.0077377507 -0.1035338 -0.19181822 -0.030798271 -0.12059364 -0.011250084 0.003420787
0.036748998 0.112200715 -0.14715737 -0.053466406 0.046310272 -0.084621705 0.04365231 -0.058573414
0.13307782 -0.065727025 -0.08508319 -0.015321514 0.082944706 -0.038363 -0.058072913 0.0882619
0.17266786 -0.16794603 -0.123739265 -0.096962236 -0.099799775 0.02344694 0.029660854 -0.0131437685
-0.017676258 -0.17420083 -0.03665556 0.059667483 -0.077736445 -0.033310983 0.010291662 -0.059863023
00000000: 561f 1e3d f743 2fbe e1f7 da3d c880 48bd
00000010: b205 c9bd 344e 893c 5579 8abd 4c7a 053d
00000020: 79e7 dfbc 860c 00be 9de7 89bc a7b1 20bc
00000030: 8a81 22be 72be 36bd 37e5 10ba 5d92 a13d
00000040: 15b3 97bd 5cf2 1bbc 892b 66bd bf87 a33d
00000050: 65e6 49bd fbc1 4c3c 7689 81bd d7d8 d5bd
00000060: ce74 3abc f58c fd3b 8709 d4bd ff6b 44be
00000070: a84c fcbc ccf9 f6bd 4652 38bc 482f 603b
00000080: 1e86 163d 7dc9 e53d 6cb0 16be 97ff 5abd
00000090: d7af 3d3d 254e adbd c4cc 323d adea 6fbd
000000a0: 8d45 083e e49b 86bd 1840 aebd 1607 7bbc
000000b0: eade a93d 8522 1dbd dddd 6dbd a8c2 b43d
000000c0: d8cf 303e 0bfa 2bbe 036b fdbd 2394 c6bd
000000d0: d363 ccbd cc13 c03c 52fb f23c f658 57bc
000000e0: cdcd 90bc b461 32be 2424 16bd e465 743d
000000f0: 4934 9fbd 1971 08bd 5c9e 283c ee32 75bd

layer3.weight f4 [5, 64]
1.2979995 -0.3678094 0.82593375 -0.2251127 -0.35943115 1.1620493 -0.37480885 -0.5329515
1.353864 -0.13534428 0.096044526 1.504757 -0.08459339 -0.0960787 -0.2660865 1.6647624
-0.56683517 -0.20693445 -0.14633359 -0.51320016 -0.48301142 -0.09022844 -0.36189586 -0.09273164
-0.09004286 -0.43917394 -0.3827272 0.053010654 1.7327757 -0.2602882 1.5522712 -0.4793159
1.3200853 1.7392097 0.043687873 -0.5123584 1.0487595 0.079587094 -0.43723655 -0.020212661
0.5897271 -0.47043273 -0.3346011 -0.45561257 -0.0979771 -0.44768953 0.09712251 -0.4223515
-0.29852933 -0.28349188 0.04069471 -0.3290993 -0.4378594 -0.28846008 1.7076437 1.4196724
-0.17135344 0.029517593 -0.044843264 0.74303705 -0.056748826 -0.5027645 -0.32592988 1.3364443
1.3289915 -0.39128006 0.78312635 -0.39927906 0.027963797 1.119542 -0.3600599 -0.6004861
1.4923258 -0.017727813 0.052966446 1.5039566 0.06533299 -0.06984687 -0.37192032 1.5058626
-0.2541682 -0.4149514 -0.30644208 -0.59276456 -0.5852792 0.03358859 -0.5209492 -0.060216583
0.07942981 -0.2846733 -0.38930538 0.08716094 1.6206058 -0.20891388 1.5012243 -0.38765922
1.3519839 1.6812657 -0.030942615 -0.7487239 0.8876481 0.010260766 -0.46082214 0.008390501
0.845971 -0.4392248 -0.41333568 -0.67221093 0.5678225 -0.48894557 -0.025765404 -0.36503273
-0.27179614 -0.5270178 0.011782584 -0.29975957 -0.56314516 0.062339917 1.2264063 1.5164027
-0.021747157 0.073609896 0.08176364 0.8252214 0.07627858 -0.49903253 -0.598218 1.2885107
1.2815833 -0.32626352 0.6107178 -0.700071 -0.65193784 1.2375002 -0.6306145 -0.20402122
1.475084 -0.3061774 -0.0052237096 1.733228 0.10322777 -0.07712646 -0.6691956 1.5353376
-0.5884332 -0.50166464 0.11565132 -0.5494386 -0.5894388 -0.095964774 -0.2565707 -0.062820055
0.06304536 -0.5843174 -0.45088074 -0.052299097 1.8113451 -0.3676221 1.4528283 -0.6399755
1.3958385 1.7731551 -0.023952542 -0.46526954 1.0309672 -0.08490239 -0.1989982 -0.029625757
0.49118134 -0.4427863 -0.29149824 -0.51698315 -0.2241089 -0.39188778 0.0101449145 0.13249889
-0.06799589 -0.44694766 -0.0017129858 -0.25774997 -0.39743495 -0.31083858 1.4198498 1.5629703
-0.20262398 -0.073615335 0.09090047 0.8586387 0.09589079 -0.46584988 -0.46764058 1.307713
1.229992 -0.21272223 0.8816594 -0.4390586 -0.37222493 1.2541261 -0.61801654 -0.4884094
1.5425198 -0.2583845 0.0043834625 1.625198 0.06891111 0.06074044 -0.28972465 1.6185379
-0.46831617 -0.14307503 -0.5451522 -0.5370606 -0.47398013 0.05376435 -0.42536864 -0.04332621
-0.049460713 -0.28695932 -0.31883916 0.0014677673 1.6569957 -0.3215137 1.4985796 -0.29866832
1.2062606 1.6302992 0.07853323 -0.31993896 1.1233692 -0.013111785 -0.55371815 0.12251633
0.845846 -0.5550317 -0.42916727 -0.6878519 -0.06566908 -0.6612103 -0.060320884 -0.31127012
-0.57260555 -0.25349644 -0.10247728 -0.36758244 -0.5431815 -0.20681712 1.3089024 1.5710523
0.16422749 0.08886483 0.07693738 1.1158389 0.025302967 -0.46788114 -0.5094631 0.9164419
00000000: d924 a63f 8451 bcbe 6570 533f f283 66be
00000010: 5c07 b8be 08be 943f f2e6 bfbe 826f 08bf
00000020: 6a4b ad3f b197 0abe feb2 c43d e19b c03f
00000030: 4d3f adbd e9c4 c4bd 7d3c 88be ef16 d53f
00000040: 1c1c 11bf a0e6 53be 79d8 15be 1661 03bf
00000050: 464d f7be b0c9 b8bd 6a4a b9be 16ea bdbd
00000060: 6468 b8bd 68db e0be d2f4 c3be b321 593d
00000070: 98cb dd3f 7f44 85be d3b0 c63f e568 f5be
00000080: 8ef8 a83f 6c9e de3f 0ef2 323d ec29 03bf
00000090: c03d 863f 8ffe a23d 78dd dfbe 0695 a5bc
000000a0: 5bf8 163f 8fdc f0be d650 abbe 0d46 e9be
000000b0: 38a8 c8bd 9037 e5be 2be8 c63d 753e d8be
000000c0: d6d8 98be d925 91be 7faf 263d b47f a8be
000000d0: 1b2f e0be 0ab1 93be 1294 da3f d3b7 b53f
000000e0: 4777 2fbe e1ce f13c 92ad 37bd ad37 3e3f
000000f0: 7571 68bd 2db5 00bf 48e0 a6be 9b10 ab3f
00000100: 651c aa3f dc55 c8be f87a 483f 4e6e ccbe
00000110: 5514 e53c 274d 8f3f c559 b8be 75b9 19bf
00000120: 8804 bf3f eb39 91bc 58f3 583d a681 c03f
00000130: 4dcd 853d e00b 8fbd 576c bebe 1bc0 c03f
00000140: 5622 82be 8374 d4be fae5 9cbe 6bbf 17bf
00000150: dcd4 15bf 3094 093d ed5c 05bf aaa5 76bd
00000160: 19ac a23d b3c0 91be 0953 c7be 6f81 b23d
00000170: 0370 cf3f 85ed 55be 1e28 c03f 457b c6be
00000180: cf0d ad3f b733 d73f 5e7b fdbc 5fac 3fbf
00000190: e83c 633f c61c 283c e1f0 ebbe 5078 093c
000001a0: 8e91 583f 13e2 e0be bca0 d3be 0416 2cbf
000001b0: d15c 113f 1357 fabe f811 d3bc 92e5 babe
000001c0: dd28 8bbe a3ea 06bf bd0b 413c 167a 99be
000001d0: 482a 10bf 2458 7f3d e2fa 9c3f 7c19 c23f
000001e0: 1827 b2bc c9c0 963d b273 a73d b641 533f
000001f0: f237 9c3d 3181 ffbe d124 19bf ebed a43f
00000200: ec0a a43f 030c a7be 0058 1c3f da37 33bf
00000210: 66e5 26bf 6866 9e3f f46f 21bf f0ea 50be
00000220: 8dcf bc3f 49c3 9cbe a72b abbb 6ada dd3f
00000230: 1569 d33d 7af4 9dbd 6750 2bbf f185 c43f
00000240: 8fa3 16bf 186d 00bf 99da ec3d 02a8 0cbf
00000250: 76e5 16bf 2e89 c4bd 3c5d 83be cda7 80bd
00000260: ed1d 813d d395 15bf d7d9 e6be 9437 56bd
00000270: 28da e73f f738 bcbe 47f6 b93f 6fd5 23bf
00000280: d6aa b23f bff6 e23f 1f38 c4bc cf37 eebe
00000290: bcf6 833f 4ee1 adbd 2fc6 4bbe b7b1 f2bc
000002a0: 1f7c fb3e e3b4 e2be 423f 95be 0259 04bf
000002b0: ce7c 65be 84a5 c8be db36 263c caad 073e
000002c0: 6e41 8bbd 53d6 e4be 4486 e0ba cef7 83be
000002d0: 987c cbbe 3c26 9fbe a3bd b53f 690f c83f
000002e0: a97c 4fbe a3c3 96bd 072a ba3d bfcf 5b3f
000002f0: 6462 c43d e083 eebe 966e efbe 2463 a73f
00000300: 6170 9d3f dbd3 59be 6eb4 613f 4acc e0be
00000310: 4494 bebe 3487 a03f 5536 1ebf cc10 fabe
00000320: 4a71 c53f f94a 84be 26a3 8f3b 7d06 d03f
00000330: 4521 8d3d f8ca 783d ca56 94be 402c cf3f
00000340: 23c7 efbe 4382 12be 188f 0bbf ce7c 09bf
00000350: 86ad f2be 0238 5c3d ebc9 d9be d376 31bd
00000360: 5197 4abd 55ec 92be e33e a3be 1962 c03a
00000370: 6f18 d43f 729d a4be 75d1 bf3f 0eeb 98be
00000380: bf66 9a3f a5ad d03f 08d6 a03d 0acf a3be
00000390: 90ca 8f3f d0d2 56bc 79c0 0dbf d7e9 fa3d
000003a0: 5d89 583f 8f16 0ebf d0bb dbbe 1017 30bf
000003b0: 837d 86bd 1445 29bf 0813 77bd cc5e 9fbe
000003c0: 4796 12bf 49ca 81be 9cdf d1bd c433 bcbe
000003d0: f10d 0bbf dec7 53be 1d8a a73f 3e18 c93f
000003e0: 402b 283e c4fe b53d 5891 9d3d cfd3 8e3f
000003f0: 2b48 cf3c 1e8e efbe 2c6c 02bf f09b 6a3f

layer3.bias f4 [5]
0.84637654 1.131829 1.1509118 1.3229854 0.66621786
00000000: 22ac 583f c6df 903f 1451 933f 9657 a93f
00000010: 418d 2a3f
